good_weights/no_augment_on_kaggle/my/010.ckpt (torch_old, 350841 bytes, 14 tensors)

lstm.weight_ih_l0 f4 [256, 12]
-0.12434396 0.17595597 -0.1174849 -0.27166197 0.22986394 -0.08893544 -0.29018667 0.3208545
0.22474374 -0.15690786 0.24750896 0.06611967 0.04051232 0.34889108 -0.2816046 -0.05675775
-0.41374615 0.020361586 -0.094325714 0.06746015 -0.06011461 0.11148285 0.019755863 0.2513271
-0.0186778 0.5811371 0.15110724 0.107552886 -0.1309122 -0.032853447 -0.23928784 -0.16282941
-0.18382399 0.0466555 -0.29761365 0.085552156 -0.0002633373 0.09019532 0.2323516 0.10757727
0.38759676 0.17458944 0.053138796 -0.14925691 -0.22881144 -0.34075895 -0.3401242 -0.4195124
-0.028671823 0.014820584 0.28772873 0.10093658 -0.21649107 -0.23558073 0.13123412 0.5254388
0.39022496 -0.46978688 -0.37214014 0.068163015 0.22583905 0.044415846 0.032808483 -0.016472377
-0.22495753 -0.38283098 0.06534363 -0.21638939 -0.24980164 0.5204221 0.21516435 -0.012900788
-0.06500203 -0.10453881 0.14828692 0.08223244 -0.22054303 -0.11640056 0.29594114 0.28602698
0.08799767 -0.11103109 -0.09777797 -0.105891764 0.015156531 0.52844024 -0.07072192 -0.006235975
0.033006303 -0.24305803 0.031161241 0.15633182 -0.13588637 0.2678666 -0.119045466 0.004930292
-0.34936818 0.07324428 -0.098916836 -0.051507562 -0.13286406 -0.011178285 -0.07729476 -0.07254715
0.037943725 -0.02834588 -0.07694839 0.13654463 -0.067243695 0.05803043 0.091077104 -0.39966068
0.04930727 0.10250333 0.13306938 0.33799517 -0.16942507 -0.16306531 0.26283666 -0.08103474
-0.06684011 0.3697831 0.15615562 0.041070025 -0.23814966 0.27657792 -0.07775625 -0.10999972
-0.007534997 0.19841708 0.03151865 -0.28962812 -0.18040648 -0.06616705 -0.25104448 -0.1679971
-0.04256471 -0.23596826 0.052131232 -0.2352507 -0.39848834 0.06624597 -0.07524875 0.11931523
0.020937536 -0.08282526 -0.17213765 -0.17026293 -0.21291141 0.35258994 0.19767232 0.3610447
0.20357534 0.0215341 -0.2498702 -0.44621 -0.26054776 -0.09419368 0.0032345513 0.2646669
-0.050721247 0.032287654 -0.23531787 -0.3501245 -0.22973251 -0.23610076 -0.37557742 0.11433181
0.03801459 -0.103936456 0.16946453 -0.35166964 0.30505595 -0.27461556 0.17744859 -0.11304664
-0.08712632 0.07037157 0.031806074 -0.1666841 -0.10104692 -0.15678902 0.4221825 0.2683705
0.18722405 0.22822319 0.056774396 0.040901605 0.040459666 -0.23876293 0.102242224 0.29126456
0.005121289 0.0078041437 0.065053865 -0.2723407 -0.44289783 0.14450812 0.29291204 -0.06092275
-0.111217216 0.25914034 0.41822156 -0.05064298 0.08308266 -0.19635218 0.17071396 0.26801392
-0.04180435 0.29804367 -0.106845416 0.37918478 -0.026371125 0.08992732 0.06322212 0.30627647
0.03532852 0.31318584 0.02788237 0.20992842 -0.28055677 -0.3705712 -0.21156041 0.004684468
-0.051773395 0.052892767 -0.07793487 0.41805723 0.12771654 0.030547695 0.038299553 0.24549122
0.4154817 0.19252288 -0.20265159 -0.38017237 0.04424358 -0.26990047 -0.23967548 -0.024013301
-0.2365188 0.016747948 -0.104192026 0.20017765 0.03879406 0.04450581 0.056403995 -0.14054586
0.15892184 -0.32207188 0.18941297 0.08560967 -0.06133957 0.016042428 0.079180054 0.1342313
00000000: 0ca8 febd cd2d 343e ec9b f0bd 4717 8bbe
00000010: 7461 6b3e c923 b6bd 5993 94be 0b47 a43e
00000020: 3923 663e 74ac 20be fd72 7d3e c069 873d
00000030: 3ff0 253d daa1 b23e 7a2e 90be d17a 68bd
00000040: 89d6 d3be 57cd a63c d72d c1bd 8c28 8a3d
00000050: bd3a 76bd 1f51 e43d 0cd7 a13c f2ad 803e
00000060: 3002 99bc 67c5 143f dbbb 1a3e b044 dc3d
00000070: d90d 06be 5691 06bd df07 75be c1bc 26be
00000080: 5b3c 3cbe d619 3f3d d160 98be f835 af3d
00000090: 8910 8ab9 53b8 b83d 94ed 6d3e 7951 dc3d
000000a0: 1573 c63e 93c7 323e 11a8 593d ced6 18be
000000b0: 8c4d 6abe f577 aebe c224 aebe 54ca d6be
000000c0: 2ce1 eabc 09d2 723c 2e51 933e d6b7 ce3d
000000d0: d6af 5dbe 133c 71be 3d62 063e 2883 063f
000000e0: 91cb c73e e887 f0be 2789 bebe 0d99 8b3d
000000f0: 5a42 673e 64ed 353d 3062 063d 14f1 86bc
00000100: 445b 66be 6c02 c4be e2d2 853d 2e95 5dbe
00000110: 00cc 7fbe 623a 053f 0b54 5c3e d45d 53bc
00000120: c91f 85bd 7218 d6bd 87d8 173e 7b69 a83d
00000130: 08d6 61be 6b63 eebd 9985 973e 2172 923e
00000140: 1f38 b43d 4564 e3bd d13f c8bd c8dd d8bd
00000150: 1953 783c dc47 073f a7d6 90bd 2657 ccbb
00000160: 9e31 073d 34e4 78be dc45 ff3c 7315 203e
00000170: cc25 0bbe d025 893e 1cce f3bd 498e a13b
00000180: 63e0 b2be 1901 963d e994 cabd 98f9 52bd
00000190: 840d 08be 2025 37bc b74c 9ebd 9a93 94bd
000001a0: e16a 1b3d 9e35 e8bc 1e97 9dbd 5bd2 0b3e
000001b0: 10b7 89bd 51b1 6d3d a286 ba3d 53a0 ccbe
000001c0: 6cf6 493d 44ed d13d 5743 083e b40d ad3e
000001d0: c47d 2dbe 98fa 26be 8792 863e 8bf5 a5bd
000001e0: 78e3 88bd 3654 bd3e 42e7 1f3e 0b39 283d
000001f0: 81dd 73be 9f9b 8d3e ab3e 9fbd 8847 e1bd
00000200: 23e8 f6bb d92d 4b3e b319 013d 234a 94be
00000210: 7abc 38be 9782 87bd e788 80be 6f07 2cbe
00000220: 5558 2ebd aaa1 71be 8f87 553d 8fe5 70be
00000230: aa06 ccbe f8ab 873d 041c 9abd 8b5b f43d
00000240: 3285 ab3c 4aa0 a9bd da44 30be 6859 2ebe
00000250: 7305 5abe ab86 b43e 9d6a 4a3e dada b83e
00000260: 0e76 503e 4868 b03c f9dd 7fbe a375 e4be
00000270: 8466 85be 9ee8 c0bd c4fa 533b 6b82 873e
00000280: 15c1 4fbd 0f40 043d 2bf7 70be 8543 b3be
00000290: 003f 6bbe 66c4 71be af4b c0be cc26 ea3d
000002a0: 30b5 1b3d a3dc d4bd 1c88 2d3e 0b0e b4be
000002b0: 4b30 9c3e 699a 8cbe 15b5 353e ff84 e7bd
000002c0: 496f b2bd f81e 903d 1647 023d 3daf 2abe
000002d0: b0f1 cebd 4d8d 20be 4e28 d83e dc67 893e
000002e0: a9b7 3f3e 57b3 693e 458c 683d 7188 273d
000002f0: 09b9 253d 457e 74be 5f64 d13d a120 953e
00000300: 7cd0 a73b e7b9 ff3b f63a 853d 3d70 8bbe
00000310: 81c3 e2be f0f9 133e 91f8 953e 228a 79bd
00000320: dac5 e3bd 0bae 843e 2321 d63e 036f 4fbd
00000330: 3e27 aa3d 8c10 49be a4cf 2e3e 1f39 893e
00000340: 0a3b 2bbd 2e99 983e c5d1 dabd 8224 c23e
00000350: 4208 d8bc d12b b83d 997a 813d 45d0 9c3e
00000360: a3b4 103d e559 a03e 9169 e43c 7af7 563e
00000370: 23a5 8fbe 82bb bdbe 4ba3 58be 2a80 993b
00000380: 5710 54bd 16a6 583d 519c 9fbd 990b d63e
00000390: 20c8 023e 293f fa3c fedf 1c3d 0d62 7b3e
000003a0: 04ba d43e b824 453e e683 4fbe f4a5 c2be
000003b0: c238 353d 6530 8abe 7d6d 75be 8bb7 c4bc
000003c0: fc31 72be fe32 893c a162 d5bd 5ffb 4c3e
000003d0: 85e6 1e3d b94b 363d e007 673d 41eb 0fbe
000003e0: 68bc 223e 9be6 a4be 79f5 413e 1f54 af3d
000003f0: 333f 7bbd 696b 833c 2729 a23d ee73 093e

lstm.weight_hh_l0 f4 [256, 64]
0.6444315 0.412612 -0.1497386 0.1915779 -0.0494546 -0.037032463 -0.16410428 -0.1797621
0.17259854 0.2120863 -0.05658023 0.23875377 0.010009877 -0.465848 0.64170486 0.104522936
-0.13333026 0.20472394 0.190062 0.10929802 -0.17163403 0.20696488 -0.07552899 0.24520288
0.38096038 -0.19146754 -0.16376403 -0.4105068 -0.16403934 0.19776225 -0.35067642 0.046131067
0.52865523 -0.6393353 -0.36434713 -0.21515149 0.0708484 0.014332434 -0.1394731 0.069921434
-0.25655013 -0.008510816 0.007285794 0.37541756 0.083174534 0.3160325 -0.15232581 -0.578287
-0.03829605 -0.32312372 -0.13963263 -0.03684455 -0.29348958 -0.26931936 -0.021407666 -0.10045722
-0.1853265 0.33976135 0.04982382 -0.4053807 -0.0025071667 0.39926812 0.09634434 0.33195555
-0.26690847 0.04880234 -0.12083229 0.2013446 -0.13569763 0.21706043 0.09844253 -0.1905771
0.01676798 0.19104296 -0.08582373 0.4033332 0.123251535 0.20153521 0.60995364 -0.019869482
0.18527132 -0.19632113 -0.1681568 0.09999185 -0.02453609 -0.086457886 0.32879543 -0.16141443
-0.0114854295 -0.036556095 -0.17570461 0.20121515 -0.027059121 0.04124895 0.22978228 -0.10912168
0.47522813 -0.27047056 -0.16186728 -0.022560973 -0.06232482 -0.20166282 -0.058808476 0.16945966
0.15843771 0.043239117 -0.35388035 -0.1268453 -0.063569404 0.16557847 0.1671384 -0.17299472
-0.017602714 -0.28677696 0.23537472 0.16175087 -0.04528181 -0.27952856 0.13616368 0.28102708
-0.40108496 0.230582 -0.07706369 0.07511284 0.064279094 0.016611177 0.051645078 0.05282973
0.12962164 0.103786215 0.46991158 -0.010560213 -0.024868632 0.008626047 0.045452807 -0.018497027
-0.20488477 -0.034317948 0.27833956 0.05989775 -0.26602808 0.21833342 -0.093791425 -0.030282998
0.1615415 0.2666317 -0.15565528 -0.32252178 0.100118786 -0.078012 0.011711967 -0.47645837
0.00038921868 -0.20934705 0.19059695 0.04618311 0.050647065 0.35923856 0.08758235 -0.3690157
0.23018521 0.16618077 -0.17059354 0.003873774 -0.048391752 -0.13327748 0.15911213 0.32081997
-0.15226851 0.050640736 -0.19279353 -0.077158794 -0.025537718 0.3858597 -0.03952405 -0.39153224
-0.30483428 -0.18662661 -0.062141206 0.03524644 0.2778877 -0.16035633 -0.08137321 -0.0674621
0.019795565 -0.22703797 0.030284688 0.026859675 -0.27750427 -0.08327841 -0.06674963 -0.30347094
0.573439 -0.11329391 -0.38244855 -1.9341854 -0.07701772 -0.24545817 -0.19431299 0.5636807
-0.058564633 -0.23836088 -0.023741703 0.2699501 0.1194818 -0.4152017 0.41909826 0.08238608
0.2798051 0.60811025 0.90347016 -0.5997694 -0.59753215 -0.75659233 -0.62068087 0.39621118
0.2656422 0.24812452 1.0979055 -0.38937196 0.104503095 0.34099606 -0.21993388 -0.042633835
0.13102116 0.24572074 0.17656763 -0.41828105 -0.06523999 0.13935556 -0.06355796 0.4196321
-0.5627029 0.81198394 0.70976096 0.24959071 0.025639283 0.14622514 -0.25371277 -0.5910609
0.018508082 -0.08042303 -0.4430408 0.7775516 0.80936116 0.09545715 0.22327062 -0.4242166
-0.20760764 0.5239901 0.46518216 -0.0550903 0.4811667 0.3253914 -0.7047991 -0.15115486
00000000: 76f9 243f e141 d33e 1355 19be ff2c 443e
00000010: e890 4abd 5aaf 17bd f40a 28be 8e13 38be
00000020: acbd 303e 272d 593e acc0 67bd de7b 743e
00000030: 7800 243c a183 eebe c546 243f 1f10 d63d
00000040: ba87 08be 27a3 513e 9d9f 423e a4d7 df3d
00000050: d5c0 2fbe 9aee 533e f1ae 9abd 7716 7b3e
00000060: 3d0d c33e 1110 44be c2b1 27be f32d d2be
00000070: eef9 27be 3082 4a3e dc8b b3be eef3 3c3d
00000080: f355 073f 7aab 23bf b58b babe ac50 5cbe
00000090: f718 913d 96d2 6a3c 09d2 0ebe f832 8f3d
000000a0: 8a5a 83be f370 0bbc abbd ee3b bb36 c03e
000000b0: 6957 aa3d 03cf a13e 4cfb 1bbe 9e0a 14bf
000000c0: 52dc 1cbd 7970 a5be dbfb 0ebe 50ea 16bd
000000d0: 4444 96be 3ae4 89be 215f afbc 84bc cdbd
000000e0: 3bc6 3dbe 33f5 ad3e 1014 4c3d 0f8e cfbe
000000f0: 474f 24bb df6c cc3e 2e50 c53d 14f6 a93e
00000100: 3aa8 88be f6e4 473d eb76 f7bd 472d 4e3e
00000110: 52f4 0abe 1745 5e3e 3d9c c93d a526 43be
00000120: 015d 893c c4a0 433e 5ac4 afbd b081 ce3e
00000130: 4d6b fc3d 3f5f 4e3e ec25 1c3f 53c5 a2bc
00000140: c4b7 3d3e 6808 49be 4c31 2cbe 87c8 cc3d
00000150: e9ff c8bc d510 b1bd e057 a83e d349 25be
00000160: 622d 3cbc d8bb 15bd e9eb 33be 580b 4e3e
00000170: 17ab ddbc a9f4 283d 0c4c 6b3e 307b dfbd
00000180: 1a51 f33e 1e7b 8abe 89c0 25be cad1 b8bc
00000190: 4f48 7fbd b380 4ebe 28e1 70bd d586 2d3e
000001a0: 7f3d 223e 801b 313d ce2f b5be bce3 01be
000001b0: ad30 82bd 678d 293e 5426 2b3e 8725 31be
000001c0: 9133 90bc 6ed4 92be 1206 713e 05a2 253e
000001d0: 6b79 39bd 5e1e 8fbe 7e6e 0b3e c8e2 8f3e
000001e0: 025b cdbe b01d 6c3e 91d3 9dbd c3d4 993d
000001f0: c2a4 833d 2a14 883c ca89 533d fd63 583d
00000200: 89bb 043e de8d d43d 4098 f03e be04 2dbc
00000210: 4db9 cbbc 4354 0d3c b92c 3a3d 1487 97bc
00000220: 50cd 51be fa90 0cbd 8682 8e3e 5857 753d
00000230: d534 88be cc92 5f3e b815 c0bd 0d14 f8bc
00000240: 236b 253e f383 883e 1964 1fbe 9321 a5be
00000250: 140b cd3d c1c4 9fbd 8de3 3f3c 5af2 f3be
00000260: 0c10 cc39 135f 56be d92b 433e 802a 3d3d
00000270: 4c73 4f3d 1eee b73e 605e b33d a0ef bcbe
00000280: acb5 6b3e 4b2b 2a3e 13b0 2ebe 25df 7d3b
00000290: 6e36 46bd e479 08be 4aee 223e 8442 a43e
000002a0: 47ec 1bbe a96c 4f3d ab6b 45be 6e05 9ebd
000002b0: 7a34 d1bc 678f c53e f8e3 21bd ea76 c8be
000002c0: 3d13 9cbe 0c1b 3fbe c787 7ebd 925e 103d
000002d0: 4c47 8e3e 7334 24be ffa6 a6bd 9229 8abd
000002e0: 4f2a a23c a47c 68be 9817 f83c d208 dc3c
000002f0: 0a15 8ebe df8d aabd 08b4 88bd 8b60 9bbe
00000300: e6cc 123f a306 e8bd 4cd0 c3be 6393 f7bf
00000310: 77bb 9dbd 6359 7bbe fcf9 46be 614d 103f
00000320: 78e1 6fbd e014 74be f67d c2bc e636 8a3e
00000330: e0b2 f43d 5195 d4be 0c94 d63e 08ba a83d
00000340: 9d42 8f3e 1dad 1b3f d249 673f 7d8a 19bf
00000350: def7 18bf 09b0 41bf f1e4 1ebf 31dc ca3e
00000360: 4102 883e 5b14 7e3e 2b88 8c3f c35b c7be
00000370: b805 d63d 0997 ae3e 5936 61be d1a0 2ebd
00000380: 692a 063e 389e 7b3e 25ce 343e ef28 d6be
00000390: 8b9c 85bd 39b3 0e3e ad2a 82bd 05da d63e
000003a0: 4c0d 10bf 2ede 4f3f e5b2 353f b594 7f3e
000003b0: 7909 d23c 0bbc 153e a4e6 81be c44f 17bf
000003c0: 439e 973c d4b4 a4bd 3ed6 e2be 9f0d 473f
000003d0: 4b32 4f3f 0a7f c33d 0ea1 643e eb32 d9be
000003e0: 1997 54be 3724 063f 5b2c ee3e 5ea6 61bd
000003f0: 7b5b f63e b499 a63e b76d 34bf 57c8 1abe

lstm.bias_ih_l0 f4 [256]
-0.23271632 0.2355358 0.23356402 -0.54194814 -0.28913385 0.03143025 -0.2913183 0.13150205
0.33157825 -0.35337922 0.44545192 -0.050333537 0.043532297 0.055687465 1.1092005 -0.23275016
-0.39629054 0.39152482 0.24627012 0.0045105913 -0.17954624 -0.14418975 0.13694227 0.052848987
0.19140434 -0.028551282 -0.23353639 0.0612561 0.09784755 0.1588285 0.29726657 0.18080284
-0.30657464 0.17219648 0.2729048 0.24498859 0.010330795 0.1010608 -0.14185892 0.29522896
0.19527991 -0.8180101 0.22891805 0.21350658 0.03865387 0.18187009 0.31210104 0.40355498
-0.5743019 0.28659666 0.11755248 0.0895071 0.18958557 -0.18550402 0.45896542 0.20483716
0.26451492 1.3425698 0.16100892 0.12459579 0.04420495 0.30610096 -0.314752 -0.17621924
-0.14535609 0.20106064 0.034023907 -0.30316654 -0.32525992 0.17929362 -0.16719024 -0.589028
0.45554286 -0.03380697 -0.16766164 0.057001874 -0.10477802 0.30072096 -0.06910842 0.12551212
-0.32079107 -0.08629057 0.16040836 0.10699287 -0.057778906 -0.32098305 0.2661564 0.22596408
-0.5111885 -0.33368975 0.24509533 -0.03267114 -0.09966567 -0.11637705 -0.24617708 -0.21293798
-0.13381678 -0.04215015 -0.09362829 0.07249857 0.13826755 0.05594 0.19024526 -0.15339704
-0.26012424 -0.18640812 -0.3002234 0.2182532 0.20170163 -0.09362339 -0.10359312 0.15218656
-0.3246042 -0.28231257 -0.2535325 0.02020186 0.1401531 -0.04529061 -0.10005055 -0.13048284
-0.13074148 -0.03902346 0.12319579 -0.123062536 0.3161131 -0.13747989 -0.015649457 -0.18380374
-0.3233058 0.11960119 0.07649844 0.21520318 0.11955452 0.07964646 0.07496534 -0.07659267
-0.38288203 -0.24349105 -0.47578213 -0.42123523 0.0711345 0.09776007 0.14909075 -0.03268836
0.04716635 -0.046981487 -0.5088863 -0.11797577 0.19489722 0.13538675 0.14565037 -0.4832436
-0.3880346 0.01825767 -0.2973572 0.11993154 0.53547645 -0.14301997 -0.25720432 0.07083899
0.25325453 -0.11224107 -0.21514899 0.046394933 0.32001895 -0.2414976 -0.017193075 0.16786294
0.17062584 -0.14966844 -0.2214709 -0.31431994 0.047296654 0.22342917 -0.18250075 -0.33790526
0.20305632 -0.15509225 0.226052 0.04147244 0.08110982 0.31084332 0.31049126 -0.2671064
0.21396545 -0.38113502 -0.43695888 0.2980687 -0.19210227 -0.10173403 -0.28513354 -0.18013315
0.055788223 0.62867975 0.94449407 -0.1575593 -0.19854768 0.08643587 0.117233254 -0.39213467
1.151555 -0.2367281 0.26746842 0.013524901 0.2870779 0.391144 0.5286883 -0.0820417
0.28225988 0.22401232 -0.005325575 0.16949548 -0.39631948 -0.7585512 0.21536113 -0.18163611
0.021836316 -0.012154557 -0.32462648 -0.52184796 -0.5065774 0.19819078 0.5886225 0.10704438
-0.12618038 0.047727063 0.020479953 0.23129341 -0.5901935 0.35415408 -0.063323975 -0.061887015
0.2538904 -0.0043419152 -0.38667527 1.6027508 -0.14096531 0.15934291 0.43436697 -0.15617228
0.08707972 0.4084023 -0.07319842 0.14715174 -0.15387756 0.235298 0.4753276 0.043852337
0.27662188 0.30120304 0.8085814 0.3349796 0.0706137 0.20551793 0.009011473 0.23884732
00000000: 304d 6ebe 4c30 713e 682b 6f3e 1dbd 0abf
00000010: 5a09 94be 01bd 003d ac27 95be 79a8 063e
00000020: a0c4 a93e 1fee b4be 4612 e43e 8a2a 4ebd
00000030: ec4e 323d 8a18 643d 48fa 8d3f 0f56 6ebe
00000040: 98e6 cabe f175 c83e 3c2e 7c3e 95cd 933b
00000050: f8da 37be 7aa6 13be 983a 0c3e 2e78 583d
00000060: 80ff 433e 61e4 e9bc 2a24 6fbe ade7 7a3d
00000070: 4c64 c83d f0a3 223e 5333 983e 6124 393e
00000080: 5af7 9cbe 4654 303e 2eba 8b3e 4ade 7a3e
00000090: 7f42 293c f7f8 ce3d 7743 11be 4028 973e
000000a0: 75f7 473e 1c69 51bf 7e69 6a3e 78a1 5a3e
000000b0: 8553 1e3d 273c 3a3e b5cb 9f3e c29e ce3e
000000c0: 7305 13bf ccbc 923e 5bbf f03d 804f b73d
000000d0: b822 423e c4f4 3dbe 84fd ea3e d5c0 513e
000000e0: 806e 873e 54d9 ab3f 86df 243e 142c ff3d
000000f0: 4010 353d 44b9 9c3e 2d27 a1be d172 34be
00000100: 3ad8 14be d7e2 4d3e a75c 0b3d a538 9bbe
00000110: 7888 a6be bf98 373e eb33 2bbe 8aca 16bf
00000120: ea3c e93e 2d79 0abd 7eaf 2bbe cc7a 693d
00000130: dc95 d6bd 19f8 993e b788 8dbd 4086 003e
00000140: ba3e a4be 1cb9 b0bd 1742 243e 141f db3d
00000150: 93a9 6cbd e457 a4be a745 883e 2163 673e
00000160: 40dd 02bf 62d9 aabe 45fa 7a3e 2cd2 05bd
00000170: 841d ccbd 1757 eebd d815 7cbe 6a0c 5abe
00000180: 4407 09be a3a5 2cbd 30c0 bfbd 217a 943d
00000190: 0296 0d3e 5721 653d a7cf 423e 1d14 1dbe
000001a0: 012f 85be c5e1 3ebe e2b6 99be c47d 5f3e
000001b0: df8a 4e3e 9fbd bfbd a128 d4bd cbd6 1b3e
000001c0: 8632 a6be 468b 90be 03cf 81be 5f7e a53c
000001d0: 4b84 0f3e a682 39bd 4ee7 ccbd 4b9d 05be
000001e0: 18e1 05be 10d7 1fbd 134e fc3d 3608 fcbd
000001f0: 94d9 a13e 87c7 0cbe 4a33 80bc 0c37 3cbe
00000200: 5688 a5be 78f1 f43d 37ab 9c3d 395e 5c3e
00000210: 00d9 f43d af1d a33d 6e87 993d 9edc 9cbd
00000220: 1d09 c4be b855 79be b799 f3be 25ac d7be
00000230: f7ae 913d 6e36 c83d 3fab 183e 3be4 05bd
00000240: 8131 413d a96f 40bd 5f46 02bf 489d f1bd
00000250: 2393 473e d3a2 0a3e 5f25 153e b56b f7be
00000260: 79ac c6be 1c91 953c 343f 98be ab9e f53d
00000270: fc14 093f d473 12be 49b0 83be 0814 913d
00000280: 94aa 813e a5de e5bd 0450 5cbe 9d08 3e3d
00000290: 86d9 a33e 264b 77be 7ed8 8cbc 43e4 2b3e
000002a0: 8ab8 2e3e af42 19be 45c9 62be 8bee a0be
000002b0: 23ba 413d 9eca 643e 7ae1 3abe eb01 adbe
000002c0: ffed 4f3e 81d0 1ebe 2d7a 673e 01df 293d
000002d0: e81c a63d db26 9f3e b6f8 9e3e 2cc2 88be
000002e0: c219 5b3e 2124 c3be 13b9 dfbe 769c 983e
000002f0: 75b6 44be ee59 d0bd 06fd 91be d374 38be
00000300: 3182 643d 28f1 203f 5dca 713f 3a57 21be
00000310: 1550 4bbe 4a05 b13d fd17 f03d e0c5 c8be
00000320: 2766 933f da68 72be 9ff1 883e 8c97 5d3c
00000330: e0fb 923e 0744 c83e 1e58 073f 7b05 a8bd
00000340: 5e84 903e 7c63 653e 2982 aebb 3990 2d3e
00000350: 63ea cabe 6930 42bf a187 5c3e d1fe 39be
00000360: 13e2 b23c e823 47bc 7135 a6be d497 05bf
00000370: 0eaf 01bf 86f2 4a3e f7af 163f 153a db3d
00000380: 6e35 01be 747d 433d 93c5 a73c 2ed8 6c3e
00000390: ec16 17bf af53 b53e 00b0 81bd 3d7d 7dbd
000003a0: ecfd 813e a046 8ebb 4dfa c5be f026 cd3f
000003b0: 3659 10be ca2a 233e 5965 de3e a0eb 1fbe
000003c0: da56 b23d 1b1a d13e 0ee9 95bd f2ae 163e
000003d0: 1492 1dbe f5f1 703e 245e f33e 829e 333d
000003e0: 62a1 8d3e 4937 9a3e 31ff 4e3f 7282 ab3e
000003f0: ea9d 903d 4b73 523e dba4 133c 6494 743e

lstm.bias_hh_l0 f4 [256]
-0.08355544 0.18259294 0.2776356 -0.48894632 -0.43482357 0.09773991 -0.29089752 0.2908401
0.25027525 -0.41682225 0.26818815 -0.008999264 0.050481606 -0.031668738 1.0356809 -0.055909354
-0.29206064 0.62294346 0.15904878 -0.09759716 -0.2811116 -0.2542765 -0.07358981 0.012203208
0.027004657 0.09159134 -0.1335579 0.15869609 0.19300565 0.17386477 0.17148288 0.11530316
-0.18374488 0.13543886 0.060821295 0.37006342 0.06955715 0.12978637 0.014966831 0.24827342
0.2715587 -0.7505693 0.2821402 0.13075252 -0.01941585 0.18927795 0.28967017 0.30794898
-0.61453384 0.42070282 0.1268332 0.26696858 0.33929348 -0.20481698 0.2584056 0.17841826
0.13477764 1.271425 0.20942788 0.24042341 0.15366954 0.31524587 -0.3098755 -0.00627047
-0.27911583 0.26359737 -0.05304064 -0.4427862 -0.12688012 0.050577927 -0.24848354 -0.57123
0.35599872 0.075752154 -0.22566952 0.038788147 -0.26516223 0.12287929 -0.08777931 0.19109356
-0.42718294 0.015072884 0.21817712 0.104191095 -0.18975848 -0.27869388 0.26323637 0.03865965
-0.4909515 -0.14163612 0.013504436 -0.14356144 0.09665318 -0.006721652 -0.085580006 -0.149774
-0.14649035 0.12517525 -0.27927402 0.10268194 0.02876055 -0.08394885 0.1806833 -0.14973855
-0.10329917 -0.22541358 -0.12789473 0.25223023 0.29995194 -0.1752172 -0.0874927 0.13066486
-0.33020964 -0.20643942 -0.32660723 0.09324844 0.14532427 0.0959928 -0.14164789 -0.1311383
-0.0257721 0.09199426 0.2616918 0.05258823 0.12872882 -0.21699123 -0.1674363 -0.11253731
-0.3868572 0.13975336 0.113701195 0.10059897 0.18358582 0.20799255 -0.034394205 -0.0038641344
-0.28780854 -0.14143358 -0.43973875 -0.5211506 -0.021244831 0.15055512 0.14309213 -0.017720547
-0.051578503 -0.094721675 -0.39351225 -0.22514701 0.10010299 0.2035749 0.11295925 -0.38461965
-0.36264732 0.048255585 -0.3370788 0.19204862 0.4033568 -0.2745342 -0.15871911 0.13947685
0.15264027 -0.026341293 -0.14395742 0.09927137 0.2570366 -0.32803687 -0.17184658 -0.008480864
0.15550874 -0.15964189 -0.060401108 -0.4248058 0.22805302 0.12870184 -0.33422232 -0.25773415
0.27261242 -0.09133533 0.27682292 0.074276514 0.17687753 0.2713191 0.09212053 -0.19577706
0.22571869 -0.33316007 -0.35275674 0.5060338 -0.21998814 -0.11372739 -0.2557807 -0.13006131
0.013442258 0.4639678 0.92595977 -0.24841554 -0.39583856 0.27428088 -0.04718332 -0.29026863
1.1912433 -0.10952864 0.32335678 0.02442118 0.20415024 0.44770145 0.6014884 0.072092265
0.3671515 0.3381217 0.102441184 0.26858345 -0.47208259 -0.8706376 0.28848016 -0.17111057
0.029300211 -0.17778946 -0.24150065 -0.3969977 -0.37995893 0.009362529 0.37983468 -0.09634374
-0.004288212 0.1817885 0.0323476 0.3700767 -0.7799258 0.23660187 0.10651591 -0.02611177
0.08976462 -0.01844277 -0.30509555 1.481064 -0.25210595 0.31217903 0.34299567 -0.0003228887
-0.0007468702 0.38325548 -0.19698343 0.22401248 0.025021354 0.07402785 0.5210206 0.026962208
0.14503984 0.2909707 0.8814873 0.37754306 0.074706525 0.17889078 -0.036961317 0.3513302
00000000: 1d1f abbd a5f9 3a3e 4126 8e3e 2c57 fabe
00000010: 32a1 debe dd2b c83d 85f0 94be fee8 943e
00000020: 1424 803e ba69 d5be f54f 893e a671 13bc
00000030: cdc5 4e3d 14b7 01bd 3191 843f 3501 65bd
00000040: f988 95be 3979 1f3f afdd 223e 05e1 c7bd
00000050: dced 8fbe 8830 82be 41b6 96bd f7ef 473c
00000060: df38 dd3c 3e94 bb3d 67c3 08be 3a81 223e
00000070: 46a3 453e 9b09 323e 3599 2f3e 1024 ec3d
00000080: 9e27 3cbe 7cb0 0a3e c01f 793d f478 bd3e
00000090: fb73 8e3d b8e6 043e 7037 753c 633b 7e3e
000000a0: be09 8b3e 4f25 40bf ae74 903e fde3 053e
000000b0: fd0d 9fbc 14d2 413e a64f 943e 7dab 9d3e
000000c0: 1752 1dbf 5c66 d73e 90e0 013e 1bb0 883e
000000d0: e0b7 ad3e 8bbb 51be bd4d 843e 47b3 363e
000000e0: 2603 0a3e 0ebe a23f 4374 563e 8e31 763e
000000f0: 8c5b 1d3e e867 a13e 00a8 9ebe 8478 cdbb
00000100: 45e8 8ebe 3cf6 863e 2441 59bd dfb4 e2be
00000110: ddec 01be cd2a 4f3d 7872 7ebe 213c 12bf
00000120: 7745 b63e f223 9b3d e915 67be 52e0 1e3d
00000130: 58c3 87be 23a8 fb3d a4c5 b3bd 08ae 433e
00000140: b9b7 dabe 42f4 763c d369 5f3e 2462 d53d
00000150: 0c50 42be f7b0 8ebe ebc6 863e 9559 1e3d
00000160: ff5d fbbe 0f09 11be b641 5d3c c501 13be
00000170: 1af2 c53d 4e41 dcbb 9244 afbd 5b5e 19be
00000180: 9101 16be f12d 003e 01fd 8ebe e94a d23d
00000190: 3f9b eb3c 60ed abbd 0b05 393e 1055 19be
000001a0: 848e d3bd d1d2 66be d6f6 02be 5224 813e
000001b0: 4d93 993e 236c 33be 5f2f b3bd 02cd 053e
000001c0: 3d11 a9be db64 53be 1039 a7be 0af9 be3d
000001d0: e3cf 143e e097 c43d 250c 11be 1e49 06be
000001e0: 0320 d3bc 7d67 bc3d 78fc 853e c266 573d
000001f0: 7dd1 033e f332 5ebe 6c74 2bbe f679 e6bd
00000200: 2612 c6be 811b 0f3e 2cdc e83d d506 ce3d
00000210: ecfd 3b3e 00fc 543e f0e0 0cbd 6b3d 7dbb
00000220: a45b 93be f7d3 10be 7025 e1be 206a 05bf
00000230: a409 aebc 1f2b 1a3e be86 123e ae2a 91bc
00000240: fb43 53bd 70fd c1bd 707a c9be f08c 66be
00000250: cc02 cd3d f075 503e 2e57 e73d deec c4be
00000260: e9ac b9be a6a7 453d 9895 acbe 65a8 443e
00000270: c884 ce3e bf8f 8cbe 4387 22be 05d3 0e3e
00000280: bb4d 1c3e b2c9 d7bc 9369 13be ca4e cb3d
00000290: 4d9a 833e 73f4 a7be 8df8 2fbe 52f3 0abc
000002a0: af3d 1f3e 2a79 23be 2767 77bd 2580 d9be
000002b0: bb86 693e 6aca 033e 301f abbe bbf5 83be
000002c0: db93 8b3e 040e bbbd bcbb 8d3e 491e 983d
000002d0: 621f 353e 56ea 8a3e b0a9 bc3d c879 48be
000002e0: cd22 673e f593 aabe 889c b4be 6e8b 013f
000002f0: 9244 61be e8e9 e8bd b0f5 82be cb2e 05be
00000300: eb3c 5c3c 308d ed3e b30b 6d3f a560 7ebe
00000310: 5aab cabe 8b6e 8c3e 4c43 41bd 179e 94be
00000320: a97a 983f 8d50 e0bd 058f a53e ed0e c83c
00000330: c30c 513e 2039 e53e 25fb 193f 1ca5 933d
00000340: 48fb bb3e 4a1e ad3e afcc d13d c583 893e
00000350: cfb4 f1be 1be2 5ebf acb3 933e 9c37 2fbe
00000360: ff06 f03c 710e 36be f24b 77be 4843 cbbe
00000370: fa89 c2be 4b65 193c b179 c23e de4f c5bd
00000380: 2184 8cbb c426 3a3e eb7e 043d b17a bd3e
00000390: 38a9 47bf c347 723e 0325 da3d 5ae8 d5bc
000003a0: 83d6 b73d 4b15 97bc 7c35 9cbe 8193 bd3f
000003b0: 0814 81be eed5 9f3e 219d af3e 6349 a9b9
000003c0: 9cc9 43ba 103a c43e 06b6 49be 8763 653e
000003d0: 95f9 cc3c ea9b 973d 9b61 053f d9df dc3c
000003e0: 5385 143e 1dfa 943e 27a9 613f 534d c13e
000003f0: bcff 983d 252f 373e c064 17bd 8de1 b33e

lstm.weight_ih_l1 f4 [256, 64]
-0.12212109 0.30119112 0.0040494916 -0.043218993 0.34620026 0.36533082 0.32172948 -0.43488055
0.1006579 -0.19112034 0.2928943 -0.01380585 -0.13218613 0.17759036 0.106954604 0.09799007
0.15409191 -0.36020163 -0.38014427 0.49206096 -0.09728025 -0.11556481 0.1569369 -0.24382313
0.033632018 0.0055621914 0.14242844 0.036074307 0.044255532 0.1248666 0.07662852 -0.013505992
0.4392598 -0.40746275 -0.19768766 0.07064561 -0.03888457 0.16889846 -0.1184193 -0.2766453
0.14008237 -0.17237099 -0.23381849 -0.16205691 -0.098027416 -0.10499446 0.14500086 -0.07103845
0.19766216 -0.13229257 0.35419005 -0.16416015 0.3757303 -0.13748461 0.036708515 0.057812903
0.45482245 -0.14049546 0.22479755 -0.21764131 0.105986305 -0.3836906 0.4069517 -0.17574349
0.13616538 -0.29049897 -0.21290138 -0.014840207 -0.79588515 -0.06514053 -0.25230345 0.3137391
-0.08812088 -0.19307777 -0.3270606 0.5425453 -0.0023910473 -0.16796347 0.1871976 0.09665778
-0.3468146 -0.41543552 0.19778492 0.06984917 -0.13377224 -0.016234627 0.07087215 0.02459432
0.1979678 0.18363523 -0.4356936 -0.37216702 -0.19916503 -0.43240485 -0.2220567 0.2632528
-0.15718187 -0.6542899 0.25294036 0.0107618775 -0.056266766 0.39235547 0.43813092 -0.26798016
-0.05561028 -0.1004054 -0.17162168 -0.052659128 0.23278672 0.051580653 -0.38113734 0.2680545
-0.14568327 0.30955553 0.059627548 0.16380662 -0.20391011 0.10034584 0.0039686253 0.13634667
-0.15243486 -0.0282586 0.027542967 -0.29426804 0.051720314 0.29396537 -0.060157627 -0.40198335
-0.038291417 0.07353335 0.07434667 0.09237842 -0.33354786 0.4206207 -0.41816136 0.35393974
-0.26423576 -0.19703619 0.01586067 0.31590995 -0.052447457 0.10622139 -0.54807514 -0.26594123
0.15844935 0.51159817 0.06259811 -0.21024013 -0.17004116 -0.5671518 -0.26987427 0.014892249
-0.14099145 -0.016412403 -0.051764715 -0.241032 -0.2499913 -0.46704003 0.08920752 -0.44605944
-0.44428235 -0.18198955 -0.5457213 -0.115252584 -0.1841204 0.2394046 -0.11382698 -0.12000979
0.015430876 0.22951175 0.16227046 -0.4460315 0.13180827 0.14314699 0.1210021 0.2851475
-0.13929804 0.055650204 0.065268636 0.28416646 0.109131284 0.12652007 0.049523946 -0.0099057555
-0.18348145 -0.28156108 -0.03663869 -0.15122074 -0.043075636 0.5796323 0.20242867 0.35326287
-0.19406776 -0.3674304 0.19821034 0.03883595 -0.028780596 -0.32995042 0.16571966 0.120252036
0.6994435 0.21494193 -0.22354384 0.18207282 0.27202985 0.17476836 0.06556762 -0.16274458
0.07885092 0.12211305 -0.14893411 -0.25888297 0.10240333 -0.18020126 -0.115774505 -0.334557
-0.10303799 0.0034107727 -0.21513262 0.030605309 -0.053999316 0.058742657 0.06948389 -0.00066292356
-0.18887068 0.3439057 0.15147159 -0.033491183 -0.026485039 0.08827629 -0.0016528936 -0.02700791
-0.122725785 0.0116950255 0.09193984 0.3438527 -0.44311163 -0.3196089 -0.020046318 0.20654981
-0.021173077 -0.04031356 0.21057934 -0.13148993 -0.16649412 0.075706355 0.36321437 -0.020556418
0.08962107 0.44560027 -0.030250197 -0.093786545 -0.17912553 0.23248415 0.13801295 -0.01924927
00000000: 9f1a fabd b935 9a3e 99b1 843b 6606 31bd
00000010: 2941 b13e a40c bb3e bab9 a43e aaa8 debe
00000020: bb25 ce3d 0db5 43be 3ef6 953e ef31 62bc
00000030: cd5b 07be 3fda 353e 040b db3d 05af c83d
00000040: 45ca 1d3e 596c b8be 45a2 c2be 6aef fb3e
00000050: de3a c7bd 3ead ecbd 11b4 203e c5ac 79be
00000060: bac1 093d 0b43 b63b c3d8 113e a7c2 133d
00000070: 4a45 353d 0fba ff3d 6aef 9c3d 3c48 5dbc
00000080: a9e6 e03e f59e d0be a26e 4abe a5ae 903d
00000090: 6d45 1fbd b8f3 2c3e d185 f2bd 74a4 8dbe
000000a0: c171 0f3e 0582 30be 1d6e 6fbe 3ff2 25be
000000b0: 99c2 c8bd 5607 d7bd 1b7b 143e 9b7c 91bd
000000c0: f367 4a3e b477 07be 6658 b53e 9919 28be
000000d0: b95f c03e c4c8 0cbe ab5b 163d 39cd 6c3d
000000e0: 7dde e83e 0bde 0fbe 5431 663e 5ddd 5ebe
000000f0: 590f d93d 1873 c4be f95b d03e 1af6 33be
00000100: f06e 0b3e 48bc 94be d202 5abe 5724 73bc
00000110: 21bf 4bbf 6668 85bd eb2d 81be 69a2 a03e
00000120: b878 b4bd 2eb6 45be 7d74 a7be 40e4 0a3f
00000130: 1eb3 1cbb 9efe 2bbe bab0 3f3e 84f4 c53d
00000140: af91 b1be f7b3 d4be 2188 4a3e 150d 8f3d
00000150: 97fb 08be 7bfe 84bc 6b25 913d 077a c93c
00000160: 12b8 4a3e e00a 3c3e 3b13 dfbe ad8c bebe
00000170: ebf1 4bbe 2b64 ddbe d562 63be 12c9 863e
00000180: 49f4 20be 8b7f 27bf 6681 813e 9652 303c
00000190: fb77 66bd d1e2 c83e b252 e03e b234 89be
000001a0: 9bc7 63bd 59a1 cdbd 98bd 2fbe 19b1 57bd
000001b0: a45f 6e3e 3c46 533d 6f24 c3be 703e 893e
000001c0: ff2d 15be 107e 9e3e 043c 743d ecbc 273e
000001d0: d0cd 50be 1f82 cd3d 3e0b 823b 769e 0b3e
000001e0: e217 1cbe 947e e7bc caa1 e13c 4daa 96be
000001f0: aed8 533d a182 963e d867 76bd c3d0 cdbe
00000200: 76d7 1cbd a798 963d 1143 983d e630 bd3d
00000210: c9c6 aabe 995b d73e 3f19 d6be 9737 b53e
00000220: e949 87be dbc3 49be 3cee 813c f3be a13e
00000230: 25d3 56bd 9a8a d93d a74e 0cbf 7329 88be
00000240: 8c40 223e 19f8 023f 7033 803d 3049 57be
00000250: 451f 2ebe dc30 11bf f62c 8abe 9ffe 733c
00000260: 1060 10be 4e73 86bc 3d07 54bd 18d1 76be
00000270: b8fd 7fbe df1f efbe 6fb2 b63d e761 e4be
00000280: fa78 e3be 785b 3abe 64b4 0bbf 8c09 ecbd
00000290: 0f8a 3cbe 7b26 753e 1f1e e9bd b1c7 f5bd
000002a0: c9d1 7c3c 2105 6b3e 3a2a 263e 3e5e e4be
000002b0: bff8 063e 2095 123e f3cf f73d dafe 913e
000002c0: 25a4 0ebe 78f1 633d 90ab 853d 447e 913e
000002d0: 3980 df3d 7a8e 013e 9fd9 4a3d c04b 22bc
000002e0: 90e2 3bbe c628 90be 7312 16bd 9cd9 1abe
000002f0: 1470 30bd c862 143f 7649 4f3e dfde b43e
00000300: b3b9 46be d61f bcbe a7f7 4a3e 7212 1f3d
00000310: 49c5 ebbc 43ef a8be 6ab2 293e b346 f63d
00000320: bb0e 333f bd19 5c3e ade8 64be 4c71 3a3e
00000330: 7f47 8b3e 7af6 323e 5148 863d 84a6 26be
00000340: 977c a13d 6816 fa3d 2f82 18be 4f8c 84be
00000350: d6b8 d13d ae86 38be 2f1b edbd 0e4b abbe
00000360: 9505 d3bd 4587 5f3b ba4b 5cbe fcb7 fa3c
00000370: 632e 5dbd 249c 703d 924d 8e3d 0cc8 2dba
00000380: 5167 41be 6814 b03e 5e1b 1b3e 0d2e 09bd
00000390: 27f7 d8bc 33ca b43d e8a5 d8ba b13f ddbc
000003a0: a857 fbbd 7e9c 3f3c f44a bc3d 760d b03e
000003b0: 87df e2be c7a3 a3be 2d38 a4bc cb81 533e
000003c0: 2973 adbc d51f 25bd 1ca2 573e 4ca5 06be
000003d0: 6f7d 2abe ef0b 9b3d 3cf7 b93e ef65 a8bc
000003e0: 408b b73d b825 e43e 43cf f7bc 2913 c0bd
000003f0: af6c 37be 5310 6e3e 4453 0d3e a5b0 9dbc

lstm.weight_hh_l1 f4 [256, 64]
0.18997754 -0.55410594 -0.38430414 -0.24443175 0.20987497 0.23049352 0.042093076 0.1136839
0.18362944 -0.30414677 0.23737748 0.18027714 -0.38799822 -0.2844888 0.46277198 0.059723757
-0.21010545 0.45359814 0.09434514 0.060584877 -0.35416391 -0.44940904 0.21959184 -0.34683982
0.19901066 -0.3259681 0.13490476 0.15097523 0.17212635 -0.11451017 0.08838022 -0.044914976
0.0101568345 0.039040398 0.38759023 -0.29734486 -0.06398021 -0.173578 -0.20869182 -0.16384517
-0.06573256 0.21895657 -0.28085285 0.19333857 -0.1960244 -0.015865926 0.047814317 0.20098217
-0.3851527 -0.2844668 -0.014686896 0.5787187 0.28472534 -0.18081461 -0.018053526 0.21287844
-0.12457504 0.19232158 -0.2699597 -0.34553117 0.030048702 -0.010517049 -0.46383223 -0.32039398
0.3528141 0.094738655 -0.10503311 -0.035970308 -0.009793845 0.13655037 -0.34228754 -0.17856169
-0.22681803 0.068355285 0.029670522 0.20481701 -0.457921 -0.35423136 0.2041988 -0.303096
-0.1665855 -0.087656565 0.059213653 0.3075996 0.07224374 0.10200957 0.107642226 -0.07532507
0.55661666 -0.18620767 0.22599207 -0.12957479 -0.15576753 -0.27765477 0.15463741 -0.012103334
-0.09836539 -0.14870101 -0.32146782 -0.076853976 0.19290718 0.18185432 0.19035693 -0.5794202
-0.16821028 0.3118221 0.24804807 -0.3510494 -0.10027988 -0.24430802 0.17021608 -0.054556176
-0.24283348 -0.018253664 -0.087708235 -0.14262287 -0.23148371 0.45655236 0.07945112 -0.17557006
0.23515877 -0.22546919 -0.1343345 -0.5285611 0.47960672 0.46508083 0.06078108 -0.19182506
0.09995983 -0.21248263 -0.0119361775 -0.0020356546 -0.032379616 -0.11017217 0.03512823 -0.022248838
-0.052870937 0.13506824 0.112632275 -0.0794461 -0.07028124 0.04214028 -0.12252766 -0.055856153
0.39630726 0.27873558 0.018721366 0.08088784 0.324027 0.3120455 -0.3656964 -0.098890655
-0.22033228 -0.09532355 -0.08612744 0.29819915 0.15602107 -0.18270728 0.010669104 -0.029675292
-0.30801767 -0.110610716 -0.25039914 0.034260385 0.18046619 0.18426585 0.12667987 0.20418468
0.15015475 -0.3441715 0.39530063 -0.36549875 0.11408104 0.27981266 -0.01743241 0.29558504
-0.027948687 -0.15336175 -0.08821225 0.34305656 -0.14132614 -0.043237302 -0.20706004 -0.3724577
-0.24028628 -0.09065396 0.30456322 0.072833225 0.28377226 0.016980087 -0.19372007 0.3869355
-0.1198805 0.19745325 -0.21849307 0.08406087 0.1068645 0.2646809 -0.003247324 0.38237765
-0.13824366 -0.1502366 -0.1306571 -0.019033432 -0.15257926 -0.025959207 0.07477145 -0.12218337
-0.093865775 0.17785743 0.0007124485 0.04937934 -0.19970098 0.07255371 0.45344427 0.25242117
-0.34573945 0.025297437 -0.365932 -0.25312608 -0.0069052596 0.029602394 0.023218254 0.36710367
-0.21896552 0.56946766 0.109544 -0.1560946 -0.13171166 0.0970429 -0.32235482 -0.3310323
-0.024040269 -0.16599268 0.02036391 0.16386443 -0.35569197 -0.33914876 -0.46304536 0.04734432
-0.18077105 -0.08231566 -0.42919636 -0.16939205 -0.03685189 0.124035776 -0.029035278 -0.06725175
-0.07137374 0.33237985 -0.29334217 0.16306938 -0.022055753 0.3996589 -0.18038155 -0.19429015
00000000: 7989 423e e3d9 0dbf 83c3 c4be 514c 7abe
00000010: 77e9 563e 7e06 6c3e ca69 2c3d 1bd3 e83d
00000020: 5b09 3c3e 20b9 9bbe 1513 733e 929a 383e
00000030: b4a7 c6be 84a8 91be 73f0 ec3e e6a0 743d
00000040: e225 57be 043e e83e 0638 c13d d927 783d
00000050: f954 b5be f118 e6be afdc 603e fd94 b1be
00000060: 73c9 4b3e 4ae5 a6be 7924 0a3e 4099 1a3e
00000070: e441 303e 4f84 eabd b000 b53d c4f8 37bd
00000080: da68 263c d3e8 1f3d 3a72 c63e 963d 98be
00000090: 0e08 83bd 6ebe 31be 4fb3 55be 07c7 27be
000000a0: cb9e 86bd 2736 603e f2cb 8fbe 8cfa 453e
000000b0: 9fba 48be 42f9 81bc f2d8 433d 45ce 4d3e
000000c0: bc32 c5be a2a5 91be 4ea1 70bc e926 143f
000000d0: 85c7 913e 7727 39be fde4 93bc cefc 593e
000000e0: 3321 ffbd f3ef 443e 2838 8abe 76e9 b0be
000000f0: b228 f63c b34f 2cbc 6b7b edbe ae0a a4be
00000100: 0da4 b43e 5706 c23d 991b d7bd 9a55 13bd
00000110: 5d76 20bc dcd3 0b3e 5040 afbe e0d8 36be
00000120: fc42 68be dbfd 8b3d 980f f33c 8dbb 513e
00000130: 9f74 eabe d05d b5be 7d19 513e 662f 9bbe
00000140: 6495 2abe 4985 b3bd 048a 723d b27d 9d3e
00000150: 87f4 933d 65ea d03d 8773 dc3d 0844 9abd
00000160: 6e7e 0e3f 39ad 3ebe 776a 673e 41af 04be
00000170: 8681 1fbe c428 8ebe 4559 1e3e 104d 46bc
00000180: cb73 c9bd 1445 18be 6e97 a4be 9e65 9dbd
00000190: 7689 453e 0538 3a3e edec 423e e254 14bf
000001a0: 513f 2cbe 25a7 9f3e 5000 7e3e bfbc b3be
000001b0: 8a5f cdbd e22b 7abe 204d 2e3e 4c76 5fbd
000001c0: 57a9 78be b588 95bc 60a0 b3bd bb0b 12be
000001d0: 110a 6dbe 3bc1 e93e 45b7 a23d a3c8 33be
000001e0: 76cd 703e 65e1 66be fc8e 09be c84f 07bf
000001f0: 038f f53e 131f ee3e 95f5 783d ca6d 44be
00000200: bdb7 cc3d 0c95 59be f58f 43bc 9e68 05bb
00000210: 7da0 04bd f2a1 e1bd 9ee2 0f3d 3243 b6bc
00000220: 328f 58bd 544f 0a3e c0ab e63d a3b4 a2bd
00000230: 9cef 8fbd 499b 2c3d c8ef fabd 6cc9 64bd
00000240: c9e8 ca3e 6eb6 8e3e 8d5d 993c 86a8 a53d
00000250: dee6 a53e 6ec4 9f3e 8f3c bbbe 2f87 cabd
00000260: c99e 61be fe38 c3bd 9563 b0bd 8fad 983e
00000270: fdc3 1f3e 9e17 3bbe 77cd 2e3c 9919 f3bc
00000280: 7eb4 9dbe df87 e2bd 5134 80be 9e54 0c3d
00000290: 21cc 383e 30b0 3c3e 5eb8 013e ca15 513e
000002a0: 2bc2 193e 3f37 b0be d864 ca3e a722 bbbe
000002b0: 52a3 e93d 9b43 8f3e 6ace 8ebc ec56 973e
000002c0: a5f4 e4bc dd0a 1dbe a0a8 b4bd 1ca5 af3e
000002d0: cdb7 10be 9919 31bd 8c07 54be c7b2 bebe
000002e0: 9b0d 76be c9a8 b9bd b6ef 9b3e 9629 953d
000002f0: 994a 913e d319 8b3c 8e5e 46be 691c c63e
00000300: e883 f5bd 2f31 4a3e a6bc 5fbe 1b28 ac3d
00000310: c6db da3d 4184 873e 0ed1 54bb 01c7 c33e
00000320: bf8f 0dbe a0d7 19be faca 05be 00ec 9bbc
00000330: bd3d 1cbe 67a8 d4bc c621 993d 463b fabd
00000340: b33c c0bd 4220 363e 9cc3 3a3a fe41 4a3d
00000350: 6a7e 4cbe 0a97 943d d929 e83e 593d 813e
00000360: c304 b1be 923c cf3c 705b bbbe be99 81be
00000370: 8445 e2bb b880 f23c 3534 be3c 03f5 bb3e
00000380: 7f38 60be a2c8 113f 9b58 e03d 43d7 1fbe
00000390: 6cdf 06be 6ebe c63d b10b a5be 117d a9be
000003a0: 19f0 c4bc fcf9 29be 37d2 a63c 14cc 273e
000003b0: 421d b6be e8a4 adbe 4814 edbe 1eec 413d
000003c0: 0c1c 39be 1d95 a8bd a0bf dbbe 1c75 2dbe
000003d0: 02f2 16bd 7806 fe3d 64db edbc 49bb 89bd
000003e0: 652c 92bd b12d aa3e f230 96be a9fb 263e
000003f0: 44ae b4bc 17a0 cc3e f1b5 38be fff3 46be

lstm.bias_ih_l1 f4 [256]
0.06457981 0.0182346 -0.26291212 -0.059907176 0.104444 -0.01367412 -0.24001452 -0.088378124
-0.103795335 -0.37330186 -0.08373318 -0.1416685 -0.25018886 0.04852612 0.05907462 0.2452996
0.12266467 -0.012084246 -0.028572384 -0.083257586 0.1269634 -0.14250952 -0.052790005 0.1258888
-0.030783739 -0.084173575 -0.10913297 0.23820777 -0.02569368 -0.29930833 -0.08518331 -0.2426506
0.025950992 -0.10645421 0.004282472 -0.15615192 -0.1085349 -0.06517813 -0.15856978 0.02105121
0.037520766 -0.035757467 0.08812034 -0.17490122 0.09413916 -0.124999754 -0.2506341 -0.024475187
-0.1518482 -0.018094808 -0.22916189 -0.01909079 -0.2896662 -0.03791163 -0.05497369 0.11930084
-0.119884536 -0.25793713 -0.1329362 -0.25030878 0.20836158 -0.07930011 0.17095599 -0.35058916
-0.17201382 0.10939234 0.080231234 0.10618268 -0.100958265 -0.06244027 0.36824948 0.15077291
0.31861484 0.30843383 0.27978775 -0.08187811 0.21692564 -0.3063074 0.12126009 -0.117773585
-0.0016445011 0.17345819 -0.31859848 -0.056076884 0.1014164 0.13300103 0.10498799 -0.13054956
0.027999623 0.10737779 0.33573905 -0.1485871 0.003009246 -0.19994557 -0.03552843 0.21394709
-0.047477197 0.069764 0.12280611 -0.34596837 0.0029142785 -0.041787177 0.19858919 -0.18209855
0.033217005 0.18135211 0.026653884 0.0667026 -0.28798127 0.0026899667 0.24486679 0.037889764
0.14472602 -0.18310966 -0.14952517 0.15262648 0.26781616 -0.21070004 -0.14894664 -0.033073906
-0.088707365 0.32977566 0.0006626221 0.23585963 -0.29005775 -0.084000655 0.020441592 0.15711747
0.0913415 0.03162053 -0.024507731 -0.11231154 -0.14852533 0.114889555 0.012855592 -0.14605969
-0.11198509 0.07439389 -0.24200384 -0.012949801 0.0073027415 0.015343375 -0.13824877 -0.044129897
0.058538146 0.19600116 0.19076565 0.058178805 -0.08135041 -0.22021395 -0.090188354 -0.16993222
-0.024578448 0.07309404 0.2730449 0.13886172 -0.13309129 -0.08487062 0.017409151 0.114530034
-0.21787116 0.036464524 -0.12831189 0.02902666 0.012131204 0.2650441 -0.08461171 -0.04484538
0.19804922 -0.22208065 0.18474756 0.07721489 -0.0364583 0.24972078 0.041943908 -0.10580783
0.15239467 0.13925254 -0.028661964 0.26965567 0.01734296 -0.19093446 0.2550594 0.034119494
0.15763626 -0.12761651 -0.105518356 -0.07612622 0.033691388 0.16706887 -0.057527132 -0.046961498
0.03211133 0.054798786 0.062383678 -0.022716817 0.22008719 0.27609855 0.22981533 0.0054414743
0.2755705 0.017994657 0.033804342 0.06802506 0.16653502 -0.006695384 0.32489038 0.4326348
0.0662496 0.2356952 0.12798405 0.26900983 0.095125586 0.022693565 0.08624458 0.37109637
0.30176944 0.14865734 -0.005878015 0.25797313 -0.073807955 -0.2690428 0.12614247 0.3623377
0.2975879 0.26270866 0.061430186 0.09181579 0.09597634 -0.0058015427 0.091007404 0.22708552
0.3277029 0.17175476 0.11411258 0.24394125 0.33826795 0.12868872 0.076572955 0.16350126
0.13197482 0.15260196 -0.028149849 0.10015291 0.1812758 0.28891158 0.24749918 0.151259
-0.10605188 -0.022300325 0.06727678 0.23670805 0.38832605 0.08295972 0.30452117 0.27789345
00000000: 6b42 843d ba60 953c 6b9c 86be 3a61 75bd
00000010: bce6 d53d 6b09 60bc 5ec6 75be 97ff b4bd
00000020: a692 d4bd 6c21 bfbe 4d7c abbd 8c11 11be
00000030: c118 80be 53c3 463d 3bf8 713d d12f 7b3e
00000040: 9d37 fb3d 00fd 45bc a210 eabc f482 aabd
00000050: b202 023e 04ee 11be 553a 58bd fee8 003e
00000060: 2e2e fcbc 3263 acbd 1b81 dfbd bdec 733e
00000070: 8d7b d2bc f13e 99be 9674 aebd 6679 78be
00000080: 2d97 d43c aa04 dabd fb53 8c3b 4ae6 1fbe
00000090: 8c47 debd 1d7c 85bd 1e60 22be 9673 ac3c
000000a0: 60af 193d 6c76 12bd 7078 b43d 4e19 33be
000000b0: 08cc c03d dfff ffbd 1d53 80be 3080 c8bc
000000c0: 187e 1bbe 903b 94bc 6aa9 6abe 4a64 9cbc
000000d0: 214f 94be 3a49 1bbd 182c 61bd 0054 f43d
000000e0: 0686 f5bd 5610 84be 6d20 08be 7928 80be
000000f0: bd5c 553e 1968 a2bd 160f 2f3e 6c80 b3be
00000100: 6424 30be 1709 e03d 4650 a43d 4e76 d93d
00000110: 35c3 cebd 5ec1 7fbd 328b bc3e 3764 1a3e
00000120: 7c21 a33e 0aeb 9d3e 5740 8f3e b6af a7bd
00000130: c121 5e3e 53d4 9cbe 3657 f83d 4733 f1bd
00000140: 4d8c d7ba 069f 313e 571f a3be e0b0 65bd
00000150: 67b3 cf3d 6c31 083e f103 d73d c9ae 05be
00000160: 775f e53c e3e8 db3d fde5 ab3e 3727 18be
00000170: c536 453b 88be 4cbe 4286 11bd f214 5b3e
00000180: 7377 42bd 6ee0 8e3d c581 fb3d c422 b1be
00000190: 7bfd 3e3b 0829 2bbd f75a 4b3e 0b78 3abe
000001a0: 8e0e 083d 5eb4 393e 3f59 da3c 5f9b 883d
000001b0: 4872 93be 274a 303b 5cbe 7a3e 4c32 1b3d
000001c0: 0f33 143e 1981 3bbe 201d 19be 1e4a 1c3e
000001d0: 331f 893e c0c1 57be 7885 18be 8178 07bd
000001e0: 35ac b5bd 5bd8 a83e d1b3 2d3a 3085 713e
000001f0: 7382 94be 8908 acbd 2075 a73c 67e3 203e
00000200: 4111 bb3d 8784 013d 70c4 c8bc 9803 e6bd
00000210: 0617 18be 374b eb3d 43a0 523c ac90 15be
00000220: 7058 e5bd d35b 983d dbcf 77be 672b 54bc
00000230: d64b ef3b c762 7b3c 1691 0dbe 8dc1 34bd
00000240: b2c5 6f3d 87b4 483e 1258 433e e64c 6e3d
00000250: 0b9b a6bd c47f 61be acb4 b8bd b602 2ebe
00000260: be58 c9bc 54b2 953d 8bcc 8b3e c431 0e3e
00000270: 1549 08be a6d0 adbd a39d 8e3c b98e ea3d
00000280: 9e19 5fbe d35b 153d 3164 03be 51c9 ed3c
00000290: f5c1 463c dcb3 873e e748 adbd caaf 37bd
000002a0: 6acd 4a3e 1c69 63be 772e 3d3e d722 9e3d
000002b0: 4c55 15bd ceb6 7f3e 60cd 2b3d c7b1 d8bd
000002c0: 590d 1c3e 3898 0e3e 7fcc eabc 4f10 8a3e
000002d0: d312 8e3c 5384 43be 2597 823e e2c0 0b3d
000002e0: 666b 213e e7ad 02be 021a d8bd 10e8 9bbd
000002f0: fbff 093d 1a14 2b3e 92a1 6bbd b35a 40bd
00000300: 2c87 033d b174 603d 0786 7f3d 9e18 babc
00000310: 895e 613e ca5c 8d3e b654 6b3e 654e b23b
00000320: 9417 8d3e 8869 933c 6c76 0a3d b950 8b3d
00000330: 2888 2a3e f464 dbbb 0858 a63e 4f82 dd3e
00000340: dfad 873d 155a 713e 400e 033e a8bb 893e
00000350: 34d1 c23d dbe7 b93c 00a1 b03d 5800 be3e
00000360: 8681 9a3e a139 183e 5d9c c0bb 0e15 843e
00000370: a028 97bd fabf 89be 7e2b 013e 5484 b93e
00000380: 715d 983e c081 863e 389e 7b3d eb09 bc3d
00000390: 3e8f c43d de1a bebb 1762 ba3d 1b89 683e
000003a0: adc8 a73e 7be0 2f3e dbb3 e93d bccb 793e
000003b0: 7531 ad3e fac6 033e 48d2 9c3d e06c 273e
000003c0: 6824 073e b043 1c3e 839a e6bc f81c cd3d
000003d0: 5da0 393e 38ec 933e 6d70 7d3e a4e3 1a3e
000003e0: ba31 d9bd 2caf b6bc 69c8 893d 9863 723e
000003f0: acd2 c63e c9e6 a93d 33ea 9b3e 0d48 8e3e

lstm.bias_hh_l1 f4 [256]
0.0018147278 0.09438995 -0.28534025 -0.04275596 0.013757579 0.07952178 -0.15678987 -0.007038887
-0.29910517 -0.31485683 -0.17369741 -0.025965659 -0.13690092 0.008386107 -0.006969675 0.163325
-0.052694988 -0.14956471 -0.05734004 0.029469347 0.089582056 -0.16344644 -0.004760472 0.2959458
-0.10641142 -0.08377976 -0.05451726 0.12561566 -0.17128107 -0.27054828 -0.15144233 -0.23685776
-0.037122082 -0.17541732 0.14027345 -0.04716252 -0.114481494 -0.09661118 -0.1498949 -0.0059572756
0.101560995 -0.12415274 -0.10045522 -0.1591025 0.18617706 -0.21158934 -0.21450248 -0.11496462
-0.08119162 0.1668156 -0.12994167 -0.018144421 -0.19778532 -0.06955912 -0.029207766 0.03923745
-0.16332069 -0.26512724 -0.07151058 -0.33333993 0.037725046 -0.028028838 0.011838072 -0.19218726
-0.07854085 0.12183244 -0.070613116 0.15414086 -0.010757278 -0.05480325 0.23580323 0.028191369
0.13724032 0.32040837 0.21870747 -0.29252967 0.3943622 -0.30088788 0.09753357 -0.030019138
-0.0027726288 0.10898339 -0.2658808 0.07707691 -0.072846755 0.08809355 0.055137586 -0.036234375
-0.0011858356 0.012485398 0.2686471 -0.025461992 0.038484316 -0.08946609 -0.21138898 0.13621217
-0.0052374587 0.050004367 -0.040728137 -0.24745855 -0.08147209 -0.1031449 0.23958616 -0.2306013
0.022330076 0.051422447 -0.105556875 0.011730969 -0.25608587 0.14984822 0.22362658 0.07147405
0.17785767 -0.1714478 -0.2130729 -0.053999085 0.16506258 -0.13089411 -0.023494607 -0.078644685
-0.08318635 0.34006897 0.015628323 0.12453253 -0.19696452 -0.07831495 -0.13599508 0.05960087
-0.018295124 -0.06679538 -0.055958323 -0.30380875 -0.120773606 0.12139679 0.14557503 -0.1650277
-0.008884138 0.106551856 -0.26147816 -0.12317301 0.111370265 0.030907571 -0.12702048 -0.021646768
0.09398356 0.03775283 0.23051068 0.06573256 -0.10123372 -0.06713109 -0.05646933 -0.24354966
-0.056990594 0.0952776 0.30639142 0.030721525 0.027583228 -0.20761643 0.05451091 -0.052289512
-0.067828275 0.043813687 0.010743985 -0.06894057 0.014992609 0.18201129 -0.14113456 0.0053453385
-0.017787939 -0.1627242 -0.019547869 0.053874448 0.09704544 0.15366766 0.15224239 -0.2687521
-0.024841582 0.1160998 -0.08215495 0.24630274 0.059365734 -0.32434592 0.09429255 -0.04234212
0.2716153 -0.07281314 -0.09703153 -0.2126276 0.091860466 0.022791184 -0.11385572 -0.008647137
0.16795188 0.06634827 0.031709515 0.08966338 0.27808872 0.21692416 0.18644992 0.076855004
0.17452806 0.06648412 0.015621626 0.116750926 0.2962597 0.12573287 0.29882947 0.24233791
0.09344783 0.012663177 0.18245912 0.2475808 0.11513456 0.011213659 0.23915072 0.330811
0.20132108 0.21620145 0.14845623 0.37152794 -0.056587964 -0.12199028 0.1788495 0.31100377
0.35262024 0.14664635 0.17321758 0.0453389 0.24072519 0.115604684 0.059636313 0.13954173
0.15488745 0.11651519 0.11799998 0.13965575 0.34915757 0.046078414 -0.004293842 0.041730825
0.19672015 0.092471465 -0.10415732 0.11427795 0.17712308 0.102542356 0.20414509 0.019864513
-0.08301298 -0.037076335 -0.03632172 0.25935224 0.34724835 0.14259912 0.33650476 0.15555395
00000000: 29dc ed3a 854f c13d 1e18 92be e020 2fbd
00000010: 7867 613c 51dc a23d 868d 20be 77a6 e6bb
00000020: 5024 99be ea34 a1be bcdd 31be efb5 d4bc
00000030: c12f 0cbe e265 093c df61 e4bb ab3e 273e
00000040: b3d6 57bd 7e27 19be 64dd 6abd b369 f13c
00000050: cc76 b73d 815e 27be bcfd 9bbb 3586 973e
00000060: 3bee d9bd b994 abbd 7e4d 5fbd 64a1 003e
00000070: 4e64 2fbe 4e85 8abe b313 1bbe d78a 72be
00000080: 530d 18bd 99a0 33be d8a3 0f3e 7d2d 41bd
00000090: 4675 eabd 15dc c5bd 0c7e 19be 4035 c3bb
000000a0: 36ff cf3d cb43 febd 77bb cdbd c4eb 22be
000000b0: 33a5 3e3e e0aa 58be 8aa6 5bbe 9272 ebbd
000000c0: cb47 a6bd b5d1 2a3e 6e0f 05be 9ca3 94bc
000000d0: 3c88 4abe 0375 8ebd 2045 efbc 73b7 203d
000000e0: 8a3d 27be c2be 87be 2474 92bd 88ab aabe
000000f0: 9485 1a3d bc9c e5bc 79f4 413c bdcc 44be
00000100: 06da a0bd 4983 f93d 9c9d 90bd 1ad7 1d3e
00000110: 4b3f 30bc 5f79 60bd 6776 713e 96f1 e63c
00000120: ba88 0c3e 910c a43e daf4 5f3e 73c6 95be
00000130: d8e9 c93e fa0d 9abe aebf c73d b2ea f5bc
00000140: feb4 35bb af32 df3d 8721 88be 80da 9d3d
00000150: ae30 95bd 646a b43d f3d7 613d 7f6a 14bd
00000160: 0a6e 9bba 8e8f 4c3c 1d8c 893e ab95 d0bc
00000170: bba1 1d3d ff39 b7bd 5a76 58be 347b 0b3e
00000180: fd9e abbb 61d1 4c3d 8cd2 26bd c665 7dbe
00000190: d7da a6bd a23d d3bd 1356 753e bf22 6cbe
000001a0: 90ed b63c 58a0 523d 342e d8bd 4033 403c
000001b0: b01d 83be d071 193e 5efe 643e fd60 923d
000001c0: 5220 363e 0390 2fbe c82f 5abe 252e 5dbd
000001d0: 2a06 293e 1b09 06be c377 c0bc 7710 a1bd
000001e0: 9b5d aabd 851d ae3e f806 803c e90a ff3d
000001f0: 11b1 49be 9763 a0bd 4b42 0bbe 0b20 743d
00000200: a8df 95bc 04cc 88bd 8e34 65bd d28c 9bbe
00000210: 2758 f7bd e19e f83d 9f11 153e 05fd 28be
00000220: c78e 11bc dc37 da3d 77e0 85be 2242 fcbd
00000230: 1816 e43d e031 fd3c a811 02be 9054 b1bc
00000240: 747a c03d b6a2 1a3d fe0a 6c3e cb9e 863d
00000250: a053 cfbd 067c 89bd 624c 67bd 1565 79be
00000260: f86e 69bd e720 c33d 56df 9c3e b5ab fb3c
00000270: 39f6 e13c 6799 54be d546 5f3d 872d 56bd
00000280: 8de9 8abd fb75 333d 8a07 303c b730 8dbd
00000290: 8fa3 753c 2b61 3a3e 9485 10be f327 af3b
000002a0: 03b8 91bc 2ca1 26be da22 a0bc 74ab 5c3d
000002b0: c2bf c63d 0e5b 1d3e 6ee5 1b3e e099 89be
000002c0: 9380 cbbc bbc5 ed3d db40 a8bd c936 7c3e
000002d0: 7c29 733d ab10 a6be 741c c13d ee6e 2dbd
000002e0: 2911 8b3e 0e1f 95bd 78b8 c6bd 0dbb 59be
000002f0: 5721 bc3d 94b4 ba3c 302d e9bd b9ac 0dbc
00000300: 94fb 2b3e 9ae1 873d d6e1 013d 6fa1 b73d
00000310: a561 8e3e 5e21 5e3e baec 3e3e 2866 9d3d
00000320: 7cb7 323e d428 883d d9f1 7f3c 1c1b ef3d
00000330: 5aaf 973e 1ec0 003e 2d00 993e 6e27 783e
00000340: 9361 bf3d 3779 4f3c 90d6 3a3e d285 7d3e
00000350: abcb eb3d 7fb9 373c ede3 743e 0f60 a93e
00000360: 1d27 4e3e ea63 5d3e e904 183e e938 be3e
00000370: c8c8 67bd 0ad6 f9bd 5324 373e e33b 9f3e
00000380: a48a b43e 762a 163e f35f 313e 48b5 393d
00000390: aa80 763e 26c2 ec3d 3545 743d 07e4 0e3e
000003a0: d19a 1e3e 849f ee3d f9a9 f13d eb01 0f3e
000003b0: c8c4 b23e b8bc 3c3d 5bb3 8cbb f1ed 2a3d
000003c0: 0271 493e ae61 bd3d 6f50 d5bd 8f0a ea3d
000003d0: c15f 353e ba01 d23d 690b 513e e7ba a23c
000003e0: b602 aabd 5bdd 17bd 15c6 14bd d1c9 843e
000003f0: 89ca b13e 8105 123e 5a4a ac3e 8949 1f3e
