good_weights/no_augment_on_kaggle/kaggle/021.ckpt (torch_old, 357081 bytes, 14 tensors)

lstm.weight_ih_l0 f4 [256, 12]
000000 45 07 03 be f2 4e 38 3e 9a ae f1 bd e0 21 89 be
       -0.12795742 0.17998865 -0.11800881 -0.26783657
000010 2a 45 6e 3e 45 c9 b8 bd fb dc 99 be 33 60 a8 3e
       0.23268571 -0.09022764 -0.30051407 0.32885894
000020 cc 86 3c 3e 80 30 2a be 3b a3 69 3e fa 06 81 3d
       0.18410796 -0.16620064 0.22816174 0.06300159
000030 b0 b8 00 3d b7 a4 b7 3e 47 34 86 be 00 3c 9a bd
       0.03142613 0.35867855 -0.2621176 -0.07530975
000040 f1 09 d1 be 25 6f a2 3c aa 1e ba bd e6 c0 a5 3d
       -0.40827897 0.019828388 -0.0908788 0.08093433
000050 68 6f 82 bd 2b 72 c3 3d 83 91 a4 bc 16 e5 5c 3e
       -0.06368905 0.0954326 -0.020088917 0.21571764
000060 b3 34 2b bd b8 93 11 3f 92 88 ca 3d f4 c7 ec 3d
       -0.041798305 0.56866026 0.0988933 0.115615755
000070 31 bf 1c be c5 9e 4e bd 4f 2c 7c be ab 08 22 be
       -0.15307309 -0.050444383 -0.24626277 -0.15823619
000080 89 f7 2d be 49 72 56 bb 8a af b1 be 56 6b 78 3d
       -0.16988958 -0.0032721928 -0.34704238 0.06064924
000090 08 e3 e0 3c c3 d9 9d 3d c1 2a 7d 3e 7b b8 b4 3d
       0.027452007 0.077075504 0.2472334 0.08824249
0000a0 2a 53 bc 3e 89 e8 1b 3e c7 c9 b4 3d 51 d3 19 be
       0.367822 0.15225424 0.088275485 -0.15022017
0000b0 a2 3f 68 be b3 f0 b5 be 25 0f 99 be 92 2c d6 be
       -0.22680524 -0.355352 -0.29894367 -0.4183088
0000c0 d4 a1 ba 3b ec d1 9b 3c f8 30 87 3e 65 68 ad 3d
       0.005695561 0.019020997 0.26404548 0.08467177
0000d0 c2 66 60 be 89 99 8d be 62 6d ee 3d ad 39 07 3f
       -0.21914199 -0.276562 0.11641957 0.5282238
0000e0 fe eb cf 3e 09 14 f1 be 95 3f c5 be c0 4e 48 3d
       0.40609735 -0.47085598 -0.38525072 0.048903227
0000f0 da 4f 64 3e e5 fd 58 3d 1c be 82 3d b6 d6 8b bc
       0.22296086 0.052976508 0.06383917 -0.017070156
000100 46 35 69 be 07 17 be be 6b aa 5a 3d a5 8f 54 be
       -0.22774228 -0.37126943 0.05338518 -0.20757921
000110 a3 ec 6d be 07 2a 0c 3f fe d7 2d 3e 03 32 2c bd
       -0.23234801 0.5475163 0.16976926 -0.042039882
000120 fa 85 7c bd f0 a3 ef bd 5f 7f dd 3d 07 dd 63 3d
       -0.061651208 -0.117011905 0.1081531 0.05563071
000130 a2 42 6a be 39 70 1c be 46 f6 95 3e 98 c2 7f 3e
       -0.22876981 -0.15277185 0.29289454 0.24976575
000140 4a 3d 3d 3d fd 32 16 be 54 fc cd bd 30 61 a3 bd
       0.046201028 -0.14667888 -0.100578934 -0.079775214
000150 f0 bf e4 3b 58 19 04 3f ca 48 75 bd 6c 91 65 bb
       0.0069808885 0.5160117 -0.05988387 -0.0035029305
000160 6e 3c d0 3c a1 18 75 be 0d 8f 19 3d dc 1e 42 3e
       0.02541944 -0.23935176 0.03748994 0.18957084
000170 4c 85 ed bd f8 aa 9a 3e bf 71 b8 bd db 83 5e 3c
       -0.1159769 0.30208564 -0.0900607 0.0135812415
000180 03 a9 b7 be ef 8c 7c 3d 8d 3f 91 bd 73 4a 88 bd
       -0.35871133 0.061657842 -0.070921995 -0.06654825
000190 e4 9e ef bd de 16 12 bd eb b4 c0 bd 08 50 d8 bd
       -0.11700228 -0.03566634 -0.09409507 -0.1056214
0001a0 c5 c2 0f 3d e2 c0 60 bd 32 58 d4 bd e7 ae f2 3d
       0.035097856 -0.054871447 -0.103683844 0.11849766
0001b0 d8 27 77 bd 86 44 26 3d e1 64 cf 3d 09 ab cd be
       -0.060340732 0.040592693 0.10126663 -0.40169552
0001c0 50 e3 0f 3d 11 a3 e3 3d 10 14 20 3e 69 bd 9f 3e
       0.03512889 0.11115087 0.15632653 0.31199196
0001d0 16 72 3d be 4a d9 1e be 5d 43 81 3e 28 5e d8 bd
       -0.18500552 -0.15512577 0.25246707 -0.10564834
0001e0 f4 61 b0 bc af 05 d4 3e d0 6f 0e 3e 84 4c 81 3d
       -0.021531083 0.41410586 0.1390984 0.06313422
0001f0 bb 67 52 be d8 85 9b 3e 05 5a 8d bd e1 65 cf bd
       -0.20547383 0.30375552 -0.069019355 -0.10126854
000200 cc b6 ce bc 92 2d 58 3e 99 3f 41 3d 6d 23 96 be
       -0.025233649 0.21111134 0.047179792 -0.29323903
000210 52 51 3e be 31 3d 74 bd 48 d1 69 be 09 b0 2b be
       -0.18585709 -0.05962867 -0.2283374 -0.16766371
000220 35 34 96 bd 52 f8 68 be 12 e5 7d 3d 3c 30 68 be
       -0.073341765 -0.22750977 0.061986037 -0.2267465
000230 d8 5c d0 be e0 96 90 3d c2 2f c6 bd 0d bd ec 3d
       -0.40695834 0.07060027 -0.09677078 0.11559496
000240 2a 31 95 bc fb 56 c5 bd 06 e7 10 be 16 d2 41 be
       -0.01821192 -0.09635731 -0.14150628 -0.18927798
000250 82 f1 4f be 9e 75 c0 3e 31 c5 5f 3e 07 97 ad 3e
       -0.20306972 0.37589735 0.21852566 0.33904287
000260 a6 53 56 3e 19 32 b9 bc 30 34 8d be a1 42 da be
       0.20930347 -0.022606896 -0.27578878 -0.4262896
000270 ab 1f 7e be 39 84 7e bd c0 54 c1 bb 61 0e 8c 3e
       -0.24816768 -0.062137816 -0.0058999956 0.2735472
000280 46 87 1b bd 37 aa 07 3d 3b a5 61 be 1e 45 af be
       -0.037970804 0.033121314 -0.22035687 -0.3423242
000290 a0 52 7d be c0 37 85 be 8c d2 ca be 89 5b f4 3d
       -0.2473855 -0.26019096 -0.3961376 0.119315214
0002a0 e5 03 0e 3d 49 f3 dd bd dd b9 39 3e c6 dd a9 be
       0.034671683 -0.108374186 0.18137307 -0.33177012
0002b0 92 8d 9d 3e 83 01 8c be 6b 21 26 3e 5f c1 a5 bd
       0.30772072 -0.27344903 0.16223685 -0.08093523
0002c0 12 97 4d bd aa f9 aa 3d da ec 2a 3d 22 a5 1a be
       -0.0501929 0.08348401 0.041729786 -0.15102056
0002d0 7e 73 f1 bd a8 20 3f be ed 65 c9 3e 26 82 80 3e
       -0.117896065 -0.18664801 0.39335576 0.25099295
0002e0 d1 2c 34 3e f2 f5 5c 3e c7 d2 21 3d 4b 80 00 3d
       0.17595221 0.21578196 0.039507654 0.03137235
0002f0 ac ac 08 3d e4 e0 72 be 45 ef c3 3d 56 7d 91 3e
       0.033367798 -0.23718601 0.095671214 0.28415936
000300 4d 57 93 bb 01 44 49 ba e3 fd d4 3d 19 6a 97 be
       -0.004496491 -0.0007677675 0.103999875 -0.29573134
000310 0c 83 dd be 43 3c 18 3e c1 50 9b 3e 34 48 49 bd
       -0.43264043 0.14866738 0.30335048 -0.049141124
000320 4c 9c 04 be 24 2b 6f 3e 32 9f b5 3e ba b2 96 bd
       -0.12950248 0.233563 0.3547302 -0.07358308
000330 62 0e 96 3d 7e 09 11 be 83 62 43 3e 79 5c a0 3e
       0.07326962 -0.14163777 0.19080548 0.3132055
000340 13 66 fb bc 75 be 9e 3e 81 a3 c6 bd 24 1b c9 3e
       -0.030688321 0.31004682 -0.09699155 0.3927852
000350 d7 e1 74 bd 9d 59 ea 3d 2a 14 76 3c 9a 41 b6 3e
       -0.05978569 0.114428736 0.015019456 0.35596925
000360 66 8a 76 3d 2f 07 96 3e e4 fd 5d 3b f5 cc 45 3e
       0.06019058 0.29302356 0.0033873254 0.19316466
000370 7d 7d 92 be 79 b4 c7 be 86 a0 3e be 7e 0c 8c bc
       -0.28611365 -0.39004877 -0.18615922 -0.0170958
000380 b2 8a 4e bd 0b 8b 3f 3d e9 95 8d bd 2e 4c be 3e
       -0.05042524 0.04676346 -0.06913359 0.37167495
000390 47 83 e7 3d aa fd 53 3d 48 ee 3b 3d 80 d0 8c 3e
       0.11304336 0.051755585 0.04588154 0.27502823
0003a0 a9 b0 cd 3e 8f dc 49 3e 47 e8 51 be 18 c4 bf be
       0.40173844 0.19713043 -0.20498763 -0.37454295
0003b0 d3 4c 07 3d 88 04 75 be 06 7a 97 be 10 b3 3b bd
       0.03303225 -0.2392751 -0.29585284 -0.045825064
0003c0 fa 94 3a be ce d4 03 bd e3 40 cf bd 97 99 4a 3e
       -0.18220893 -0.03218537 -0.10119798 0.19785152
0003d0 83 5d f2 3c 0d 72 ea 3d da 29 9b 3d bc 28 35 be
       0.029585605 0.11447535 0.07576342 -0.1769132
0003e0 68 96 0a 3e 74 e0 b0 be ac 9e 4a 3e bc 8a b2 3d
       0.13533938 -0.34546244 0.19787091 0.08717868
0003f0 77 3f 79 bd b3 a3 96 3b c8 7f 84 3d 01 2e 04 3e
       -0.06085154 0.004597151 0.06469685 0.12908174

lstm.weight_hh_l0 f4 [256, 64]
000000 41 58 21 3f a3 0c cd 3e 33 13 2b be 57 d4 42 3e
       0.6302529 0.40048704 -0.16706543 0.19026314
000010 66 4d 99 bc 4e eb f2 bc 74 ab 2f be 60 31 2e be
       -0.018713664 -0.029653218 -0.17155248 -0.17011023
000020 99 6e 39 3e bc 6a 59 3e 22 5f 5c bd 5d 97 73 3e
       0.18108596 0.21232122 -0.053801663 0.2378821
000030 36 2f 80 bc ee ea f1 be 23 f4 21 3f 00 d3 ba 3d
       -0.015647512 -0.4724955 0.6326315 0.09122276
000040 eb b6 06 be 32 68 5a 3e 94 44 49 3e c9 66 01 3e
       -0.13155715 0.2132881 0.19655067 0.12636866
000050 c0 66 52 be 87 2b 48 3e 57 ee 95 bd 98 48 7b 3e
       -0.20547009 0.19547854 -0.0732085 0.24539411
000060 4f 99 c1 3e 0f 92 43 be 42 b3 1d be 32 ef cb be
       0.37812278 -0.19098686 -0.15400413 -0.3983093
000070 91 70 36 be 1f 5c 47 3e b8 6f b4 be f7 ce 4a 3d
       -0.17816378 0.19468735 -0.35241485 0.049513783
000080 34 ee 03 3f 72 93 26 bf ff 00 bd be da 04 58 be
       0.51535344 -0.65068734 -0.36914822 -0.210956
000090 24 c1 8d 3d c5 f7 b9 bb 58 b4 0d be e5 4a 43 3d
       0.06921604 -0.0056752884 -0.13838327 0.047678847
0000a0 f1 5a 84 be 6a de 24 3b 63 99 5b 3c 61 f6 bf 3e
       -0.25850633 0.0025156983 0.013403269 0.3749266
0000b0 88 1f a2 3d db 2a a7 3e 1d 25 21 be f9 88 10 bf
       0.0791617 0.32649884 -0.15736814 -0.56459004
0000c0 da c4 10 bd cd b8 a8 be b1 bc 18 be f2 a2 0b bc
       -0.035343982 -0.32953492 -0.1491573 -0.008522736
0000d0 ee 11 96 be 65 f0 87 be 77 37 88 bb 4c 2b cd bd
       -0.29310554 -0.26550594 -0.0041570025 -0.10018024
0000e0 51 1e 45 be 98 6f b3 3e 4e d5 7a 3d a2 3a c6 be
       -0.19249846 0.35046077 0.06123858 -0.38716608
0000f0 75 f4 f6 b9 f7 a0 cf 3e b6 af fa 3d 7b 96 ae 3e
       -0.0004710291 0.40552494 0.122405455 0.34099182
000100 28 c4 8c be 69 b1 a5 3d 48 62 c8 bd 43 f0 76 3e
       -0.27493405 0.08090479 -0.09784371 0.2411509
000110 e8 97 a9 bd 50 45 56 3e 02 74 cc 3d b4 51 62 be
       -0.08280927 0.20924878 0.09983064 -0.2210148
000120 fe 41 a4 3b d7 02 4a 3e 24 f6 cd bd fe af c9 3e
       0.0050127497 0.19727646 -0.10056713 0.39392084
000130 19 f5 0a 3e 47 b4 65 3e ee cd 15 3f 71 f6 74 bd
       0.1357006 0.22432052 0.5851735 -0.059805337
000140 98 af 4a 3e a3 96 5e be 57 be 33 be e8 c5 ea 3d
       0.19793546 -0.21737151 -0.17553078 0.11463529
000150 4c 4c 95 bc e0 90 a5 bd 8d 7c af 3e 4c cf 35 be
       -0.018224858 -0.08084273 0.34274712 -0.17754859
000160 8f eb cd bc ea 70 54 bd 3c 4c 4d be 2b b2 54 3e
       -0.025136737 -0.051865496 -0.20048612 0.2077109
000170 21 5b 9c bc a8 b7 1d 3c f2 e7 79 3e 5c 75 ad bd
       -0.019086422 0.009626307 0.24404886 -0.0846965
000180 f9 f9 fa 3e d9 c0 81 be f9 9b 34 be 02 87 a4 bc
       0.4901884 -0.25342444 -0.17637624 -0.020083908
000190 91 58 4a bd 1d 3c 7d be 64 5e e0 bc 61 f7 02 3e
       -0.04940087 -0.24729963 -0.027388759 0.1278968
0001a0 03 08 43 3e 5e c1 17 3d d8 1e bb be dd 72 14 be
       0.19046025 0.037049644 -0.3654697 -0.14496942
0001b0 a8 b6 18 bd 88 9d 21 3e 04 15 17 3e 43 b6 51 be
       -0.03728357 0.1578275 0.1475411 -0.20479684
0001c0 54 bc 52 bc 2f 27 9d be c4 2e 84 3e ca c0 43 3e
       -0.012862284 -0.30693957 0.2581693 0.19116512
0001d0 2f 22 17 bc ba c6 8a be 27 67 08 3e 7c f4 8a 3e
       -0.009224459 -0.2710474 0.133206 0.27139652
0001e0 e8 c0 c6 be 7d e0 5a 3e ff af 9d bd 32 1c 9f 3d
       -0.3881905 0.21374698 -0.07699584 0.0776905
0001f0 a5 2f 1c 3d 09 ae cf 3b 2d 91 25 3d 1d 5b 98 3d
       0.038131375 0.0063378853 0.040421654 0.074392535
000200 66 b7 05 3e 75 2a b7 3d c8 8f fd 3e 85 84 59 3d
       0.13058242 0.08943645 0.4952376 0.053104896
000210 85 56 63 3b 2d 90 45 bc e8 11 c3 3a 88 47 53 bd
       0.003468902 -0.0120583 0.0014882656 -0.05158189
000220 90 47 4c be d4 9b 3e bd 05 fd 88 3e d5 45 6e 3d
       -0.19949174 -0.046535328 0.2675554 0.058172066
000230 f5 ef 56 be c4 d9 82 3e 6d b0 f9 bd df 87 a0 bd
       -0.20989974 0.25556767 -0.12191854 -0.07838415
000240 6c e6 28 3e 79 97 60 3e 28 4b 3a be e2 cf 94 be
       0.16494149 0.21932782 -0.18192732 -0.29064852
000250 11 6b ed 3d 9b 6e 93 bc 92 80 a6 3c 68 12 06 bf
       0.11592687 -0.017997077 0.020324979 -0.52371836
000260 87 ac 6f 3c c4 bd 62 be 53 b7 39 3e d1 c1 bd 3d
       0.014628536 -0.22142702 0.18136339 0.09265483
000270 86 41 91 3d da 41 b4 3e 14 6d a2 3d 7f 3c b4 be
       0.07092576 0.3520649 0.07930961 -0.35202405
000280 70 5d 64 3e fa b3 3b 3e 85 c1 2d be 32 3f ff bb
       0.22301269 0.18330374 -0.16968353 -0.007789516
000290 20 0c 80 bd a4 1e 1a be af 7c 34 3e e2 ef 92 3e
       -0.06252313 -0.15050751 0.17625688 0.2869864
0002a0 6d 7a b3 bd d2 56 a6 3c 9f 0d 72 be b7 da b6 bd
       -0.08763585 0.020305071 -0.23638009 -0.08928435
0002b0 2a a5 d2 bc 00 9f d2 3e d3 5a 41 bd 1c 32 c3 be
       -0.025713522 0.41136932 -0.047205757 -0.38124168
0002c0 2c 7a 90 be df 58 2e be 1c 30 20 bd d5 99 7d 3b
       -0.2821821 -0.17026089 -0.03910838 0.0038696427
0002d0 f2 03 9c 3e 6b df fd bd 09 b0 b5 bd a5 97 86 bd
       0.3047176 -0.12396129 -0.08871467 -0.06571893
0002e0 14 7f a4 3c 44 ac 83 be e3 f3 e4 3c d0 64 2f 3d
       0.020080127 -0.25717366 0.027948325 0.04282075
0002f0 2c 08 92 be 98 4b 99 bd bc 69 9b bd 4c b3 9f be
       -0.2852186 -0.074851215 -0.075885266 -0.3119148
000300 03 06 1c 3f 95 57 04 be be 75 c6 be 2e 24 f5 bf
       0.60946673 -0.12924035 -0.38761705 -1.9151666
000310 98 c3 9b bd 2b e9 67 be 17 8a 51 be 7c 86 15 3f
       -0.07605666 -0.2264754 -0.20462833 0.5840833
000320 1b fb 2a bd 00 3f 7f be c5 cf a2 3a db 16 9b 3e
       -0.04174338 -0.24926376 0.0012421539 0.30290875
000330 f7 85 e3 3d 57 e7 e1 be 5d b4 df 3e a0 eb b5 3d
       0.11109536 -0.4412181 0.43692294 0.088828325
000340 16 07 91 3e 6f 45 20 3f cf d6 65 3f 05 6c 1f bf
       0.2832572 0.6260595 0.89780897 -0.622742
000350 bf 4a 1f bf 2d e2 43 bf 37 c6 25 bf 2f 20 dd 3e
       -0.6222343 -0.7651699 -0.64755577 0.43188617
000360 81 43 8a 3e 63 65 8f 3e 0d 2e 88 3f c0 67 cb be
       0.27004626 0.2800704 1.0639054 -0.39727592
000370 76 a7 19 3e 9c bd b7 3e fc e7 68 be 4a 2d 25 bd
       0.15005288 0.35886848 -0.22744745 -0.040326394
000380 8d 74 10 3e 9e 6a 6c 3e 2f f0 15 3e 82 6b db be
       0.1410696 0.23087546 0.14642404 -0.4285546
000390 84 92 b1 bd 22 00 15 3e 3d bf c2 bd 5d 0c eb 3e
       -0.08670524 0.14550832 -0.09509132 0.4590787
0003a0 c5 80 13 bf 31 64 54 3f 61 b7 3e 3f f1 52 93 3e
       -0.5761836 0.8296538 0.74498564 0.28774217
0003b0 ee 94 aa bc 05 07 0d 3e 40 6f 58 be b1 40 18 bf
       -0.020822968 0.13772209 -0.21136189 -0.5947371
0003c0 c3 5f ee 3c 85 f8 96 bd 17 de e0 be e2 80 42 3f
       0.029098397 -0.0737162 -0.4391944 0.7597791
0003d0 5d 1d 50 3f 68 34 9e 3d 29 ff 4b 3e 59 b6 da be
       0.81294805 0.077248394 0.19921555 -0.42717245
0003e0 96 fc 5a be f6 74 10 3f 91 9b f4 3e ab 50 b8 bd
       -0.21385416 0.5642847 0.47774938 -0.08999761
0003f0 18 21 ed 3e 4b 3c b4 3e 37 f9 2b bf 9a a8 14 be
       0.4631431 0.3520225 -0.67177147 -0.14517441

lstm.bias_ih_l0 f4 [256]
000000 de 55 71 be 5a 8e 6f 3e 3f 2e 4c 3e 63 6b 11 bf
       -0.23567912 0.23394147 0.19939516 -0.56804484
000010 4b 6b 8c be 0f 0a cb 3c bd a6 a2 be 3c 6d 27 3e
       -0.27425608 0.02478507 -0.31767836 0.16350263
000020 56 88 a4 3e 40 8d b9 be bc ae e2 3e 67 24 32 bd
       0.32135266 -0.36240578 0.44273937 -0.043491747
000030 d0 6e cf 3c 2d 14 8a 3d 04 4b 8e 3f 74 3d 86 be
       0.025321394 0.067421295 1.1116643 -0.2621876
000040 2e 5c d3 be c9 2f e2 3e c9 ad 70 3e 90 2e a5 3c
       -0.41281265 0.44177082 0.23503794 0.020163804
000050 ed 16 44 be 8a 41 25 be d0 fe ef 3d 69 4f 17 3d
       -0.1914937 -0.16138282 0.117185235 0.036940966
000060 cd b2 51 3e 6e a3 80 bc d6 2d 5d be ec ac 27 3d
       0.20478363 -0.01570293 -0.21599516 0.040936396
000070 ab 1b ed 3d 06 30 13 3e 8f d7 91 3e bd 06 62 3e
       0.11577543 0.14373788 0.2848477 0.22072883
000080 a1 33 aa be 99 3c 1f 3e 2b 14 89 3e eb 0e 91 3e
       -0.33242515 0.1555046 0.267732 0.28331694
000090 6e bc 11 3c 49 6b e7 3d a7 4e 06 be 95 37 a4 3e
       0.008895023 0.1129976 -0.13115941 0.32073656
0000a0 d8 c8 42 3e ce c8 55 bf 85 04 75 3e d9 25 57 3e
       0.19021928 -0.8350953 0.23927505 0.21010531
0000b0 f8 8f 2f 3d 9e 37 54 3e a3 09 94 3e 24 dc d4 3e
       0.04286191 0.20724341 0.28913602 0.41574204
0000c0 be fd 14 bf 19 fd a0 3e 73 c1 a3 3d 46 54 b3 3d
       -0.5819968 0.31443098 0.07995882 0.08756308
0000d0 dd 63 3e 3e 76 86 63 be 0a a2 e8 3e 83 e8 3d 3e
       0.18592782 -0.22219262 0.45436126 0.18545727
0000e0 7f 27 6b 3e ba b6 ab 3f 4e 46 0f 3e 47 24 f5 3d
       0.22964285 1.3415139 0.13991663 0.1196981
0000f0 0a 2b 80 3d 8e c2 92 3e a8 a3 a9 be 25 95 28 be
       0.06258209 0.28664058 -0.33132672 -0.16463144
000100 20 f0 0d be c0 17 60 3e 9c 3c bc 3c 65 29 98 be
       -0.13861132 0.2188406 0.02297812 -0.29719082
000110 e7 f3 8f be 05 7d 5c 3e 46 31 43 be d9 24 10 bf
       -0.2811577 0.21532066 -0.19061765 -0.56306225
000120 48 9c db 3e 32 5d 43 bd e2 0e 17 be c2 a4 a6 3d
       0.4289267 -0.0476963 -0.14751771 0.08136894
000130 9c 1d d8 bd d2 8d ad 3e 08 01 6c bd 9b de f9 3d
       -0.105525225 0.33897263 -0.05761817 0.12200662
000140 54 e3 a2 be 35 01 bd bd 83 50 14 3e 41 48 b9 3d
       -0.31814063 -0.09228746 0.14483838 0.090469845
000150 b0 12 b5 bc 7c 30 a0 be 20 97 83 3e 34 99 54 3e
       -0.022103637 -0.3128699 0.25701237 0.20761567
000160 a9 23 04 bf e3 4f b1 be be bf 66 3e 78 86 3f bd
       -0.51616913 -0.3463126 0.22534081 -0.0467591
000170 30 63 f6 bd 48 4e d9 bd c7 2c 68 be ff 5e 5d be
       -0.12030637 -0.10610634 -0.22673331 -0.2161827
000180 63 89 0f be 7b 0d e5 bc 95 7e 7b bd d6 65 a2 3d
       -0.14017253 -0.02796053 -0.061400015 0.0792958
000190 19 99 19 3e da 48 de 3c 16 fe 4f 3e ca 3c 4d be
       0.14999808 0.027134348 0.2031177 -0.2004272
0001a0 0d 4a 8c be 54 c8 43 be 5a 31 9f be f8 01 56 3e
       -0.27400246 -0.19119388 -0.3109234 0.20899189
0001b0 05 70 4d 3e 9f 4d 67 bd 97 61 fc bd 7d d5 1c 3e
       0.20062263 -0.05647051 -0.12323301 0.15315814
0001c0 ef 2f aa be c4 b2 84 be a9 a4 8a be 99 8c 3e bb
       -0.33239695 -0.25917637 -0.2707875 -0.0029075502
0001d0 bb 80 1c 3e c3 57 c3 bd c0 a4 b5 bd 48 b3 0a be
       0.15283482 -0.095382236 -0.08869314 -0.13544953
0001e0 9b 27 12 be 7a 45 f9 bc e1 6c ed 3d bd 1f 12 be
       -0.14272921 -0.030428637 0.11593033 -0.1426992
0001f0 d9 7f 92 3e 8e 53 0d be 06 8d db bc 1b cc 3f be
       0.28613165 -0.13801405 -0.026800644 -0.18730204
000200 f0 8f a7 be 44 32 13 3e de 55 a7 3d 46 e4 49 3e
       -0.32727003 0.14374644 0.08170675 0.19715986
000210 c9 7c a2 3d b6 4c e6 3d 6b f2 78 3d bf aa 67 bd
       0.07933957 0.112451 0.060778063 -0.05655932
000220 be f6 c1 be 9b d2 65 be 8e cc f4 be 29 2e d5 be
       -0.37883562 -0.22443621 -0.47812313 -0.4163678
000230 b4 7e 90 3d d3 af d5 3d 71 67 2e 3e 4e 77 cc bc
       0.07055417 0.104339264 0.17031647 -0.024959233
000240 8f ac 64 3d 0e 32 5e bd 97 b7 00 bf 42 dd f8 bd
       0.055828627 -0.054246955 -0.50280136 -0.121515766
000250 7e 0d 42 3e e4 33 f4 3d b7 63 19 3e 6a a5 02 bf
       0.1895046 0.1192396 0.14979444 -0.5103365
000260 4f 0e d1 be 54 1b 03 3d 02 69 96 be fc be 26 3e
       -0.4083123 0.032008484 -0.2937699 0.16283792
000270 17 06 07 3f 2e 49 df bd 97 07 81 be 4d 9b 61 3d
       0.5274367 -0.1090263 -0.25201103 0.055079747
000280 d9 25 6f 3e df ce c6 bd 8c 59 5e be 17 04 62 3d
       0.23354281 -0.09707426 -0.21713847 0.05517968
000290 ad 3b a4 3e 43 c4 8c be 47 8c 52 3c 39 f1 39 3e
       0.3207678 -0.27493486 0.012850828 0.18158425
0002a0 82 21 2b 3e a4 24 26 be eb 98 81 be c4 c9 9e be
       0.16712001 -0.16224915 -0.2531198 -0.3101331
0002b0 64 06 70 3d 35 8a 5e 3e 75 31 3a be ae 99 b2 be
       0.058599845 0.2173241 -0.18182929 -0.34882873
0002c0 82 90 4f 3e 22 ff 2c be ea 55 6b 3e 58 6f 00 3d
       0.20269969 -0.168942 0.22981992 0.031356186
0002d0 c8 eb 95 3d 08 7b 9f 3e fa 37 9f 3e 34 8f 96 be
       0.07320362 0.31148553 0.31097394 -0.2940613
0002e0 21 c6 50 3e b5 e3 bf be f1 c8 d4 be 02 61 9f 3e
       0.2038808 -0.37478414 -0.41559556 0.311287
0002f0 5d d7 36 be 80 a3 d8 bd 19 92 85 be a0 ac 42 be
       -0.17855592 -0.1057806 -0.26088026 -0.19011164
000300 33 f2 76 3d a4 69 20 3f 17 2e 6f 3f f2 89 19 be
       0.060289573 0.62661195 0.934297 -0.14994028
000310 ca 3c 5b be 37 b1 a5 3d b7 49 ff 3d fe 7b ab be
       -0.21409908 0.08090442 0.12465232 -0.33493036
000320 39 21 94 3f e4 e8 5a be 13 16 8b 3e 12 39 bb 3c
       1.1572639 -0.21377903 0.2716528 0.022854362
000330 3c c1 94 3e 88 fc b7 3e 35 55 f7 3e a3 68 93 bd
       0.29053676 0.35934854 0.48307195 -0.07197692
000340 c0 22 95 3e f0 a7 67 3e f3 15 b0 38 1c de 02 3e
       0.29128075 0.22622657 8.396422e-05 0.1278004
000350 d2 80 d3 be 15 0b 38 bf f2 92 56 3e 55 65 28 be
       -0.4130922 -0.7189191 0.20954493 -0.16444905
000360 38 24 6a 3c ba 0e 24 3d 2c 22 a6 be cd 88 0d bf
       0.014290862 0.040053107 -0.32447946 -0.55286866
000370 c6 89 08 bf eb 15 6d 3e ff 93 24 3f 65 1a 05 3e
       -0.53335226 0.23152892 0.64288324 0.1299835
000380 34 5d 05 be 30 ec 0f 3d 8a ae 34 3d 53 26 58 3e
       -0.13023835 0.035137355 0.044111766 0.2110837
000390 fa a4 15 bf 2d f6 be 3e 65 1e a3 bd e4 c2 7b bd
       -0.5845486 0.37297192 -0.07964782 -0.06146516
0003a0 b4 8e 78 3e 0c a5 2d bd 18 1a bf be 97 8c d0 3f
       0.24273187 -0.04239373 -0.37324595 1.6292905
0003b0 58 8f 09 be ee fe 28 3e 8c 70 df 3e fb 00 1c be
       -0.13433588 0.16503498 0.43640554 -0.15234749
0003c0 d1 9f f7 3c b1 ae c6 3e 92 8c eb bd 22 55 10 3e
       0.030227574 0.38805154 -0.11501421 0.14094976
0003d0 7e 4a 42 be 96 8c 5b 3e bb b5 f6 3e b1 85 4b 3d
       -0.18973729 0.21440348 0.48185524 0.049688045
0003e0 ef f4 7b 3e 3e e6 9e 3e 0e 95 3e 3f cd c1 a0 3e
       0.24605154 0.31035036 0.7444619 0.31397858
0003f0 7f 09 ab 3d 22 16 39 3e 87 c4 65 3b a6 e6 5d 3e
       0.083514206 0.18074849 0.0035059766 0.21670017

lstm.bias_hh_l0 f4 [256]
000000 4f 30 b1 bd b3 57 39 3e 3e 4f 79 3e e3 d9 03 bf
       -0.08651792 0.18099861 0.24346635 -0.51504344
000010 23 03 d7 be e3 8f ba 3d 96 6f a2 be 60 4b a5 3e
       -0.4199458 0.091094755 -0.31725758 0.3228407
000020 99 cf 75 3e db 08 da be 6b ec 87 3e c0 64 0d bb
       0.24004973 -0.4258488 0.2654756 -0.0021574944
000030 45 2e 04 3d 94 4e a3 bc ed e1 84 3f 40 ca ae bd
       0.03227069 -0.01993493 1.0381447 -0.0853467
000040 8f fe 9d be 28 56 2c 3f 3a 5d 17 3e 2f d2 a7 bd
       -0.30858275 0.67318964 0.14781657 -0.08194386
000050 d7 0b 96 be 0e fe 8a be a8 2c bf bd 19 cc 72 bb
       -0.29305908 -0.27146953 -0.093346894 -0.0037047921
000060 ae 69 25 3d 80 e4 d5 3d 1c 9a ed bd 7d b2 0d 3e
       0.040383987 0.104439735 -0.1160166 0.13837619
000070 03 ff 57 3e b1 95 22 3e 92 e1 22 3e 73 f4 1e 3e
       0.21093373 0.15877415 0.15906361 0.15522937
000080 0f a0 56 be 96 31 f3 3d e0 ef 63 3d b4 18 d1 3e
       -0.20959495 0.11874692 0.055648685 0.4083916
000090 34 83 8b 3d e0 1f 11 3e 52 42 d2 3c 11 2d 8c 3e
       0.068121344 0.14172316 0.02566639 0.27378133
0000a0 72 72 88 3e 01 85 44 bf 39 c2 95 3e 5e 68 02 3e
       0.26649815 -0.7676545 0.29249743 0.12735125
0000b0 42 2a 79 bc 8b cd 5b 3e 94 8d 88 3e df e8 a3 3e
       -0.015207829 0.21465127 0.26670516 0.32013604
0000c0 62 4a 1f bf a9 a6 e5 3e 3f c3 b6 3d 4f b1 87 3e
       -0.62222874 0.44853714 0.08923959 0.26502463
0000d0 76 d8 ab 3e 3d 4d 77 be 43 f2 81 3e f5 da 22 3e
       0.33563584 -0.24150558 0.25380144 0.15903838
0000e0 50 9b cc 3d 74 9b a2 3f 0b db 40 3e a1 2d 71 3e
       0.09990561 1.270369 0.18833558 0.23552562
0000f0 07 2d 30 3e 32 71 97 3e 7b 24 a7 be 50 3d ae 3b
       0.17204677 0.2957855 -0.3264502 0.0053173676
000100 4a 74 8b be bd 10 90 3e bb 3f 83 bd 9f a5 df be
       -0.2723716 0.2813777 -0.0640864 -0.43681046
000110 65 87 a9 bd d9 5d b1 3d eb 37 8b be 70 96 0b bf
       -0.082777776 0.08660478 -0.271911 -0.54526424
000120 d5 a4 a8 3e d0 63 7d 3d 4d 75 52 be 8e 57 81 3d
       0.32938257 0.061862767 -0.20552559 0.06315528
000130 4b 25 88 be 7c ff 24 3e 6e 3d 9c bd 1b 17 40 3e
       -0.26590952 0.16113085 -0.07628904 0.18758814
000140 53 5c d9 be e4 b3 14 3c 3f 78 4f 3e 51 8b b3 3d
       -0.4245325 0.009076092 0.20260714 0.08766807
000150 fc c7 1d be 8f 89 8a be 64 18 82 3e a9 63 a6 3c
       -0.15408319 -0.27058074 0.25409234 0.020311194
000160 ee ea fd be 18 f6 1d be 4c cf cc bb dd 6e 21 be
       -0.495933 -0.15425909 -0.0062502977 -0.15764947
000170 70 ac 9b 3d 77 99 68 3b 9c 72 87 bd f0 b0 1c be
       0.07601249 0.0035491863 -0.06613657 -0.15301871
000180 b0 83 1c be b6 b5 0e 3e a1 f9 7c be 9e 36 e0 3d
       -0.1528461 0.13936505 -0.24704601 0.109479174
000190 ec d9 25 3d da eb e6 bd 7a 33 46 3e bd 7d 49 be
       0.04049103 -0.11275454 0.19355574 -0.19676872
0001a0 12 fb ef bd 60 b9 6b be c0 eb 0d be d4 cc 78 3e
       -0.1171781 -0.23019934 -0.13859463 0.24296886
0001b0 d8 05 99 3e a9 60 0d be 55 68 db bd ae cb 06 3e
       0.2988727 -0.13806404 -0.10713259 0.13163635
0001c0 a6 0e ad be ce b3 3b be b5 0e b0 be 10 a5 8f 3d
       -0.33800238 -0.18330309 -0.3438622 0.07013905
0001d0 53 cc 21 3e da 02 3c 3d d1 6a 05 be 1b 5f 0b be
       0.158006 0.045901157 -0.13029028 -0.13610499
0001e0 30 aa 1a bd ac 01 ce 3d 2e 44 82 3e 3b f8 06 3d
       -0.03775996 0.10058913 0.25442642 0.032951575
0001f0 e8 3b ca 3d fb be 5e be 9a df 36 be 19 a4 ed bd
       0.098747075 -0.21752541 -0.17858735 -0.11603565
000200 c0 19 c8 be fb d4 27 3e c9 86 f3 3d e3 12 a9 3d
       -0.39082146 0.1638984 0.118909426 0.082555555
000210 cb cf 12 3e 7c 93 76 3e 60 fd 46 bd 60 75 84 3c
       0.14337079 0.24079698 -0.04858148 0.01616925
000220 45 49 91 be a0 a1 fa bd 47 58 e2 be 21 2b 04 bf
       -0.28376213 -0.12237859 -0.44207975 -0.5162831
000230 d5 ca b2 bc d8 e7 20 3e f0 42 28 3e 16 b3 23 bc
       -0.021825233 0.15713441 0.16431785 -0.009991428
000240 ed c8 2f bd 98 de d0 bd e5 5c c6 be e5 2c 6a be
       -0.042916227 -0.101987064 -0.38742748 -0.22868688
000250 71 f7 c1 3d 09 ed 3f 3e 03 d4 ef 3d fc cb d2 be
       0.09471024 0.18742765 0.1171036 -0.41171253
000260 bf 0e c4 be 6c fa 7d 3d 66 bf aa be ff 97 70 3e
       -0.382925 0.0620064 -0.3334915 0.23495482
000270 03 67 ca 3e 30 50 76 be df 35 1d be 91 5f fd 3d
       0.39531717 -0.24054027 -0.15352581 0.123717435
000280 6c 1e 08 3e 41 15 37 bc 1b 73 15 be 84 4c dd 3d
       0.13292855 -0.011174501 -0.1459469 0.1080561
000290 79 fc 83 3e 25 13 b9 be aa 34 11 be a6 b8 ab 3b
       0.2577856 -0.3614742 -0.14180246 0.0052405177
0002a0 a7 a6 1b 3e 1f 5b 30 be a2 84 bc bd 5e 5b d7 be
       0.15200292 -0.1722226 -0.09204985 -0.42061895
0002b0 c8 19 75 3e ff 13 fb 3d 2b c7 aa be 7e 8d 89 be
       0.23935616 0.12259673 -0.33355078 -0.26865762
0002c0 23 65 8b 3e 3b 6b d7 bd 96 a9 8f 3e 78 66 83 3d
       0.272256 -0.105184995 0.2805907 0.06416029
0002d0 d1 06 2d 3e 83 3e 8b 3e df a6 bd 3d fa 13 64 be
       0.16897132 0.2719613 0.09260344 -0.22273245
0002e0 2c cf 5c 3e 89 53 a7 be 66 ac a9 be a2 ed 04 3f
       0.21563405 -0.3268092 -0.33139342 0.519251
0002f0 7a 65 53 be 7a 33 f1 bd 80 15 6d be 98 66 0f be
       -0.20644179 -0.117773965 -0.23152733 -0.1400398
000300 79 fe 92 3c 39 7e ec 3e 6d 6f 6a 3f 52 93 76 be
       0.017943608 0.4619005 0.9157627 -0.24079636
000310 c5 a1 d2 be 8b 99 89 3e b3 df 22 bd 63 a8 6e be
       -0.41139045 0.26874956 -0.039764117 -0.23306422
000320 bb 35 99 3f a9 50 b1 bd 79 b3 a7 3e 1e 3e 0a 3d
       1.1969522 -0.08657963 0.32754114 0.033750646
000330 80 97 54 3e a1 f1 d4 3e a3 4d 0e 3f f5 41 a8 3d
       0.20760918 0.41590598 0.55587214 0.08215705
000340 aa 99 c0 3e 6e 40 ae 3e e1 e0 dc 3d 45 55 68 3e
       0.37617236 0.3403353 0.1078508 0.22688778
000350 3e 4b fa be c7 bc 54 bf 57 b9 90 3e 20 9e 1d be
       -0.4888553 -0.8310055 0.28266403 -0.15392351
000360 0c 37 b2 3c 7c 98 00 be 72 25 77 be 3c 25 db be
       0.021754764 -0.12558168 -0.24135378 -0.42801845
000370 58 3f d0 be c7 e6 2e 3d c0 41 de 3e 2a 55 96 bd
       -0.40673327 0.042700555 0.43409538 -0.073404625
000380 ca be 08 bc 71 42 2d 3e b7 4a 65 3d c0 21 b3 3e
       -0.008346269 0.16919877 0.055979457 0.34986687
000390 46 37 46 bf 64 c6 82 3e 9d b6 b8 3d d4 73 d2 bc
       -0.7742809 0.25541985 0.09019206 -0.025689997
0003a0 53 fc a0 3d db 66 67 bd 47 55 95 be 28 f9 c0 3f
       0.07860627 -0.056494575 -0.29166624 1.5076036
0003b0 1e 5e 7b be fb bf a2 3e 54 a8 b0 3e a3 7e 65 3b
       -0.24547622 0.31787094 0.34503424 0.0035018108
0003c0 f0 ec 6b bd a6 ce b9 3e cc 87 74 be b7 09 5f 3e
       -0.057599008 0.36290473 -0.23879927 0.2178105
0003d0 64 93 31 bc 4c a2 59 3d 68 0d 07 3f 0f 57 06 3d
       -0.010838363 0.053133294 0.5275483 0.03279787
0003e0 f9 6e ea 3d 12 a9 99 3e 04 3f 51 3f ae 8c b6 3e
       0.114469476 0.30011803 0.8173678 0.35654205
0003f0 52 6b b3 3d fc d1 1d 3e b3 f1 2d bd b2 8a a8 3e
       0.08760704 0.15412134 -0.04246683 0.32918316

lstm.weight_ih_l1 f4 [256, 64]
000000 fe df b0 bd a9 0f ad 3e a0 ad 36 bc c6 30 87 bd
       -0.08636473 0.3380101 -0.011149794 -0.066011
000010 98 8c b8 3e 45 e2 be 3e f8 a3 92 3e a5 23 cc be
       0.36044765 0.37282005 0.28640723 -0.39870945
000020 3a 0d c4 3d 6f 23 65 be 30 00 a2 3e d4 36 29 3d
       0.09572835 -0.22376798 0.31640768 0.041312054
000030 7c 8c c3 bd 4f 03 41 3e 94 3b 0f 3e 49 cd bb 3d
       -0.0954828 0.18848918 0.13987571 0.091700144
000040 88 51 00 3e 3e 25 c0 be 2d a3 b1 be 4b 46 de 3e
       0.12531102 -0.37528414 -0.34694806 0.43413004
000050 77 f4 19 be 9f db f1 bd 09 d1 19 3e c0 da 70 be
       -0.15034662 -0.118094675 0.15021147 -0.23520947
000060 6e 3e 5f 3d 31 32 d8 3c fa 42 02 3e 47 9e 77 3d
       0.054502897 0.02639112 0.12720862 0.06045368
000070 68 c4 8b 3d 30 56 e2 3d 52 86 44 3d 27 bf 7f bc
       0.06824571 0.11051595 0.04797966 -0.015609539
000080 ce cd d2 3e b0 3a c6 be cf 61 48 be bf 0a ad 3d
       0.41172642 -0.3871665 -0.19568561 0.08449315
000090 7a db ab bd 8f f9 09 3e d9 20 d4 bd b1 8a 7e be
       -0.08391471 0.13474105 -0.10357828 -0.24857594
0000a0 d6 b2 0a 3e 0c 04 0d be 6a 46 5d be 1a 12 30 be
       0.13544783 -0.13771075 -0.21608892 -0.17194405
0000b0 79 fe 8d bd 8b a2 d4 bd d5 1b 0e 3e 06 a0 d5 bd
       -0.069333024 -0.10382565 0.13877805 -0.10430913
0000c0 48 b2 46 3e 4a f6 17 be cf 7d c4 3e aa 94 05 be
       0.19403946 -0.14840046 0.38377234 -0.13044992
0000d0 89 6d c6 3e b7 a1 03 be 6b d7 ac 3c 40 49 bc 3d
       0.38755444 -0.12854658 0.021098813 0.09193659
0000e0 00 f9 d2 3e d1 65 0a be 1c a5 80 3e 4e b7 86 be
       0.41205597 -0.13515402 0.25125968 -0.26311725
0000f0 18 7f f1 3d 75 95 bd be 94 9e c4 3e eb 5c 4e be
       0.11791819 -0.3702809 0.38402236 -0.20152633
000100 13 6d 1a 3e 0e b2 97 be 86 10 3c be f3 d1 5a bc
       0.15080671 -0.29628032 -0.18365678 -0.01335572
000110 f3 ee 43 bf dd 48 2d bd 29 54 63 be 3d c9 ab 3e
       -0.7653648 -0.042305816 -0.22200073 0.3355197
000120 c8 5f 82 bd 13 f8 2f be 5b a8 ad be 29 58 0c 3f
       -0.06365925 -0.17184477 -0.33917508 0.5482202
000130 2e cd 60 bd c7 08 23 be 95 1f 15 3e 82 e7 a8 3d
       -0.054883175 -0.15921317 0.14562829 0.082472816
000140 fc 03 97 be dd bd cf be 72 12 68 3e 80 d4 90 3d
       -0.29495227 -0.40574542 0.22663286 0.07071781
000150 2a db e8 bd 31 fa e0 bc 48 99 97 3d e1 09 04 3d
       -0.11369927 -0.02746305 0.07402283 0.032235984
000160 05 e8 4e 3e 02 a6 49 3e 65 84 d4 be 7f 8f b2 be
       0.20205696 0.19692233 -0.4150726 -0.34875104
000170 c9 bf 63 be 21 05 e1 be cf bd 4d be cd 7e 85 3e
       -0.22241129 -0.43949226 -0.20091937 0.26073304
000180 26 09 3a be 7a fa 28 bf 47 3b 92 3e 6f ff 23 bb
       -0.18167552 -0.66007197 0.2856085 -0.0025024076
000190 97 b3 76 bc be a5 c6 3e d6 ff ea 3e 58 73 88 be
       -0.015057466 0.38798326 0.45898312 -0.266505
0001a0 5f 4e b8 bd cb 37 fc bd 3a aa 27 be 97 aa ff bc
       -0.08999323 -0.12315329 -0.1637353 -0.031209273
0001b0 06 d0 3a 3e 0b fc f9 3c de da b9 be 97 be 76 3e
       0.18243417 0.030515691 -0.36299795 0.24096142
0001c0 15 95 f8 bd 4b a2 9d 3e 13 9d 5d 3d 49 4a 48 3e
       -0.1213781 0.30787882 0.054104876 0.19559588
0001d0 c9 47 4e be 4e 8c 01 3e 27 18 6f bc 8b 9b 18 3e
       -0.20144571 0.12651178 -0.014593161 0.14903085
0001e0 0b e0 24 be 99 67 32 bb ee 60 77 3d ff 81 a2 be
       -0.1610109 -0.0027222394 0.060395174 -0.31739804
0001f0 6e 3f 45 3d b8 98 a8 3e f1 e3 78 bd de e0 bc be
       0.048156194 0.32929015 -0.060764257 -0.3689031
000200 58 64 a9 bd 29 12 c1 3d 1a 5f e4 3d 8a d4 0e 3e
       -0.08271092 0.09427292 0.11150952 0.13948265
000210 46 bd b5 be 07 1a d8 3e 75 3a d0 be 63 da b3 3e
       -0.35495967 0.42207357 -0.406696 0.35127553
000220 6f 73 97 be a0 d3 24 be 7f b5 70 bc 0d cb 9b 3e
       -0.29580256 -0.16096354 -0.01469171 0.30428353
000230 b9 0f 4b bd e0 b8 fb 3d f7 4e 16 bf 8a 49 93 be
       -0.04957554 0.122911215 -0.5871424 -0.28767043
000240 e4 73 30 3e 65 3f 02 3f 90 64 d2 3c 30 95 75 be
       0.17231709 0.5087798 0.025682718 -0.23982692
000250 8f 4c 0c be 15 4f 0b bf 45 78 75 be f6 0c 59 bc
       -0.1370108 -0.54417545 -0.2397166 -0.013247719
000260 02 17 0f be 4d e5 36 bd 54 43 98 bd 48 4e 76 be
       -0.1397362 -0.044652272 -0.07434717 -0.240533
000270 91 16 87 be 34 1c fa be 35 46 0c 3e 44 92 d8 be
       -0.26384404 -0.48849642 0.13698657 -0.42299092
000280 c6 f0 d7 be 9e 05 50 be e3 8b 13 bf 05 f3 c4 bd
       -0.42175883 -0.20314643 -0.57635325 -0.09616665
000290 81 3b 14 be 17 91 7f 3e 02 cf d4 bd 68 4e ef bd
       -0.14475824 0.24957691 -0.10391046 -0.11684877
0002a0 05 bf 72 3d 3a 31 36 3e f6 78 0e 3e 5c 90 eb be
       0.0592642 0.17792216 0.1391333 -0.46008575
0002b0 8a ce 27 3e af 19 f8 3d a5 97 02 3e 9a 92 8d 3e
       0.16387382 0.12114274 0.1275316 0.2765091
0002c0 91 37 f4 bd bd 57 11 3d a9 ad 9d 3d 84 27 9e 3e
       -0.11924661 0.035484064 0.07699139 0.30889523
0002d0 e1 7a d9 3d 7d e4 0e 3e 53 c9 8b 3d a5 57 48 bb
       0.106191404 0.13954349 0.06825509 -0.0030569818
0002e0 85 36 fb bd 55 cf 9e be 7e 0a 96 bd 54 66 09 be
       -0.12266258 -0.31017557 -0.0732622 -0.13417941
0002f0 2f 56 23 bd bb 5c 0f 3f 16 50 3a 3e 2c 5b c5 3e
       -0.039877113 0.5600087 0.18194613 0.3854612
000300 66 a0 41 be 14 c8 cc be 60 bf 54 3e f6 af b5 3d
       -0.18908843 -0.39996397 0.20776129 0.088714525
000310 b8 41 76 bd 06 d8 a7 be ba 36 2a 3e 47 b9 0c 3e
       -0.060121268 -0.32782 0.16622439 0.13742553
000320 4d e7 33 3f 7c 6c 62 3e 6f d8 53 be 2c c1 45 3e
       0.7027481 0.22111696 -0.20688032 0.1931197
000330 58 89 8a 3e 6f 6b 30 3e a9 17 a8 3d cf c8 27 be
       0.2705791 0.17228483 0.08207638 -0.16385196
000340 c5 9e 37 3d ce 97 11 3e b3 7a 3d be b6 dd 80 be
       0.04482915 0.14218065 -0.18503837 -0.25169152
000350 56 73 be 3d e6 fd 45 be 52 8f 09 be 99 3b ad be
       0.09299342 -0.19335136 -0.13433579 -0.33834532
000360 68 1b e7 bd dc 62 ef 3c 05 52 37 be eb 1d 6b 3c
       -0.11284524 0.029221945 -0.17902382 0.014350395
000370 f6 c3 f2 bc 06 32 a3 3d 88 b0 c7 3d 94 e4 14 bd
       -0.029634457 0.079685256 0.097504675 -0.0363508
000380 6b 46 50 be 91 cb 92 3e b0 f8 0f 3e b0 2d 65 bd
       -0.20339362 0.28670934 0.1405971 -0.055951774
000390 73 c4 6f bd 0d c7 05 3e 10 5b 3b bd 6d 21 19 bc
       -0.058536958 0.13064213 -0.04574114 -0.009346348
0003a0 1b a9 cf bd 2b 6f 88 ba ae 90 a4 3d 2b 1e bb 3e
       -0.10139676 -0.0010409107 0.08035408 0.36546454
0003b0 79 e2 e9 be dd 34 ad be 77 3a 85 bc eb 00 70 3e
       -0.45680597 -0.33829394 -0.01626323 0.2343785
0003c0 f0 45 fa bc 8f 52 86 bc 26 61 5b 3e 45 fa 1f be
       -0.030550927 -0.016396789 0.21423778 -0.15622814
0003d0 3f 30 23 be 68 0e 21 3d 12 b9 b8 3e c5 7d f0 ba
       -0.15936373 0.03932038 0.36078697 -0.0018348029
0003e0 df 78 aa 3d ef 63 ee 3e fc ab f8 bc 49 6f 0c be
       0.083238356 0.46560618 -0.030355446 -0.13714327
0003f0 a2 90 07 be af 9f 6b 3e 48 bb 37 3e 47 dc 2a 3c
       -0.13238767 0.23010133 0.17942536 0.010428495

lstm.weight_hh_l1 f4 [256, 64]
000000 08 82 45 3e 32 83 06 bf 84 a1 c1 be 1d 0c 68 be
       0.19287884 -0.5254394 -0.3781854 -0.22660871
000010 74 8f 80 3e c9 c8 7a 3e d7 38 cd 3d b6 f0 f1 3d
       0.25109446 0.24490656 0.10020607 0.1181349
000020 c8 ef 34 3e 64 6e 9d be 78 5a 57 3e b9 f9 2a 3e
       0.17669594 -0.30748284 0.21030605 0.16696824
000030 72 06 d3 be 54 72 9e be a4 8d cd 3e 92 8a 25 3d
       -0.41215855 -0.309466 0.40147126 0.040415354
000040 33 76 66 be 27 51 e5 3e d1 65 9d 3d d8 a7 ba 3d
       -0.22506027 0.44788477 0.076854356 0.09114045
000050 6e 21 b3 be 60 b7 f3 be 7e 92 76 3e d3 22 b5 be
       -0.34986442 -0.47600842 0.2407932 -0.3537813
000060 12 9b 5e 3e 3a 6e b4 be 78 e5 10 3e 49 0f 31 3e
       0.21738842 -0.35240346 0.14150035 0.17290987
000070 0f e7 0d 3e 06 d5 0d be 1a 90 e9 3d bc 8f 0a ba
       0.13857673 -0.13850793 0.11404438 -0.00052857003
000080 d7 0f af bc 63 68 c5 3d 57 10 b9 3e d0 a4 98 be
       -0.021369858 0.09639051 0.3614528 -0.29813242
000090 a2 db 94 bd f1 2a 31 be 9f 69 2d be dd f1 05 be
       -0.07268454 -0.17301537 -0.16934822 -0.13080545
0000a0 5e 79 d5 bd e0 c8 4f 3e dd c8 90 be ba 34 1a 3e
       -0.104235396 0.20291471 -0.28278247 0.15059176
0000b0 ee 9f 3f be aa ba 6e bd 1c 96 d7 3c 46 2b 5b 3e
       -0.18713352 -0.058283485 0.026316695 0.21403226
0000c0 d3 ca c7 be c3 66 8f be 1d 19 bb bd f6 b9 10 3f
       -0.3902193 -0.28008088 -0.09135649 0.56533754
0000d0 72 5e a4 3e f8 98 17 be df 6f 89 bb 84 25 47 3e
       0.32103306 -0.14804447 -0.0041942443 0.19447905
0000e0 4a af c0 bd c4 d3 5b 3e 68 1d 92 be 50 48 be be
       -0.09408434 0.21467501 -0.2853806 -0.37164545
0000f0 88 a6 f0 3c 1f 6b 5c bc bc 6b fc be 1b 1d a5 be
       0.029376283 -0.013453274 -0.49300945 -0.32248768
000100 16 d3 a2 3e af db b9 3d 2b 9f db bd 53 9f 63 bd
       0.3180167 0.090751044 -0.10723718 -0.055571865
000110 4b c6 0f bd 61 97 f3 3d 98 5a bd be 1f 7b 17 be
       -0.035101216 0.118941076 -0.3698318 -0.1479306
000120 ed e1 5c be 6c c4 5d 3d 53 3e 43 3d 9e 80 36 3e
       -0.21570559 0.0541424 0.04766686 0.17822501
000130 a9 41 e9 be 57 82 b1 be 08 56 61 3e f3 83 90 be
       -0.45557907 -0.34669754 0.22005475 -0.2822567
000140 54 6e 2d be d7 22 83 bd 33 44 e7 3c c3 13 a3 3e
       -0.16936618 -0.064031295 0.028230762 0.31851014
000150 a8 01 9c 3c f9 02 b7 3d b2 bc a0 3d 6f 54 90 bc
       0.019043759 0.08936114 0.07848491 -0.017618386
000160 fe 52 1a 3f 5d d7 35 be da be 7b 3e 12 87 23 be
       0.60282886 -0.17757936 0.24584523 -0.15969494
000170 cb d0 08 be 49 3a 87 be 74 35 dc 3d 46 a3 3f bc
       -0.13360898 -0.26411656 0.10752383 -0.011696642
000180 be 3f 1b bd 93 7d 1e be f5 2a 90 be 88 21 c4 bd
       -0.037902586 -0.1547759 -0.28157774 -0.09576708
000190 7b 75 4e 3e 1f 12 41 3e a0 bb 4b 3e 72 1d 13 bf
       0.20162003 0.18854569 0.19895792 -0.57466805
0001a0 9d 9a 27 be 22 6e a1 3e 0b 66 6c 3e 63 17 bd be
       -0.16367574 0.31529337 0.23085801 -0.36931905
0001b0 72 d6 98 bd e5 12 6f be 93 b0 2b 3e 4a 35 23 bd
       -0.07462777 -0.23347051 0.16766576 -0.039845742
0001c0 db dd 88 be 97 c2 d6 bc d0 52 fb bd c8 35 17 be
       -0.26731762 -0.026215835 -0.122716546 -0.1476661
0001d0 f6 05 6e be 9f b4 f2 3e 65 57 51 3d 74 e3 30 be
       -0.23244461 0.47403428 0.051108737 -0.17274266
0001e0 78 f4 80 3e 2b fd 68 be a6 44 bf bd 60 aa 0b bf
       0.25186515 -0.22752826 -0.093392655 -0.54556847
0001f0 ca dd f1 3e 43 d5 f2 3e 18 b1 85 3d b7 87 50 be
       0.47239524 0.4742833 0.065279186 -0.20364271
000200 4c d7 f7 3d a4 5e 6a be d8 45 b9 3b 57 8d a5 bc
       0.121016115 -0.22887665 0.005654078 -0.020208998
000210 7a 24 69 bd a9 1e e3 bd 00 6a 8f 3c 11 a2 27 bd
       -0.056919552 -0.11089832 0.0175066 -0.040926043
000220 73 8b a0 bd db 8a 25 3e f7 dc a0 3d a0 7c 75 bd
       -0.07839098 0.1616625 0.07854646 -0.059933305
000230 0e 49 b7 bb df 9e 8f 3c dc 98 ef bd 11 bb 92 bd
       -0.0055934256 0.01753181 -0.116990775 -0.07164586
000240 b2 aa e2 3e 19 38 95 3e 1d 32 77 3c ea 1f 3e 3d
       0.44270855 0.29144362 0.0150876315 0.046417154
000250 b1 ac af 3e 25 48 9f 3e 72 66 e8 be 39 6e 89 bd
       0.3431144 0.3110973 -0.4539066 -0.067104764
000260 8c 1d 78 be ae 48 c3 bd 58 c7 be bd fe 7a 8c 3e
       -0.24230021 -0.09535347 -0.093153656 0.27437586
000270 ee b7 0f 3e 04 a7 1a be e5 fe 76 bc 16 b2 b8 bc
       0.14035007 -0.15102774 -0.01507542 -0.022545855
000280 0a f9 89 be b6 ee ad bd c7 04 77 be 5a 31 c4 3c
       -0.26947814 -0.08492796 -0.24122916 0.023949314
000290 e9 92 28 3e 94 ed 3d 3e e6 64 08 3e e6 e9 59 3e
       0.16462292 0.1854766 0.1331974 0.21280631
0002a0 5f 7c f5 3d 25 67 c6 be 64 59 d7 3e 8f 34 b3 be
       0.119866125 -0.38750568 0.42060387 -0.35001037
0002b0 e6 5f 0f 3e b7 42 a1 3e 8b 82 7c 3c a0 36 a2 3e
       0.14001426 0.31496212 0.015411983 0.316823
0002c0 2f a5 e9 3c 5c 52 0a be 90 e4 9e bd de d7 bc 3e
       0.028521148 -0.1350798 -0.077584386 0.36883444
0002d0 b0 82 fd bd 3b 38 55 bd e5 c5 38 be c7 5d cd be
       -0.12378442 -0.05205558 -0.18044241 -0.4011061
0002e0 f3 c4 4e be 94 b8 f9 bd 3d 66 a0 3e 23 a3 53 3d
       -0.20192318 -0.121934086 0.31328002 0.05166925
0002f0 a4 7c 8d 3e 00 54 9d bb 2b dd 37 be 4f 7f bf 3e
       0.27634156 -0.0048012733 -0.17955463 0.37401816
000300 6d 08 bb bd 04 c3 52 3e 8a e7 4a be 70 43 98 3d
       -0.091324665 0.20582205 -0.19814888 0.07434738
000310 e2 9f f4 3d 89 12 74 3e b7 55 0b 3d 29 e2 c4 3e
       0.11944558 0.23835196 0.03401729 0.38453797
000320 f5 3d 2b be 08 ee e7 bd f5 eb 10 be 70 f1 b0 3c
       -0.16722853 -0.11324698 -0.1415251 0.021599501
000330 ca 1d d9 bd 00 ed 90 bd 4a 02 c2 3d 97 21 ea bd
       -0.10601385 -0.07076454 0.09473093 -0.11432188
000340 87 54 c5 bd 72 68 2e 3e 2b 8d d9 3c b5 3f 8b 3c
       -0.09635263 0.1703203 0.026556572 0.016998151
000350 71 1e 4c be 69 3b 9e 3d df 5b f4 3e 6b 2f 88 3e
       -0.19933487 0.07726175 0.47726342 0.26598677
000360 ef dd b7 be 4e 6d 5f 3d 09 59 a9 be 0d a0 60 be
       -0.3591151 0.0545476 -0.3307574 -0.21936055
000370 75 00 26 bd c7 22 04 3b 77 04 1f 3d 07 20 9e 3e
       -0.04052778 0.002016233 0.038822617 0.3088381
000380 17 8d 6c be 5a 95 13 3f 88 43 b2 3d 6e 2b 2d be
       -0.23100697 0.5764977 0.08704287 -0.16911098
000390 dc 08 ec bd 44 d4 e7 3d 50 ad a2 be f1 5a 93 be
       -0.11525127 0.11319783 -0.31772852 -0.2878032
0003a0 6b 8a 55 bd c7 5c 3c be eb 13 88 3c 7b d9 0d 3e
       -0.05213396 -0.18394767 0.01661106 0.13852493
0003b0 9a 1b ae be b1 57 95 be 17 40 e8 be e8 95 a5 3c
       -0.34005433 -0.29168466 -0.45361397 0.020213082
0003c0 cc fc 46 be 15 c1 d6 bd 9c 66 d4 be 9f d8 2f be
       -0.19432372 -0.10486046 -0.41484535 -0.17172478
0003d0 41 1e 97 bd b2 f3 e3 3d d7 b6 97 bd f3 08 75 bd
       -0.07378817 0.111304656 -0.07407921 -0.059822988
0003e0 35 10 3d bd 97 7d b8 3e 56 6d a9 be a7 e1 04 3e
       -0.046158034 0.36033317 -0.3309123 0.12976705
0003f0 2e 19 47 bd 6c b6 ca 3e c0 1e 4b be fc 5c 41 be
       -0.048607998 0.39592302 -0.19835949 -0.18883127

lstm.bias_ih_l1 f4 [256]
000000 6c 2e 84 3d d6 65 97 3c 6b 79 6b be 89 13 a2 bd
       0.06454167 0.018481176 -0.22995536 -0.07913882
000010 08 5e c4 3d 99 5d f0 bc 26 f3 5c be 30 20 dc bd
       0.095882475 -0.029341506 -0.21577129 -0.10748327
000020 c0 d5 da bd f9 ca b7 be d0 48 b5 bd 89 3c e1 bd
       -0.10685301 -0.35897043 -0.088517785 -0.10997874
000030 f4 41 83 be 7a 81 17 3d fd d2 e0 3d 33 dc 6b 3e
       -0.25636256 0.036988713 0.10977743 0.23033218
000040 6c 54 f3 3d f4 e2 9b 3c 91 aa ea bc 8e 4e 91 bd
       0.118813366 0.019029118 -0.028645786 -0.07095061
000050 7c cd ce 3d e3 06 08 be 02 8c 64 bd 92 37 0a 3e
       0.10097787 -0.13283877 -0.055797584 0.13497761
000060 1b 19 7e bd 74 bd a5 bd 27 5b c9 bd 42 a8 6c 3e
       -0.06203566 -0.08092776 -0.09831839 0.2311106
000070 24 57 a3 3b 98 d4 92 be c0 52 02 be 88 65 81 be
       0.004984753 -0.2867782 -0.12726879 -0.25272775
000080 25 e9 a4 3c af 99 93 bd 63 db f0 bb 4d 8f 14 be
       0.020130703 -0.07207047 -0.0073503717 -0.1450779
000090 52 b2 df bd b1 1a 5d bd 0d ec 43 be e0 c8 4f 3d
       -0.10922684 -0.053980533 -0.19133015 0.05072868
0000a0 3e de 56 3d 08 40 64 bd 28 00 aa 3d ba 19 2e be
       0.05245804 -0.055725127 0.08300811 -0.17002001
0000b0 5a 1d e9 3d 97 10 e5 bd 6f d7 84 be 38 1c 06 bd
       0.113825515 -0.11184805 -0.25945613 -0.032741755
0000c0 e8 75 33 be 5a 05 73 3b 03 1c 64 be be a4 45 bc
       -0.17525446 0.0037082047 -0.2227631 -0.012063203
0000d0 3d 72 98 be 5b d2 f2 bc 55 2b 0d bd 5f 4a 0a 3e
       -0.29774657 -0.02964132 -0.034465153 0.13504933
0000e0 2d 83 0c be 44 bd 7c be fd c6 06 be ea dc 70 be
       -0.13721915 -0.24681574 -0.13161846 -0.23521772
0000f0 2c 80 3f 3e 3b 83 70 bd c7 9a 4e 3e fa 1c b4 be
       0.18701237 -0.0587189 0.2017623 -0.35178357
000100 f5 1f 29 be 1d 46 00 3e 05 56 d3 3d 4b dc e3 3d
       -0.16516097 0.12526746 0.10319141 0.11126002
000110 c2 e2 cf bd 11 74 50 bd cd db c2 3e 77 c3 0d 3e
       -0.101506725 -0.05089194 0.3805832 0.13844095
000120 b8 24 a1 3e 02 e0 ad 3e 32 f0 96 3e 7e fd 44 bd
       0.31473327 0.33959967 0.2948013 -0.04809331
000130 8c 49 49 3e 73 94 9f be f8 30 0c 3e ff 82 e6 bd
       0.19656962 -0.31167945 0.13690555 -0.11255454
000140 16 54 f1 3b c3 4c 3d 3e 34 84 a0 be 25 68 aa bc
       0.00736476 0.18486314 -0.31350863 -0.020801613
000150 25 9b d2 3c a7 94 f8 3d 68 ea ae 3d 69 08 0d be
       0.025708744 0.12137728 0.08540803 -0.1377274
000160 aa 7c e5 3b b8 51 d7 3d b0 69 b5 3e e8 5d 37 be
       0.0070033865 0.105136335 0.35432196 -0.17906916
000170 b6 5d ab 3c 17 bf 39 be 80 34 01 bd 76 85 6f 3e
       0.020918708 -0.18139301 -0.03154421 0.23390755
000180 46 79 93 bd 2d 46 86 3d ec 0b fb 3d 43 9f a9 be
       -0.072008654 0.06556354 0.12258133 -0.3312932
000190 30 15 4a 3c 97 82 12 bd 0d 60 50 3e f5 4b 17 be
       0.012334153 -0.03576907 0.2034914 -0.14775069
0001a0 ed fb e2 3c 98 99 0a 3e 6b 88 b3 3c 2f e4 b0 3d
       0.027708018 0.13535154 0.021915635 0.086372726
0001b0 b7 27 96 be c3 4c 74 bc 0d 9b 60 3e 38 92 7e 3d
       -0.29327175 -0.01491088 0.21934147 0.062151164
0001c0 ef 0a 09 3e d5 f1 38 be ca 1f 19 be f0 e3 45 3e
       0.13383077 -0.18061002 -0.14953533 0.19325233
0001d0 b4 60 92 3e 8b 48 8a be 48 33 1f be 9c 3a 17 bd
       0.28589404 -0.2700847 -0.15546906 -0.03692113
0001e0 07 c1 46 bd f3 1d c0 3e e3 7e a1 3c a9 b8 74 3e
       -0.04852393 0.3752285 0.019713825 0.23898567
0001f0 70 d1 72 be 61 60 d6 bd e9 c3 7a 3c 9a dd 21 3e
       -0.23712707 -0.104676016 0.015305498 0.1580719
000200 78 93 95 3d f5 cb c3 3c e6 36 51 bc b1 94 f5 bd
       0.07303518 0.023900965 -0.012769436 -0.11991251
000210 d4 2d 12 be 46 aa f3 3d 4d 03 7e 3c 01 8b 03 be
       -0.14275295 0.118977115 0.015503717 -0.12845995
000220 f8 5d e3 bd 5f c5 ac 3d 66 55 68 be 72 b8 c2 bc
       -0.111019075 0.08436083 -0.22688827 -0.023769591
000230 5d 45 24 bc cc 87 84 3b 84 ba 15 be 03 bf 97 bd
       -0.010026303 0.0040445086 -0.14621931 -0.074094795
000240 2e 79 77 3d 95 16 4c 3e 2f be 52 3e 1e 46 6c 3d
       0.0604183 0.1993049 0.20580362 0.057684056
000250 d7 21 ae bd dd 15 72 be 1e 5a b6 bd 93 a1 22 be
       -0.08502548 -0.23641153 -0.08903907 -0.15881948
000260 e8 64 25 bd d3 d4 88 3d e0 e6 86 3e 64 cf 15 3e
       -0.040379435 0.06681218 0.2634802 0.14629894
000270 91 39 29 be fa bb ae bd 54 7a b4 3c f4 0b 04 3e
       -0.16525866 -0.085319474 0.022030987 0.12895185
000280 38 57 64 be 45 ac 15 3d 35 01 18 be 08 85 a2 3c
       -0.22298896 0.036541242 -0.1484421 0.019838825
000290 7a 18 07 3d 76 42 7c 3e c0 c8 b4 bd 22 81 7c bc
       0.032982327 0.24634728 -0.088273525 -0.015411647
0002a0 32 dc 4f 3e 51 25 36 be f2 69 40 3e 61 0a aa 3d
       0.20298842 -0.17787673 0.18790415 0.08302761
0002b0 dd d0 31 bd 31 03 87 3e 8f 00 37 3d b1 db cc bd
       -0.04341208 0.26369622 0.044678267 -0.1000284
0002c0 20 34 10 3e a4 c3 06 3e 19 cc 95 bd 29 2f 95 3e
       0.14082384 0.13160568 -0.07314319 0.29137543
0002d0 86 eb 5d 3c b5 b4 55 be ba 63 84 3e 12 26 19 3d
       0.013544923 -0.20869716 0.25857335 0.037389822
0002e0 2f 9e 21 3e ba 07 05 be 63 bd 04 be 91 e2 83 bd
       0.15782999 -0.12991229 -0.1296287 -0.064396985
0002f0 46 6b df 3c dd aa 36 3e b1 0e 3e bd d0 34 d4 bc
       0.027272832 0.17838617 -0.04640073 -0.02590409
000300 a7 54 2c 3d 5b 3f 97 3d e2 13 d6 3d bf 1f 27 bd
       0.04207292 0.07385131 0.10453011 -0.04080176
000310 8f bf 39 3e 00 98 83 3e 5e 4a 9a 3e f7 df 24 bb
       0.1813948 0.25701904 0.30134863 -0.0025157908
000320 7c 1b 78 3e 46 51 a4 3c 65 e0 0c 3d ed ef 1c 3d
       0.24229234 0.020058285 0.034393687 0.03831475
000330 57 90 2b 3e 2e 03 74 ba 66 72 9f 3e 75 54 c3 3e
       0.1675428 -0.0009308335 0.31141967 0.38150373
000340 22 6b 69 3d af c1 8a 3e 6c 9e f8 3d de 21 74 3e
       0.056986935 0.27100894 0.121395916 0.23841044
000350 0d 71 80 3d 7a 67 85 3d 67 75 c7 3d 2b 85 a9 3e
       0.06271563 0.06513877 0.097391896 0.33109412
000360 99 ca 88 3e 67 e1 03 3e 5f e2 be bc 8c cc 6d 3e
       0.2671707 0.12878953 -0.023301302 0.2322256
000370 df 86 20 bd 38 94 80 be db a8 05 3e 2c f9 b9 3e
       -0.039191123 -0.25113082 0.13052694 0.36322916
000380 29 59 74 3e ec 9a 9f 3e 92 b0 ae 3d df fe f6 3d
       0.23862137 0.31172884 0.08529772 0.120603316
000390 45 c3 c6 3d ce 0d 1b bd 1b b1 b1 3d e0 b5 6f 3e
       0.097052135 -0.037854962 0.08676358 0.23409224
0003a0 10 65 ab 3e 7c 79 27 3e 88 bd 01 3e 06 4f 7a 3e
       0.33475542 0.16354936 0.12669957 0.24444208
0003b0 5b 59 c3 3e 8c 3d 11 3e b8 76 9e 3d 1f ac 27 3e
       0.3815411 0.14183635 0.077374876 0.16374253
0003c0 aa a1 db 3d c6 28 09 3e ad 87 fc bb 17 d5 59 3d
       0.10724194 0.1339446 -0.0077066035 0.053181734
0003d0 68 33 26 3e bd 9d 7b 3e 24 35 82 3e 98 10 13 3e
       0.16230547 0.24571891 0.25431168 0.14361799
0003e0 05 98 ee bd 91 89 30 bc 12 0d 8c 3d 39 1a 78 3e
       -0.11650089 -0.010774986 0.068384305 0.24228753
0003f0 96 7d d0 3e cb d9 d6 3d 0e 32 9b 3e ed 57 84 3e
       0.40720814 0.104907595 0.30311626 0.25848332
