good_weights/kaggle.ckpt (torch_old, 357081 bytes, 14 tensors)

lstm.weight_ih_l0 f4 [256, 12]
-0.014995822 -0.009584528 0.1383582 0.21307054 -0.048111625 -0.22927155 0.056234296 -0.20175388
-0.2683984 0.05849175 0.29150155 -0.17860997 0.18769842 -0.21264789 -0.11183103 0.023250205
0.19949333 -0.009309393 0.112095095 0.08678271 0.33820233 -0.020236399 0.027297901 0.14620207
-0.08906882 -0.30397266 -0.17225698 -0.054297373 -0.026138434 -0.087394536 0.07347461 -0.032970224
-0.40616438 -0.41235718 -0.06425022 -0.11964016 -0.025813557 0.34899598 -0.026993234 0.11987037
-0.11386924 0.080378875 -0.4538042 -0.27096888 -0.18504702 -0.22681114 0.05447642 0.14584528
0.03162235 0.025860535 -0.17191102 0.34867436 0.019627796 -0.25962943 0.020045253 0.1627874
-0.17126508 0.037955724 0.14579225 -0.1172181 0.1850709 -0.13282044 -0.21144502 0.28644976
-0.092298105 -0.1496139 0.016366757 0.18468165 -0.3768518 -0.12888074 -0.13239823 -0.047220778
-0.010972969 0.101529606 0.2776809 0.080100246 -0.0046380344 -0.18966478 -0.41710523 -0.20068797
-0.04590485 0.12618996 0.23298265 0.09100209 -0.031373024 0.32738656 -0.06659036 0.17543082
-0.2903301 -0.05511114 -0.4239789 0.016629059 -0.19729975 -0.06480338 0.08061387 -0.037740182
-0.063068815 0.30357286 -0.32399684 0.08550488 0.18793808 -0.11752891 -0.26708433 0.11954879
0.2767101 -0.029463682 -0.20398442 0.027386783 -0.3849889 0.1273375 0.01132711 0.3170915
-0.13819842 0.07633645 -0.09699118 -0.012898516 0.30589032 0.20387408 0.14580722 0.1414746
-0.032371186 -0.63727605 0.060189918 -0.081096195 -0.04313574 0.31149682 -0.25205386 -0.16402073
-0.15468593 0.17703746 0.013029859 -0.013003318 -0.0070156874 -0.033130046 0.09704176 0.01897449
-0.35319024 0.61545366 -0.4913163 0.046953004 0.29907516 -0.3342423 -0.034728006 0.10559009
-0.10526324 0.3879237 0.048803024 0.15395844 0.066195935 -0.057225388 0.173511 -0.0884728
-0.12160422 0.13041295 0.15933298 0.09600109 -0.08434414 0.0036971597 0.18716203 0.35998058
0.30043787 0.4017514 -0.2107995 0.14980434 -0.17999972 0.11475171 -0.14997211 -0.3996076
-0.020534974 0.11820347 -0.09407314 -0.19032766 -0.68449473 -0.3858984 -0.019291174 0.019958895
0.033610363 0.08215143 0.1339598 0.023137808 0.064086325 -0.014967085 0.16208129 -0.17584495
-0.28125533 0.29251406 0.15877894 -0.34473887 0.17366272 0.14828257 -0.01659029 0.072463445
0.019296814 0.5631201 0.23812543 0.09912458 0.25569946 -0.008054556 0.02008321 -0.22732271
-0.4934357 -0.40420333 -0.19368938 -0.37882546 -0.06482232 0.26031616 -0.10786086 0.004374481
-0.13824254 -0.2309635 -0.32755217 0.047797363 0.14695838 0.093191564 0.047438707 0.05614984
-0.013456884 0.04931448 -0.46409944 -0.14199713 -0.2665592 0.21521313 0.27560326 -0.05116659
-0.105391994 -0.090431206 0.19538711 0.40235654 -0.17629866 0.19715275 0.111630216 -0.081749216
-0.15316737 -0.3791101 -0.37331304 -0.2394427 -0.2800642 -0.2815194 -0.018533358 -0.15128225
-0.020449128 -0.074519515 0.33946168 -0.27232066 0.1939352 0.4085047 0.3225797 0.17473798
0.32368878 0.13537766 0.30735144 0.1467387 -0.04348113 0.26378664 0.35720378 0.28419796
00000000: 09b1 75bc 6d08 1dbc c6ad 0d3e 2a2f 5a3e
00000010: b210 45bd 29c6 6abe ef55 663d 9298 4ebe
00000020: 846b 89be 0c95 6f3d b13f 953e 88e5 36be
00000030: 0434 403e 5ec0 59be ab07 e5bd 3777 be3c
00000040: fb47 4c3e 6d86 18bc 1d92 e53d 22bb b13d
00000050: db28 ad3e cec6 a5bc d99f df3c ffb5 153e
00000060: b769 b6bd 4ea2 9bbe 2264 30be ec66 5ebd
00000070: 4520 d6bc e8fb b2bd db79 963d c90b 07bd
00000080: c7f4 cfbe 7b20 d3be 9f95 83bd e605 f5bd
00000090: f476 d3bc 9aaf b23e ea20 ddbc 997e f53d
000000a0: 4734 e9bd ae9d a43d 0659 e8be 6fbc 8abe
000000b0: f77c 3dbe 2e41 68be ab22 5f3d 7758 153e
000000c0: 7086 013d 79d9 d33c 7109 30be 7285 b23e
000000d0: 79ca a03c 26ee 84be f135 a43c bdb1 263e
000000e0: 1d60 2fbe 7677 1b3d 904a 153e 0b10 f0bd
000000f0: 3a83 3d3e 1502 08be 0b85 58be 8ba9 923e
00000100: ca06 bdbd 6334 19be 9413 863c 301d 3d3e
00000110: b8f2 c0be 50f9 03be 6793 07be 936a 41bd
00000120: f8c7 33bc c1ee cf3d 312c 8e3e 990b a43d
00000130: a7fa 97bb 7c37 42be d18e d5be 2681 4dbe
00000140: b906 3cbd f137 013e 0193 6e3e 4e5f ba3d
00000150: 0081 00bd 369f a73e 8760 88bd 23a4 333e
00000160: 26a6 94be 38bc 61bd c313 d9be aa39 883c
00000170: f208 4abe a2b7 84bd e218 a53d 7395 1abd
00000180: 392a 81bd e76d 9b3e eae2 a5be 2f1d af3d
00000190: d772 403e ffb2 f0bd 47bf 88be ffd5 f43d
000001a0: f2ac 8d3e d25d f1bc 4be1 50be 3f5a e03c
000001b0: 441d c5be c364 023e 5895 393c d159 a23e
000001c0: e383 0dbe 4956 9c3d 50a3 c6bd 4c54 53bc
000001d0: a89d 9c3e 5ec4 503e 7d4e 153e b8de 103e
000001e0: a697 04bd 8624 23bf b489 763d c315 a6bd
000001f0: 1aaf 30bd 837c 9f3e 340d 81be 0df5 27be
00000200: fd65 1ebe 4f49 353e 317b 553c de0b 55bc
00000210: dae3 e5bb 5fb3 07bd d5bd c63d 6470 9b3c
00000220: 5ad5 b4be 5f8e 1d3f cf8d fbbe cb51 403d
00000230: 6120 993e cf21 abbe f43e 0ebd 9e3f d83d
00000240: 4194 d7bd ef9d c63e aee5 473d 48a7 1d3e
00000250: bc91 873d 2b65 6abd deac 313e 3a31 b5bd
00000260: a20b f9bd f98a 053e 2f28 233e 389c c43d
00000270: 9fbc acbd 0c4c 723b 67a7 3f3e 604f b83e
00000280: fed2 993e 5cb2 cd3e d3db 57be 4f66 193e
00000290: d951 38be f202 eb3d 4a92 19be 5e99 ccbe
000002a0: f638 a8bc a914 f23d 6ba9 c0bd 41e5 42be
000002b0: 0c3b 2fbf 7a94 c5be 8608 9ebc d680 a33c
000002c0: 05ab 093d 023f a83d c22c 093e 808b bd3c
000002d0: b13f 833d 8138 75bc a3f8 253e b310 34be
000002e0: b300 90be 67c4 953e f296 223e 9d81 b0be
000002f0: a4d4 313e 63d7 173e 5ce8 87bc b767 943d
00000300: 5a14 9e3c a428 103f 27d7 733e d401 cb3d
00000310: 0aeb 823e 42f7 03bc 8b85 a43c 49c7 68be
00000320: 9ba3 fcbe bdf3 cebe 8256 46be 69f5 c1be
00000330: 91c1 84bd 2948 853e 28e6 dcbd ce57 8f3b
00000340: 748f 0dbe b281 6cbe ebb4 a7be 2bc7 433d
00000350: 427c 163e 38db be3d 174f 423d 60fd 653d
00000360: 437a 5cbc fbfd 493d 719e edbe b267 11be
00000370: 737a 88be d560 5c3e df1b 8d3e 0f94 51bd
00000380: c2d7 d7bd ff33 b9bd 8f13 483e ad01 ce3e
00000390: a387 34be 69e2 493e 629e e43d 226c a7bd
000003a0: e8d7 1cbe b81a c2be e322 bfbe 7830 75be
000003b0: 9364 8fbe 5023 90be 45d3 97bc bce9 1abe
000003c0: ee84 a7bc b09d 98bd eccd ad3e 9d6d 8bbe
000003d0: f396 463e 8727 d13e 2b29 a53e 83ee 323e
000003e0: 89ba a53e 71a0 0a3e 2b5d 9d3e ab42 163e
000003f0: 4519 32bd 0b0f 873e 6ae3 b63e 6582 913e

lstm.weight_hh_l0 f4 [256, 64]
1.7236853 -0.02222756 -0.17633004 -0.42292148 0.07093391 0.07278371 -0.32709363 -0.65871227
-0.44604295 1.015437 -0.22866368 0.21910691 0.374764 0.7427777 -0.053249806 -0.026514834
0.1265152 0.3530624 -0.09482763 -0.13866343 0.22359236 -0.2981265 0.495471 0.388663
-0.35925835 0.16978702 -0.56593245 -0.1685813 0.9444717 -0.1864085 -0.17563556 0.244496
-0.28191832 0.07988109 0.38195896 -0.46426398 0.25830323 0.10955931 0.11510249 0.14150147
0.20717742 0.26291755 0.7993834 0.12470956 -0.49483192 -0.0354515 -0.2734354 -0.0045136125
-0.4650308 -0.55881536 0.61229604 -0.31208354 -0.50830984 -0.06323667 0.17096612 -0.73872435
0.21098614 0.61301005 -0.5060464 -0.1005062 0.06887907 -0.5392772 -0.66273594 0.24509418
-0.0723071 -0.4407978 -0.4209375 -0.16031587 0.5624916 -0.02928214 0.030758133 0.2312832
0.038223412 0.1154751 0.014559469 0.2507185 -0.2744205 0.2780438 0.36011553 -0.32743415
0.021868708 0.2813078 -0.02762069 -0.03587862 -0.11514044 0.19781159 0.32821164 -0.012883816
-0.20270348 -0.52001506 -0.5328365 0.30319428 0.18243426 0.09281332 0.15714495 -0.06625449
-0.15414411 0.001965752 -0.0937938 -0.33420128 0.50098544 0.22175914 -0.3171819 -0.20116065
0.3172131 -0.17657377 0.09047029 -0.32069853 0.1460437 0.15239021 0.01123356 -0.092999734
-0.072211385 0.1393856 0.07871689 0.5343286 -0.21841563 0.4397581 -0.021830386 -0.32103002
-0.30461 0.11325414 -0.28039557 0.11878725 -0.3582304 0.053730838 0.15136538 -0.12228961
0.18364097 -0.062011167 -0.41095474 0.1885845 -0.10360491 -0.20107295 0.283912 -0.18595996
-0.43270665 -0.13880523 0.04598364 0.03306264 -0.027133556 0.04223795 0.044531282 -0.07589424
0.3549362 0.27864248 0.09564091 0.238415 0.13746648 0.10253876 -0.03337878 -0.07596479
-0.22645706 0.1789272 -0.025079988 -0.1709145 -0.17011876 0.07543126 0.1638096 0.030858109
0.20995982 -0.0691542 0.015244242 -0.13022943 -0.5130211 -0.37584296 0.3110883 0.29814556
0.016716076 0.34949303 0.32242087 -0.38839254 0.28553012 -0.30139914 0.10192431 -0.18737042
-0.29584518 -0.31695545 0.26362592 0.019870678 -0.1877185 -0.17408483 0.20798756 0.040881123
0.2524805 0.02117936 -0.06636797 0.1298586 -0.013957285 0.014918286 0.021327073 -0.00936095
-0.13111506 -0.28889897 -0.17899942 0.59604883 -0.26387724 0.15818195 -0.230776 0.25022224
0.048547436 -0.1126378 -0.32587266 0.3210902 -0.19054829 0.086522 -0.2454634 0.049332146
0.5003269 -0.032588717 0.0018047456 0.23912644 -0.026628679 0.1657307 -0.11650657 -0.16853298
0.16296312 0.21634649 0.07694865 -0.055297848 0.01461329 -0.18610185 0.20101139 -0.21893375
-0.17475922 0.2143037 0.19367899 0.1170551 0.43022215 -0.28165504 0.10203073 0.27917042
-0.12193348 -0.13264276 -0.06677208 -0.19868608 -0.12420468 -0.11366929 -0.035832 -0.35218886
0.17471758 0.014739197 0.037441127 -0.19790493 -0.03767304 -0.07536791 -0.042846356 0.14722593
0.036652267 0.06236278 0.11845052 -0.05672401 -0.12975398 0.2593617 0.030283775 -0.09759261
00000000: b8a1 dc3f 9216 b6bc dd8f 34be 2a89 d8be
00000010: cc45 913d a00f 953d d178 a7be 5ea1 28bf
00000020: be5f e4be d7f9 813f d026 6abe 905d 603e
00000030: 11e1 bf3e ae26 3e3f 781c 5abd a335 d9bc
00000040: 338d 013e 98c4 b43e fd34 c2bd c9fd 0dbe
00000050: 65f5 643e 09a4 98be 60ae fd3e d6fe c63e
00000060: b6f0 b7be a6dc 2d3e f3e0 10bf 94a0 2cbe
00000070: e6c8 713f dfe1 3ebe cfd9 33be 295d 7a3e
00000080: 9957 90be b298 a33d 2090 c33e 02b4 edbe
00000090: 5240 843e a260 e03d dbba eb3d c3e5 103e
000000a0: 5126 543e 219d 863e 64a4 4c3f ba67 ff3d
000000b0: 9c5a fdbe 9835 11bd baff 8bbe ede6 93bb
000000c0: 8418 eebe 860e 0fbf 6fbf 1c3f 6ac9 9fbe
000000d0: 9820 02bf 3a82 81bd be11 2f3e 0a1d 3dbf
000000e0: c00c 583e 3aee 1c3f 428c 01bf 32d6 cdbd
000000f0: 7810 8d3d 120e 0abf 10a9 29bf f8f9 7a3e
00000100: bf15 94bd 40b0 e1be 1f85 d7be d829 24be
00000110: 73ff 0f3f 19e1 efbc 7bf8 fb3c 81d5 6c3e
00000120: 2790 1c3d 367e ec3d d78a 6e3c 2d5e 803e
00000130: d880 8cbe c25b 8e3e 1061 b83e 73a5 a7be
00000140: 0126 b33c 9307 903e c944 e2bc 76f5 12bd
00000150: c0ce ebbd 1f8f 4a3e 5b0b a83e a416 53bc
00000160: 8091 4fbe b51f 05bf f967 08bf 483c 9b3e
00000170: 0cd0 3a3e e914 be3d 9bea 203e 6fb0 87bd
00000180: f4d7 1dbe d9d3 003b f716 c0bd 6e1c abbe
00000190: 9540 003f d414 633e aa65 a2be 0ffd 4dbe
000001a0: c169 a23e c1cf 34be 7d48 b93d 9932 a4be
000001b0: 7b8c 153e 2e0c 1c3e f70c 383c a576 bebd
000001c0: 90e3 93bd 19bb 0e3e 5236 a13d c2c9 083f
000001d0: 59a8 5fbe f927 e13e a3d5 b2bc 0c5e a4be
000001e0: d8f5 9bbe c9f1 e73d 0290 8fbe bb46 f33d
000001f0: fa69 b7be de14 5c3d 87ff 1a3e fa72 fabd
00000200: 610c 3c3e 6cff 7dbd a968 d2be 4c1c 413e
00000210: d02e d4bd 11e6 4dbe ea5c 913e 4a6c 3ebe
00000220: ba8b ddbe f522 0ebe 5759 3c3d b16c 073d
00000230: 3147 debc b301 2d3d 6f66 363d 706e 9bbd
00000240: 33ba b53e 3aaa 8e3e 62df c33d 1023 743e
00000250: 03c4 0c3e d7ff d13d 30b8 08bd 6e93 9bbd
00000260: 5ce4 67be b138 373e 8c74 cdbc 3604 2fbe
00000270: 9d33 2ebe b47b 9a3d b4bd 273e 25ca fc3c
00000280: b5ff 563e b8a0 8dbd fcc2 793c dd5a 05be
00000290: 5a55 03bf 7d6e c0be f746 9f3e 89a6 983e
000002a0: 27f0 883c c0f0 b23e 5914 a53e 63db c6be
000002b0: 0131 923e fd50 9abe b1bd d03d 08de 3fbe
000002c0: 0579 97be fc47 a2be faf9 863e d5c7 a23c
000002d0: 4739 40be 4b43 32be b1fa 543e f772 273d
000002e0: 2045 813e 5680 ad3c eeeb 87bd a7f9 043e
000002f0: 19ad 64bc d46b 743c 1db6 ae3c ac5e 19bc
00000300: 0743 06be 91ea 93be a04b 37be a896 183f
00000310: eb1a 87be 73fa 213e 8b50 6cbe 211d 803e
00000320: add9 463d a6ae e6bd c8d8 a6be ef65 a43e
00000330: 171f 43be 7232 b13d c25a 7bbe 8110 4a3d
00000340: 6c15 003f bf7b 05bd 378d ec3a 90dd 743e
00000350: 6324 dabc 4fb5 293e ff9a eebd e993 2cbe
00000360: cedf 263e ef89 5d3e 4197 9d3d ff7f 62bd
00000370: 956c 6f3c 7c91 3ebe eed5 4d3e 2b30 60be
00000380: 15f4 32be 6e72 5b3e c953 463e 96ba ef3d
00000390: 1446 dc3e 1735 90be 7df5 d03d 6def 8e3e
000003a0: 43b8 f9bd 81d3 07be cdbf 88bd 5d74 4bbe
000003b0: 065f febd 72cb e8bd 93c4 12bd 1952 b4be
000003c0: 2ae9 323e ac7c 713c de5b 193d 97a7 4abe
000003d0: 0c4f 1abd 7e5a 9abd a97f 2fbd 65c2 163e
000003e0: b020 163d 1d70 7f3d 3096 f23d 6f57 68bd
000003f0: 3ade 04be 0fcb 843e ae15 f83c a2de c7bd

lstm.bias_ih_l0 f4 [256]
-0.5998825 -0.43493927 0.22211675 0.19002077 0.5268338 -0.10585085 -0.402107 0.24226491
0.21477191 0.14316769 0.336156 0.19176482 -0.015391377 0.7517909 -0.24701266 -0.032503556
-0.11603363 0.6106153 -0.49628803 -0.17489241 0.4341261 -0.18419725 -0.14438234 -0.43793672
-0.3423301 0.21864203 -0.4413753 0.2921201 -0.6196472 -0.10988118 0.4205188 -0.3182007
-0.031598125 0.3739242 0.07961509 -0.26256773 0.22817774 0.1786228 -0.36012182 0.22571869
-0.18913522 -0.01048667 -0.10972727 -0.0709309 -0.0936042 -0.42516008 -0.41932094 0.32453144
0.13215476 0.04641948 0.09608174 -0.13175212 0.62305534 -0.15178992 0.07219193 0.08903463
0.18012366 -0.08946268 0.21720341 -0.24391901 -0.08416446 0.5116841 0.35078898 -0.27760842
-0.1513188 0.122060485 0.39580387 -0.015774075 -0.6240295 -0.16204122 -0.8094361 0.3530443
-0.1002103 -0.06361556 0.010031636 -0.5100569 0.028751455 0.38680932 -0.444653 0.33628783
0.5647126 0.5921772 0.02039017 -0.03265863 -0.47256538 -0.08078803 -0.48813388 -0.39439738
0.3607252 -0.1761228 -0.29777062 0.0023060918 0.20714867 0.11467263 -0.30030322 0.17818858
0.13601224 0.15782095 0.12531039 -1.0860155 -0.16853812 -0.37534592 0.36837998 -0.31276548
-0.38661212 -0.39009917 0.040423103 -0.49311206 -0.49354848 0.19575842 -0.55950534 -0.29269347
0.12669274 -0.3351455 -0.56169343 -0.53400475 -0.5646442 -0.21633452 -0.37054884 0.03004334
-0.3493364 -0.0009030763 0.5366696 -0.42566964 -0.3233532 -0.12724784 0.28231156 -0.116347834
0.32126236 0.18793428 0.39062503 0.13066041 -0.15764512 -0.071904026 0.33488476 0.69614923
-0.41422862 -0.6422546 0.67458487 -0.34107977 -0.23404396 -0.99673706 -0.3234349 0.53387636
-0.48609948 1.0663629 -0.00481354 0.36436167 -0.5544153 0.042945266 -0.329395 -0.8363602
0.4997441 -0.07035712 0.04332815 0.38019174 -0.54077166 -0.38319305 0.26806378 0.27172464
0.5694025 0.6014623 -0.63661486 0.0059545957 -0.5292343 -0.28224352 0.31743976 -0.5830856
-0.28607154 0.6407254 -0.06299963 0.0665656 -0.20920146 0.16428329 0.51578724 0.9727452
0.60446554 -0.3622967 0.3242841 -0.23306273 0.4743862 -0.4927173 0.22136365 0.116313845
-0.22707768 -0.38105658 0.6238206 0.23185927 0.51110333 -0.02862544 0.41598386 0.6372678
-0.31898692 -0.3718735 0.18752486 -0.42156267 -0.37841883 -0.33846465 0.04322563 0.95220107
-0.14748633 0.4198942 0.20561598 -0.08680255 0.5559138 -0.15103696 -0.43902284 0.32929116
-0.29621515 0.4081616 -0.035543133 -0.85953796 0.043456018 -0.57581156 -0.5223226 0.5100655
0.7471363 -0.59165835 0.36996004 0.054120872 0.44241294 0.05122323 0.12216774 -0.58591104
0.2659652 0.19383356 -0.5326098 0.15597813 -0.2843525 -0.15607987 0.022090832 -0.11831959
-0.607731 0.16061737 -0.31176782 -0.05092604 0.20518835 0.2039617 0.103509225 0.5501478
-0.46006206 -0.33297712 -0.44670686 -0.25629482 -0.11787666 -0.27445954 -0.044292565 -0.3433895
-0.15183905 0.2686878 0.3681822 -0.23757516 -0.17753376 0.11840032 -0.4051654 -0.25751662
00000000: e691 19bf 5cb0 debe 9372 633e ce94 423e
00000010: 94de 063f 55c8 d8bd f8e0 cdbe 4b14 783e
00000020: 2bed 5b3e 8d9a 123e a41c ac3e ff5d 443e
00000030: 1d2c 7cbc 5e75 403f e3f0 7cbe 7322 05bd
00000040: 0aa3 edbd 4951 1c3f 7719 febe ff16 33be
00000050: c745 de3e 349e 3cbe f7d8 13be 3e39 e0be
00000060: e445 afbe b2e3 5f3e f1fb e1be c490 953e
00000070: 33a1 1ebf 6209 e1bd 3d4e d73e 34eb a2be
00000080: 096d 01bd fe72 bf3e 3c0d a33d 476f 86be
00000090: 6da7 693e e5e8 363e e361 b8be cd22 673e
000000a0: aaac 41be 48d0 2bbc b1b8 e0bd 3844 91bd
000000b0: 8fb3 bfbd 95ae d9be 3cb1 d6be fc28 a63e
000000c0: 9453 073e 5a22 3e3d 81c6 c43d 07ea 06be
000000d0: 8e80 1f3f d16e 1bbe 5dd9 933d ca57 b63d
000000e0: 5672 383e 3638 b7bd 926a 5e3e e8c5 79be
000000f0: 6b5e acbd bbfd 023f 9d9a b33e b122 8ebe
00000100: 51f3 1abe d9fa f93d cea6 ca3e a238 81bc
00000110: 66c0 1fbf 22ee 25be 3437 4fbf 39c2 b43e
00000120: 0f3b cdbd e048 82bd bb5b 243c 1793 02bf
00000130: 2c88 eb3c df0b c63e 8fa9 e3be eb2d ac3e
00000140: 0191 103f ed98 173f 4909 a73c 0ec5 05bd
00000150: 17f4 f1be 3274 a5bd afec f9be 74ee c9be
00000160: f9b0 b83e 8959 34be 6475 98be cd21 173b
00000170: c81e 543e 7cd9 ea3d 58c1 99be 1177 363e
00000180: cb46 0b3e d19b 213e 5e51 003e 8e02 8bbf
00000190: 4295 2cbe 572d c0be 4d9c bc3e cc22 a0be
000001a0: 06f2 c5be 14bb c7be b292 253d 2f79 fcbe
000001b0: 63b2 fcbe e574 483e be3b 0fbf ebdb 95be
000001c0: bebb 013e 3198 abbe 24cb 0fbf 89b4 08bf
000001d0: 868c 10bf cc86 5dbe 94b8 bdbe 731d f63c
000001e0: 38dc b2be 6dbc 6cba 2e63 093f 5ff1 d9be
000001f0: 8d8e a5be 424d 02be 248b 903e c647 eebd
00000200: 807c a43e d871 403e 0100 c83e d8cb 053e
00000210: b96d 21be 6b42 93bd 0476 ab3e d636 323f
00000220: c615 d4be cc6a 24bf 98b1 2c3f 02a2 aebe
00000230: 38a9 6fbe 292a 7fbf 4299 a5be 1fac 083f
00000240: 08e2 f8be 947e 883f e6ba 9dbb 9d8d ba3e
00000250: 29ee 0dbf 60e7 2f3d 76a6 a8be b41b 56bf
00000260: 75de ff3e 6517 90bd dc78 313d 7ea8 c23e
00000270: 0370 0abf e131 c4be a83f 893e 7e1f 8b3e
00000280: 5dc4 113f 6ff9 193f 31f9 22bf c51e c33b
00000290: e67b 07bf 3982 90be 7787 a23e 1945 15bf
000002a0: f877 92be 9406 243f f305 81bd 8c53 883d
000002b0: e838 56be e139 283e a20a 043f d405 793f
000002c0: 41be 1a3f f47e b9be 9108 a63e ffa7 6ebe
000002d0: bfe2 f23e 7145 fcbe 27ad 623e f435 ee3d
000002e0: 0d87 68be d919 c3be b5b2 1f3f 846c 6d3e
000002f0: abd7 023f e67f eabc d6fb d43e fc23 233f
00000300: 4152 a3be 3466 bebe 8406 403e 10d7 d7be
00000310: 1dc0 c1be 3d4b adbe 5c0d 313d 73c3 733f
00000320: a806 17be 5ffc d63e ff8c 523e 89c5 b1bd
00000330: 5e50 0e3f 6fa9 1abe 9ac7 e0be da98 a83e
00000340: 83a9 97be 8ffa d03e ad95 11bd ae0a 5cbf
00000350: f0fe 313d 6368 13bf efb6 05bf a793 023f
00000360: 5344 3f3f ec76 17bf 676b bd3e d9ad 5d3d
00000370: f383 e23e 73cf 513d 1433 fa3d 44fe 15bf
00000380: 972c 883e 4e7c 463e 1e59 08bf bbb8 1f3e
00000390: a796 91be 67d3 1fbe d5f7 b43c 8b51 f2bd
000003a0: 4294 1bbf e178 243e 08a0 9fbe d397 50bd
000003b0: e51c 523e 56db 503e a5fc d33d 7cd6 0c3f
000003c0: 418d ebbe fa7b aabe c3b6 e4be 1339 83be
000003d0: 5169 f1bd f685 8cbe 1f6c 35bd c0d0 afbe
000003e0: b27b 1bbe 7391 893e 6182 bc3e e746 73be
000003f0: 69cb 35be de7b f23d d771 cfbe 38d9 83be

lstm.bias_hh_l0 f4 [256]
-0.6241092 -0.2981511 0.18167557 0.09974673 0.61666036 -0.0727751 -0.42224142 0.36098376
0.023215128 0.2547203 0.43751356 0.057182834 0.10839497 0.74974597 -0.23125994 -0.0237355
-0.10145024 0.44275016 -0.4878035 -0.26438293 0.4819334 -0.19451648 -0.14162827 -0.42853716
-0.28747126 0.13635646 -0.55093277 0.35102853 -0.629471 -0.09249511 0.40001553 -0.22933678
-0.23502877 0.3402403 0.041691467 -0.27987212 0.34125632 0.030951757 -0.1713731 0.43766618
-0.33874527 0.16173565 -0.15409657 -0.120462075 -0.21574993 -0.3561976 -0.3635155 0.36904058
0.25946042 -0.042089757 -0.05601777 -0.1716006 0.72176766 -0.05943531 -0.08456402 0.028924806
0.01850886 -0.20669405 0.070011884 -0.2398148 -0.08559734 0.3388252 0.25263673 -0.3425626
-0.3674057 0.11730385 0.39897937 0.021370294 -0.7208245 -0.1594321 -0.86888367 0.4318501
0.09577903 -0.0077122273 0.123359814 -0.42637408 -0.005705087 0.3586764 -0.4292324 0.5074934
0.5987222 0.4059688 0.0021201868 0.00082610076 -0.3827627 -0.21484496 -0.45912746 -0.34357196
0.16516665 -0.1888151 -0.32225814 0.012273098 0.23397198 0.2059022 -0.23982291 0.08115629
0.09864023 0.15941621 0.06741571 -1.0625076 -0.12866218 -0.31577593 0.37046644 -0.3344114
-0.53661156 -0.3822746 -0.07156342 -0.5622705 -0.47880134 0.052931458 -0.74396014 -0.066634096
0.31299272 -0.56745094 -0.5441805 -0.6933414 -0.55835646 -0.27270988 -0.22530493 0.15278779
-0.28449407 0.16740192 0.484107 -0.36780143 -0.32945585 -0.2305711 0.19361675 -0.032057226
0.3483841 0.14195077 0.28152138 0.113309145 -0.124004856 0.065737985 0.25486523 0.62591046
-0.24822295 -0.7872069 0.86726683 -0.3875413 -0.45727786 -1.0414218 -0.33383718 0.40432063
-0.5119325 1.0688684 0.024432348 0.33856454 -0.6432756 0.15709199 -0.5114595 -0.72508466
0.6098472 0.034681775 -0.035779703 0.28780246 -0.6649856 -0.1570058 0.20510963 0.08074122
0.59227556 0.8240927 -0.4988602 0.18034522 -0.47681716 -0.29083693 0.37537226 -0.39330214
-0.27404687 0.5814813 0.09337156 0.08774395 0.0071799173 0.076234266 0.47144023 0.9327859
0.7974376 -0.5230582 0.38645354 -0.25965995 0.3828594 -0.35668412 0.13808672 0.16052641
-0.27048483 -0.5725807 0.73708403 0.24097541 0.59860855 0.05758528 0.50310576 0.58292806
-0.2640713 -0.4538125 0.38197857 -0.2667824 -0.22696528 -0.2886006 -0.093654886 0.8231464
-0.048408408 0.33225352 0.19076821 0.102247976 0.4684772 -0.12926325 -0.40743726 0.4554794
-0.2533159 0.39247066 -0.0073312344 -0.98604935 0.040947616 -0.7597312 -0.5942699 0.42045626
0.6684833 -0.5921176 0.29050452 0.07087587 0.38090557 0.106744565 0.18282169 -0.4532898
0.33453846 0.2640855 -0.46765167 0.25197393 -0.39404234 -0.16300222 0.017381698 -0.28948584
-0.3924502 0.18629691 -0.48941663 -0.15992785 0.19388911 0.28148437 0.22755925 0.5345652
-0.24396095 -0.34432366 -0.36718315 -0.32115754 0.0077134394 -0.21618441 -0.11757278 -0.17724782
-0.07256249 0.39084157 0.4373983 -0.23359942 -0.28061122 0.307926 -0.3263568 -0.16316244
00000000: 9fc5 1fbf 43a7 98be 2909 3a3e 0348 cc3d
00000010: 74dd 1d3f 1d0b 95bd 0730 d8be ddd2 b83e
00000020: a72d be3c b36a 823e c701 e03e 8c38 6a3d
00000030: 2ffe dd3d 5aef 3f3f 68cf 6cbe f470 c2bc
00000040: 25c5 cfbd 26b0 e23e 61c1 f9be 335d 87be
00000050: f9bf f63e 542f 47be 0007 11be 3969 dbbe
00000060: 6f2f 93be 07a1 0b3e ee09 0dbf 03ba b33e
00000070: 0325 21bf 146e bdbd d6ce cc3e 43d7 6abe
00000080: 62ab 70be fa33 ae3e acc4 2a3d 664b 8fbe
00000090: 26b9 ae3e 8a8e fd3c 6e7c 2fbe c815 e03e
000000a0: 0570 adbe 089e 253e 7ecb 1dbe d2b4 f6bd
000000b0: 8ded 5cbe 885f b6be b41e babe e3f2 bc3e
000000c0: ffd7 843e 4f66 2cbd e472 65bd 11b8 2fbe
000000d0: c4c5 383f 7172 73bd e72f adbd b7f3 ec3c
000000e0: e59f 973c 9ba7 53be 6462 8f3d 0392 75be
000000f0: a84d afbd 7f7a ad3e 9a59 813e 5d64 afbe
00000100: 9a1c bcbe 003d f03d 0647 cc3e c110 af3c
00000110: f487 38bf 2b42 23be 296f 5ebf 751b dd3e
00000120: cc27 c43d dab6 fcbb 12a4 fc3d b44d dabe
00000130: bdf1 babb 6fa4 b73e 59c4 dbbe 16eb 013f
00000140: dc45 193f 24db cf3e d5f2 0a3b af8e 583a
00000150: 79f9 c3be 5100 5cbe c112 ebbe aae8 afbe
00000160: 7221 293e bf58 41be 05ff a4be 1b15 493c
00000170: 5a96 6f3e 07d8 523e 2394 75be 4535 a63d
00000180: e403 ca3d 013e 233e 3f11 8a3d 4000 88bf
00000190: 05c0 03be 62ad a1be c7ad bd3e f937 abbe
000001a0: 605f 09bf 7fb9 c3be d88f 92bd f6f0 0fbf
000001b0: 7325 f5be a8ce 583d 2c74 3ebf 7577 88bd
000001c0: 9540 a03e 7744 11bf 6a4f 0bbf d27e 31bf
000001d0: 73f0 0ebf a1a0 8bbe 56b6 66be 6774 1c3e
000001e0: 35a9 91be 696b 2b3e dfdc f73e 7850 bcbe
000001f0: 70ae a8be d51a 6cbe 7843 463e 704e 03bd
00000200: 675f b23e 8b5b 113e 9223 903e a00e e83d
00000210: 42f6 fdbd a3a1 863d b27d 823e ab3b 203f
00000220: 282e 7ebe 6486 49bf 3305 5e3f d06b c6be
00000230: 5320 eabe 4f4d 85bf b5ec aabe 1d03 cf3e
00000240: 020e 03bf aed0 883f 5926 c83c 5558 ad3e
00000250: b6ad 24bf b9dc 203e 03ef 02bf 269f 39bf
00000260: f21e 1c3f 7a0e 0e3d bd8d 12bd d85a 933e
00000270: 7f3c 2abf 21c6 20be 4208 523e a75b a53d
00000280: 5f9f 173f bdf7 523f 9b6a ffbe 6bac 383e
00000290: 6121 f4be 94e8 94be cb30 c03e e65e c9be
000002a0: df4f 8cbe f5db 143f 9739 bf3d 1ab3 b33d
000002b0: 8345 eb3b b620 9c3d 9d60 f13e 0fcb 6e3f
000002c0: df24 4c3f 24e7 05bf 3ddd c53e 26f2 84be
000002d0: 2606 c43e 4d9f b6be 9b66 0d3e 0961 243e
000002e0: fd7c 8abe a694 12bf 8ab1 3c3f 42c2 763e
000002f0: 693e 193f 8bde 6b3d 8acb 003f c63a 153f
00000300: 5a34 87be 1d5a e8be b292 c33e b497 88be
00000310: 9669 68be 75c3 93be 22ce bfbd b9b9 523f
00000320: e547 46bd 221d aa3e be58 433e 6367 d13d
00000330: 3edc ef3e 965d 04be 9e9b d0be 9934 e93e
00000340: 9fb2 81be eaf1 c83e da3a f0bb bb6d 7cbf
00000350: b0b8 273d be7d 42bf 1222 18bf 0b46 d73e
00000360: b921 2b3f 0595 17bf 02bd 943e 5e27 913d
00000370: 0e06 c33e e59c da3d 9c35 3b3e 9a15 e8be
00000380: a048 ab3e 3736 873e 0a70 efbe ba02 813e
00000390: ebbf c9be 0eea 26be 1064 8e3c 7d37 94be
000003a0: 3cef c8be 9ec4 3e3e d194 fabe 20c4 23be
000003b0: de8a 463e b81e 903e 4b05 693e 44d9 083f
000003c0: e6d0 79be 314b b0be 6eff bbbe c36e a4be
000003d0: 05c1 fc3b 725f 5dbe ffc9 f0bd 7480 35be
000003e0: a59b 94bd 631c c83e acf2 df3e b034 6fbe
000003f0: 46ac 8fbe 7aa8 9d3e 3d18 a7be 0e14 27be

lstm.weight_ih_l1 f4 [256, 64]
-0.015087339 0.0159539 0.077389985 -0.25051242 0.20416811 0.1947064 -0.19573869 -0.123870485
0.33709145 0.013505269 -0.06714716 0.23010416 0.2139955 0.0015705336 -0.058634557 -0.26431054
-0.042010758 -0.47335795 0.19010879 -0.33273542 0.019642852 -0.15975389 -0.14184998 0.05484121
-0.07486318 0.07603546 -0.0036284262 0.068644546 -0.14278927 0.22091681 -0.016778393 0.073203094
-0.16129395 -0.33666652 -0.07129372 0.089901835 -0.11472207 0.21901576 -0.07117157 -0.17327945
-0.046767283 -0.037594166 -0.19147351 -0.023506608 0.109782964 -0.23741357 -0.2224896 -0.19639644
-0.078829706 0.02254799 -0.23357795 -0.0639394 -0.29058555 0.0069021354 -0.16993475 -0.005375257
0.061040163 -0.28002262 -0.29754588 0.2889019 -0.068156354 0.0056478237 -0.064512625 -0.08668475
-0.11835973 0.038315546 -0.17458576 -0.3289172 0.13655213 0.056567978 0.1648896 0.2830715
0.181875 -0.10349156 0.14637142 -0.07501555 -0.11257405 0.1882899 -0.59425634 0.17099468
-0.10841441 -0.25449032 -0.1636034 0.23612781 -0.19014964 0.12794517 0.05680015 0.17562753
-0.06083881 -0.06602691 0.20212366 0.0772404 -0.28196836 0.081698805 0.18467963 -0.12767504
-0.16735579 -0.27726156 -0.12574892 0.15198033 0.30512726 0.08678794 -0.0022741614 -0.2634446
-0.28613785 -0.3964781 0.06262151 -0.157186 -0.02023228 0.19542214 -0.38849646 0.20594503
-0.34239933 0.18481821 -0.1913626 -0.46371204 -0.4546896 -0.38960722 -0.23047252 0.010124044
0.16227743 -0.00010310342 -0.13177024 0.18584901 -0.48308372 0.2004348 -0.045526676 0.022864647
-0.07791882 0.02064476 -0.26272348 0.1697711 -0.019593047 0.09634637 0.11048275 -0.059095286
0.041714195 -0.17232175 -0.30069497 0.061059646 -0.03539675 0.0021661196 -0.38901788 0.21209598
0.0412537 -0.31397095 0.3828472 0.07475186 0.09120849 -0.05981182 -0.39491394 0.26846132
-0.15410593 0.2015106 -0.0895176 -0.22843507 0.19245456 -0.05124316 -0.2879348 0.19672832
0.22190097 0.12997143 0.5034942 0.2997185 0.30248734 0.15039466 -0.04307138 -0.18913262
-0.16620244 0.51504856 -0.08957152 0.1723449 0.1002289 -0.055503346 -0.033933677 -0.2553553
-0.08405974 -0.13960092 0.058050074 -0.07331972 0.32556972 -0.42323425 0.27277306 0.19913386
0.12975715 -0.0644227 0.16783717 -0.14295411 -0.64282024 -0.17218535 0.12954554 -0.29144496
0.118612185 -0.12926216 -0.08689709 0.31833673 0.027819423 -0.43684825 -0.032713108 0.2815859
-0.32088825 -0.19864923 -0.19608618 -0.51557577 -0.02841422 -0.13587493 0.020533351 0.11916138
-0.046908524 0.10075271 0.18202884 0.56739664 0.33230925 0.09871959 -0.24416631 0.28600496
0.014063478 0.27931222 0.06533758 0.1867663 -0.22891779 0.03830666 0.27057698 0.1865646
0.14922376 -0.068495184 -0.10466746 -0.14546011 -0.19643585 -0.013182098 0.12096026 -0.59879935
0.07006057 0.17283203 0.05991193 -0.4596274 -0.08654735 0.07305038 0.44301972 0.048141465
0.14049925 0.17795995 -0.046870183 0.24949872 -0.093789846 0.3158935 -0.005677692 0.17263614
0.32921013 0.47086203 -0.024038445 -0.80692834 0.034450643 0.09493063 -0.24423386 0.26269376
00000000: e330 77bc c1b1 823c a47e 9e3d 2a43 80be
00000010: 7211 513e 1d61 473e b96f 48be cfaf fdbd
00000020: 4097 ac3e 3445 5d3c 7384 89bd 6da0 6b3e
00000030: a321 5b3e 5dda cd3a ca2a 70bd b653 87be
00000040: 7913 2cbd f95b f2be e1ab 423e 4c5c aabe
00000050: 0cea a03c 8696 23be 1f41 11be 2da1 603d
00000060: de51 99bd 7bb8 9b3d e4ca 6dbb 8395 8c3d
00000070: 5a37 12be 0438 623e d772 89bc 81eb 953d
00000080: 3e2a 25be 8e5f acbe 7102 92bd 741e b83d
00000090: 68f3 eabd ab45 603e 66c2 91bd 2b70 31be
000000a0: 0d8f 3fbd 57fc 19bd a211 44be ee90 c0bc
000000b0: e4d5 e03d 8b1c 73be 50d4 63be 261c 49be
000000c0: 7871 a1bd 90b6 b83c 0f2f 6fbe a9f2 82bd
000000d0: a1c7 94be 4f2b e23b 6003 2ebe ed22 b0bb
000000e0: 4005 7a3d 205f 8fbe ef57 98be f3ea 933e
000000f0: 8f95 8bbd 6111 b93b 321f 84bd c687 b1bd
00000100: 9666 f2bd c3f0 1c3d 9cc6 32be d667 a8be
00000110: 52d4 0b3e d3b3 673d d2d8 283e bfee 903e
00000120: 713d 3a3e 62f3 d3bd 64e2 153e c1a1 99bd
00000130: 398d e6bd 11cf 403e 2f21 18bf 3b19 2f3e
00000140: 6008 debd 8e4c 82be a687 27be 7dcb 713e
00000150: 96b6 42be 0f04 033e 46a7 683d b4d7 333e
00000160: 1e32 79bd 1e39 87bd 81f9 4e3e 3730 9e3d
00000170: 285e 90be b451 a73d a81c 3d3e 3fbd 02be
00000180: 515f 2bbe 3af5 8dbe 53c4 00be bba0 1b3e
00000190: a439 9c3e e0bd b13d 190a 15bb 36e2 86be
000001a0: a980 92be 2dff cabe b53f 803d 5ef5 20be
000001b0: 2bbe a5bc be1c 483e 02e9 c6be 41e3 523e
000001c0: f74e afbe fc40 3d3e 8ff4 43be aa6b edbe
000001d0: 13cd e8be 997a c7be fd00 6cbe 51df 253c
000001e0: 0e2c 263e 3a39 d8b8 c7ee 06be 344f 3e3e
000001f0: c056 f7be c83e 4d3e 2e7a 3abd a44e bb3c
00000200: e793 9fbd 331f a93c b183 86be 7ad8 2d3e
00000210: 9981 a0bc 3f51 c53d c844 e23d e60d 72bd
00000220: 81dc 2a3d 1d75 30be b1f4 99be ae19 7a3d
00000230: 2ffc 10bd 75f5 0d3b 5a2d c7be b02f 593e
00000240: a4f9 283d cdc0 a0be 8c04 c43e 8117 993d
00000250: 84cb ba3d 3dfd 74bd 2932 cabe c373 893e
00000260: f2cd 1dbe cb58 4e3e 0155 b7bd e2ea 69be
00000270: cf12 453e 59e4 51bd 316c 93be 2673 493e
00000280: 023a 633e 3b17 053e ffe4 003f b474 993e
00000290: 9fdf 9a3e 0f01 1a3e 9e6b 30bd fbab 41be
000002a0: f930 2abe 39da 033f 4671 b7bd 2e7b 303e
000002b0: cf44 cd3d 7a57 63bd 0afe 0abd eebd 82be
000002c0: 8327 acbd 8bf3 0ebe eac5 6d3d a628 96bd
000002d0: 13b1 a63e 29b2 d8be e9a8 8b3e bfe9 4b3e
000002e0: 0fdf 043e 0cf0 83bd 82dd 2b3e 9062 12be
000002f0: de8f 24bf 5b51 30be 96a7 043e 4638 95be
00000300: f2ea f23d 4d5d 04be 1af7 b1bd 08fd a23e
00000310: 8fe5 e33c 93aa dfbe 2efe 05bd 072c 903e
00000320: 774b a4be b46a 4bbe d1ca 48be c6fc 03bf
00000330: f0c4 e8bc cc22 0bbe 8f35 a83c e20a f43d
00000340: 2723 40bd 7057 ce3d c565 3a3e e840 113f
00000350: 7024 aa3e 7f2d ca3d bc06 7abe 3e6f 923e
00000360: 816a 663c 0302 8f3e b6cf 853d aa3f 3f3e
00000370: 6d69 6abe 72e7 1c3d 1189 8a3e ca0a 3f3e
00000380: 1dce 183e 3447 8cbd e55b d6bd 7ff3 14be
00000390: 7b26 49be baf9 57bc 03ba f73d ea4a 19bf
000003a0: eb7b 8f3d e1fa 303e 3666 753d 4854 ebbe
000003b0: bd3f b1bd 709b 953d 7bd3 e23e fc2f 453d
000003c0: 09df 0f3e 223b 363e f3fa 3fbd 987c 7f3e
000003d0: e414 c0bd cbbc a13e ef0b babb 87c7 303e
000003e0: 3b8e a83e d414 f13e 46ec c4bc db92 4ebf
000003f0: 1e1c 0d3d fd6a c23d 7118 7abe cc7f 863e

lstm.weight_hh_l1 f4 [256, 64]
0.45006162 -0.30338812 0.2643492 -0.09736226 0.008817978 -0.14944142 -0.2023889 -0.1185115
0.108628355 -0.5648927 -0.1743539 0.11116295 0.23113321 0.13774724 0.15269046 0.27719256
0.0073959413 -0.07658017 -0.16814153 0.04014613 -0.80904007 -0.050119486 0.12029794 0.27707282
-0.034738246 -0.05832143 -0.12459696 -0.03428756 -0.38851678 -0.053161442 0.16694513 -0.052096374
-0.5007676 0.24897888 -0.07180213 -0.04084362 0.080692895 -0.09845515 0.2491649 -0.2802753
0.21880116 0.04711313 0.4786998 0.43215197 0.22182964 -0.44102016 0.08894493 0.0058494117
-0.5125923 -0.28733513 0.36771375 -0.23250192 0.40332448 -0.28408515 -0.19555591 -0.23337251
-0.47828075 -0.26743352 0.13499 -0.0047345194 -0.14320412 -0.05355133 -0.29913834 -0.46492854
0.106418945 0.19564806 0.43934605 -0.43601432 0.017152302 -0.078567475 0.0068394793 -0.050910816
-0.24135308 0.04651009 0.051988136 0.029442055 0.05127813 0.1553947 -0.2110546 -0.1115149
0.11479771 -0.13877083 -0.34503287 -0.01994397 -0.15399793 0.45757797 -0.34904423 0.024232615
-0.06625484 -0.3669027 -0.016656622 0.01870429 -0.37982145 0.23906599 0.31262922 -0.61133426
0.21645609 0.17553687 0.36230025 0.3724994 0.30483788 -0.34889308 0.41832715 0.23900896
-0.35908952 0.04442922 0.33509803 -0.12621816 0.2434563 -0.16677864 -0.19609389 -0.31334767
0.06372235 0.110611185 0.5447439 -0.93865067 0.532145 0.008315887 -0.04007848 0.032421913
-0.07918986 -0.008417354 0.2063025 -0.20329897 -0.020037616 -0.072328 0.4012447 0.1519679
-0.5055942 -0.1526222 -0.12143345 0.067056976 -0.21075459 0.058253005 -0.082710564 0.03417376
-0.12992816 -0.40124094 0.5774501 -0.071124114 -0.012732589 0.2701995 -0.35923463 -0.15838219
0.17951111 0.58757836 -0.43393174 -0.041373383 0.26580492 0.34208754 -0.11195368 0.30835348
0.21789002 -0.20180556 -0.16482647 0.3616186 0.37070048 -0.21751189 -0.03944643 -0.12315123
-0.35379717 0.1752742 0.033825148 9.473801e-05 -0.051014576 -0.1928245 -0.14070405 0.066141926
-0.03945971 0.0011878744 0.14769132 0.043120652 -0.056360625 0.34700504 0.15886126 -0.1598875
0.06915915 0.095275834 0.27385953 -0.18980211 0.23518364 0.11360248 0.23906821 -0.35291862
0.0010645051 0.20107771 0.1458435 -0.11394315 -0.22952382 -0.1259629 0.17089945 -0.23075992
-0.12617588 -0.075944446 0.19533776 0.08448233 -0.20042197 0.2463262 0.39364848 0.4289157
-0.527267 0.017013865 0.5687281 -0.088921495 -0.028932841 0.193403 0.042369757 -0.07630774
0.022014063 0.064368986 -0.42095068 0.432248 0.30894634 0.29843378 0.005093806 0.13130262
0.4055725 -0.22877717 0.044294644 0.028081447 0.31021905 0.008258442 -0.41685057 -0.21590383
-0.10057351 0.07939696 -0.2977955 0.15682575 -0.12940918 0.23081791 -0.4342957 0.6709931
0.5614804 -0.1546265 0.3102648 -0.04952725 -0.05127835 -0.04769758 0.0060482076 -0.16571644
-0.2307894 0.075942606 0.25344712 0.27220735 -0.061333798 0.09545544 0.35933787 0.15087943
0.27418038 0.4759278 0.36094505 -0.58079994 0.17043872 -0.39915374 0.27117386 -0.14717868
00000000: 7a6e e63e b055 9bbe c758 873e dd65 c7bd
00000010: 4879 103c 2c07 19be 093f 4fbe 28b6 f2bd
00000020: 8b78 de3d cf9c 10bf d489 32be 67a9 e33d
00000030: 2fae 6c3e 9d0d 0d3e e35a 1c3e 2fec 8d3e
00000040: a759 f23b 10d6 9cbd 4b2d 2cbe 4570 243d
00000050: 401d 4fbf 174a 4dbd c45e f63d 7ddc 8d3e
00000060: b149 0ebd 74e2 6ebd b12c ffbd 1d71 0cbd
00000070: aceb c6be d0bf 59bd aaf3 2a3e 0263 55bd
00000080: 4e32 00bf 52f4 7e3e ff0c 93bd a44b 27bd
00000090: 5142 a53d dba2 c9bd 1525 7f3e 3e80 8fbe
000000a0: 690d 603e b3f9 403d 2418 f53e 0643 dd3e
000000b0: 4f27 633e 65cd e1be c228 b63d 6cac bf3b
000000c0: 4039 03bf 971d 93be fa44 bc3e fc14 6ebe
000000d0: 8c80 ce3e 9c73 91be cf3f 48be 34f9 6ebe
000000e0: 37e1 f4be 0ced 88be d23a 0a3e 0724 9bbb
000000f0: 1aa4 12be a458 5bbd a928 99be 1d0b eebe
00000100: 2df2 d93d f757 483e f7f1 e03e 453d dfbe
00000110: fc82 8c3c fce7 a0bd b61d e03b dc87 50bd
00000120: 4325 77be 5d81 3e3d 83f1 543d 7730 f13c
00000130: 0409 523d ca1f 1f3e b21e 58be ed61 e4bd
00000140: 101b eb3d f119 0ebe 26a8 b0be 8961 a3bc
00000150: a2b1 1dbe a947 ea3e edb5 b2be 7a83 c63c
00000160: 9eb0 87bd acda bbbe 7873 88bc bd39 993c
00000170: f577 c2be b7cd 743e f010 a03e 6780 1cbf
00000180: aaa6 5d3e f0bf 333e 6b7f b93e 3eb8 be3e
00000190: b613 9c3e 1da2 b2be fa2e d63e c4be 743e
000001a0: 95da b7be 6afb 353d f891 ab3e 553f 01be
000001b0: 9c4c 793e 05c8 2abe d6cc 48be 1b6f a0be
000001c0: dd80 823d 1e88 e23d 5674 0b3f 694b 70bf
000001d0: a83a 083f 5c3f 083c 5529 24bd d7cc 043d
000001e0: 4b2e a2bd f1e8 09bc f640 533e 9b2d 50be
000001f0: ed25 a4bc b420 94bd f26f cd3e 799d 1b3e
00000200: 9f6e 01bf fe48 1cbe 1ab2 f8bd 2b55 893d
00000210: 0dd0 57be b49a 6e3d 2864 a9bd c9f9 0b3d
00000220: e30b 05be 746f cdbe c5d3 133f 85a9 91bd
00000230: 599c 50bc 9757 8a3e 9aed b7be f12e 22be
00000240: c3d1 373e 896b 163f 4d2c debe 2377 29bd
00000250: 9517 883e 1926 af3e f947 e5bd 82e0 9d3e
00000260: 901e 5f3e 1ea6 4ebe 45c8 28be 1326 b93e
00000270: 74cc bd3e 70bb 5ebe 9492 21bd b636 fcbd
00000280: e724 b5be 147b 333e 3d8c 0a3d 15ae c638
00000290: a9f4 50bd c973 45be b914 10be 6b75 873d
000002a0: 81a0 21bd 73b2 9b3a 653c 173e 489f 303d
000002b0: 66da 66bd a5aa b13e 87ac 223e 8cb9 23be
000002c0: 50a3 8d3d fa1f c33d 5137 8c3e 7c5b 42be
000002d0: fbd3 703e 6ba8 e83d 4cce 743e c0b1 b4be
000002e0: dd86 8b3a 51e7 4d3e 0058 153e 075b e9bd
000002f0: 4b08 6bbe 6bfc 00be 4400 2f3e 544c 6cbe
00000300: 4034 01be c388 9bbd 9f06 483e 1205 ad3d
00000310: 6b3b 4dbe ef3c 7c3e 4b8c c93e d79a db3e
00000320: f8fa 06bf a960 8b3c 2a98 113f 791c b6bd
00000330: 9104 edbc 700b 463e e98b 2d3d 3b47 9cbd
00000340: d656 b43c e3d3 833d d986 d7be 9c4f dd3e
00000350: 372e 9e3e 50cc 983e f1e9 a63b 3274 063e
00000360: 33a7 cf3e 9044 6abe 4d6e 353d 100b e63c
00000370: 08d5 9e3e 6b4e 073c 706d d5be e515 5dbe
00000380: 7cf9 cdbd e09a a23d a778 98be ee96 203e
00000390: d783 04be 885b 6c3e 025c debe 34c6 2b3f
000003a0: 2ebd 0f3f 6956 1ebe 07db 9e3e 16dd 4abd
000003b0: 3f09 52bd 8a5e 43bd 0b30 c63b 92b1 29be
000003c0: 0e54 6cbe cc87 9b3d d2c3 813e c35e 8b3e
000003d0: 2639 7bbd 247e c33d 22fb b73e 2380 1a3e
000003e0: 5f61 8c3e cfac f33e cacd b83e 4eaf 14bf
000003f0: 7d87 2e3e e15d ccbe 4dd7 8a3e 02b6 16be

lstm.bias_ih_l1 f4 [256]
-0.41610703 0.02593865 0.13165434 0.15970352 -0.18721229 -0.26395923 -0.11775202 -0.30127123
-0.02321359 -0.13799135 -0.22114567 -0.3002633 0.11643084 -0.1810266 -0.32241806 0.008678653
-0.07584879 -0.10571349 -0.02467412 -0.3004629 0.12627417 -0.34230885 -0.14231461 -0.19710028
-0.12240789 -0.23791565 -0.20470205 -0.23782936 -0.021831028 -0.12704094 0.018372927 0.0025579436
0.13042031 0.014117622 -0.36933804 -0.16419935 -0.10607809 -0.28873137 -0.049668476 -0.3169537
-0.12889677 -0.26002178 -0.025600987 -0.03396947 -0.14281887 -0.24354145 -0.27563944 -0.24521263
-0.1722949 -0.24732947 -0.3024086 -0.091384344 -0.2516718 -0.13710758 -0.0743845 -0.23981468
-0.041313943 -0.020336214 -0.23214695 -0.12506983 -0.18163484 0.08161747 -0.091259934 -0.21150486
0.25617337 -0.28353083 -0.12597169 -0.3585358 0.43024954 0.3529575 -0.23264828 -0.07643714
-0.25068718 -0.22940114 0.062689774 -0.011781176 -0.111540854 -0.11179714 0.25033402 -0.23968726
-0.11858087 0.022580115 -0.18467681 0.090907566 -0.16789836 0.271885 0.012147259 0.0070110015
0.027538568 -0.25569877 0.18337524 -0.05755203 0.16121595 -0.29304114 -0.23381726 -0.11106855
-0.16578819 -0.26734647 0.24795507 0.2683702 -0.014201513 0.12627672 -0.16769134 0.11144422
-0.12148878 0.09189514 -0.0023615654 0.11312797 0.12010183 0.1704549 0.117841944 -0.04378601
-0.069237456 -0.10296049 0.09035529 -0.23585892 -0.31254116 0.18031292 -0.18450198 0.0032999709
0.08608135 0.3629712 0.12561323 0.0422892 0.26374686 -0.018557439 0.11620746 -0.23094198
0.23265561 0.3140281 -0.006809614 -0.08740637 0.17544371 0.05234244 0.050711323 0.006938863
-0.020040497 0.06908471 0.050651435 -0.19024892 -0.1844228 0.08796956 0.15856104 0.08667865
0.073753074 0.14646262 -0.12837349 -0.054382484 0.13284937 -0.16891585 -0.028780024 -0.038605228
-0.044827428 0.04679584 0.048808943 -0.045201775 -0.013377355 -0.0435639 0.028734596 -0.2148695
0.017925946 0.023576243 -0.078485295 -0.21580331 0.09584632 -0.020233097 -0.0731779 0.17528498
0.020879917 0.10775396 -0.11107181 0.11948193 -0.050418332 0.06026184 0.031711042 -0.0010290636
0.10495653 0.17714027 -0.22928663 -0.032908555 0.060210217 -0.0019416867 0.14562438 -0.15384637
0.3729122 0.32768846 -0.13354044 -0.0001736196 -0.009085352 0.3392974 0.08541563 0.23136704
0.072519645 0.3460923 0.30414563 0.25315815 0.053152014 0.13622352 0.11617725 0.13777252
0.11104309 0.15284103 0.03844389 -0.19634338 0.2587758 0.040799722 -0.15027392 0.23628843
0.2118482 -0.030457828 -0.0055621536 0.11579912 0.38087413 -0.056623835 0.1729639 0.10487905
0.3100484 -0.049774796 0.16907282 -0.01336923 0.024801547 0.06504178 0.34643492 0.09882928
0.3007499 0.01138576 0.03482465 0.49919578 0.19042149 0.12847614 0.10663115 -0.06148497
0.20744807 0.2815804 0.4765337 0.17444739 0.24269523 0.17370619 0.18578649 0.092790015
-0.18056251 0.05387177 0.10363055 -0.108358406 -0.053302784 0.17045787 0.07874182 0.29717296
0.20958313 0.2921389 0.15379016 0.033440873 0.4412671 0.09264938 0.25038254 -0.18325518
00000000: fb0b d5be 4b7d d43c 65d0 063e 5289 233e
00000010: 94b4 3fbe aa25 87be f927 f1bd 3940 9abe
00000020: 6d2a bebc 9b4d 0dbe 0374 62be 1cbc 99be
00000030: 4b73 ee3d 095f 39be fb13 a5be e930 0e3c
00000040: 9c56 9bbd 5080 d8bd 6121 cabc 46d6 99be
00000050: 044e 013e 1b43 afbe ecba 11be a8d4 49be
00000060: fdb0 fabd 29a0 73be 6a9d 51be 8a89 73be
00000070: fcd6 b2bc 0517 02be d282 963c 2ca3 273b
00000080: e78c 053e 994d 673c e019 bdbe e023 28be
00000090: 783f d9bd 99d4 93be 2c71 4bbd c147 a2be
000000a0: 84fd 03be 9321 85be 29b9 d1bc 9223 0bbd
000000b0: 1c3f 12be ee62 79be 9d20 8dbe 0519 7bbe
000000c0: 136e 30be f043 7dbe 4dd5 9abe b727 bbbd
000000d0: 20db 80be ee65 0cbe e756 98bd fb91 75be
000000e0: cf38 29bd 2298 a6bc eeb7 6dbe 4e12 00be
000000f0: 7cfe 39be 0f27 a73d 7de6 babd bb94 58be
00000100: 2829 833e f42a 91be b9fe 00be 0192 b7be
00000110: ab49 dc3e d8b6 b43e 5a3b 6ebe 138b 9cbd
00000120: 125a 80be 22e8 6abe 7f63 803d d505 41bc
00000130: 886f e4bd e6f5 e4bd c82b 803e 9470 75be
00000140: 87da f2bd eff9 b83c eb1b 3dbe bf2d ba3d
00000150: 8ced 2bbe 8334 8b3e 4c05 473c 8bbc e53b
00000160: 9098 e13c f3ea 82be b8c6 3b3e adbb 6bbd
00000170: cb15 253e 7d09 96be cb6d 6fbe e877 e3bd
00000180: 61c4 29be a3e1 88be efe7 7d3e d267 893e
00000190: 76ad 68bc af4e 013e 47b7 2bbe de3c e43d
000001a0: 1ccf f8bd 8533 bc3d 7ec4 1abb a3af e73d
000001b0: f3f7 f53d bb8b 2e3e 1e57 f13d f658 33bd
000001c0: 5ecc 8dbd f3dc d2bd 320c b93d 0085 71be
000001d0: 6505 a0be f3a3 383e 16ee 3cbe 5344 583b
000001e0: 6b4b b03d 5cd7 b93e c1a0 003e 7137 2d3d
000001f0: d409 873e c505 98bc 2dfe ed3d 0e7c 6cbe
00000200: 463d 6e3e 4bc8 a03e 2f23 dfbb 1c02 b3bd
00000210: 84a7 333e 0765 563d adb6 4f3d 675f e33b
00000220: f82b a4bc 497c 8d3d e177 4f3d 9dd0 42be
00000230: 55d9 3cbe 6229 b43d d35d 223e 9384 b13d
00000240: da0b 973d 4cfa 153e 5774 03be 2bc0 5ebd
00000250: aa09 083e 47f8 2cbe 16c4 ebbc 8420 1ebd
00000260: f79c 37bd ffac 3f3d e3eb 473d 7f25 39bd
00000270: b22c 5bbc 0f70 32bd d164 eb3c c006 5cbe
00000280: 6fd9 923c f722 c13c e6bc a0bd 8bfb 5cbe
00000290: 134b c43d e1bf a5bc 4bde 95bd e87d 333e
000002a0: 5c0c ab3c 1cae dc3d 9e79 e3bd f1b2 f43d
000002b0: 7483 4ebd 1ed5 763d 70e3 013d a5e1 86ba
000002c0: 73f3 d63d 4264 353e 1dca 6abe 1fcb 06bd
000002d0: fd9e 763d 3280 feba 8f1e 153e e789 1dbe
000002e0: 59ee be3e c8c6 a73e d3be 08be a80d 36b9
000002f0: bada 14bc 64b8 ad3e 64ee ae3d 7beb 6c3e
00000300: 2e85 943d 0333 b13e fab8 9b3e f29d 813e
00000310: edb5 593d 2e7e 0b3e 57ee ed3d 3d14 0d3e
00000320: 8f6a e33d 5c82 1c3e 5777 1d3d 3d0e 49be
00000330: 437e 843e 9c1d 273d 68e1 19be 98f5 713e
00000340: bcee 583e b282 f9bc ba42 b6bb 1728 ed3d
00000350: ef01 c33e 65ee 67bd 731d 313e d4ca d63d
00000360: aabe 9e3e a8e0 4bbd 6d21 2d3e 9d0a 5bbc
00000370: 9d2c cb3c a034 853d eb5f b13e 0167 ca3d
00000380: e4fb 993e 578b 3a3c 4ba4 0e3d 9796 ff3e
00000390: dafd 423e 408f 033e 6f61 da3d aad7 7bbd
000003a0: 446d 543e 4e2b 903e 3afc f33e 56a2 323e
000003b0: 1985 783e 09e0 313e d03e 3e3e b108 be3d
000003c0: 61e5 38be a5a8 5c3d 413c d43d 03eb ddbd
000003d0: 0554 5abd 828c 2e3e 6443 a13d 0e27 983e
000003e0: f69c 563e 3b93 953e 2b7b 1d3e 4cf9 083d
000003f0: c3ed e13e f5be bd3d 2432 803e 3fa7 3bbe

lstm.bias_hh_l1 f4 [256]
-0.37631142 0.19537523 0.14387363 0.043704964 -0.2520283 -0.24385887 -0.16012086 -0.27658346
0.005704954 -0.15673904 -0.33512348 -0.39323372 0.04698157 -0.16307873 -0.1396657 -0.098042905
0.024596786 -0.11666123 -0.03838554 -0.29989186 0.12585738 -0.30838203 -0.2027099 -0.18698773
0.065236144 -0.12485584 -0.42753473 -0.4561384 -0.21764036 -0.042326275 0.08681255 -0.029890567
0.13152476 0.010572803 -0.2990408 -0.33761513 -0.32394955 -0.37104455 -0.13426821 -0.3481619
0.04576826 -0.12305819 0.14217854 -0.121956415 -0.11167398 -0.18258451 -0.33305672 -0.16108827
-0.17096558 -0.19170925 -0.33576223 -0.104657985 -0.2659851 -0.20854205 -0.059110988 -0.055458378
0.09720084 -0.0015462893 -0.061053235 -0.17983016 -0.17018639 -0.0119000105 0.07617011 -0.23246758
0.37075436 -0.09234397 -0.10633048 -0.18595852 0.417065 0.23500048 -0.07903201 0.061216224
-0.3565215 -0.22765759 0.012279362 -0.06779376 -0.12551187 -0.1429618 0.23419994 -0.23084967
-0.12399514 -0.090533055 -0.12961115 0.10978226 -0.08030966 0.11849266 0.0035133413 -0.027664416
-0.038503855 -0.23553178 0.096996136 0.014586033 0.039090794 -0.21027017 -0.21052857 -0.20966412
-0.031535998 -0.22378199 0.4364864 0.50028235 -0.103541896 0.08227497 -0.13442063 0.19771042
-0.011129642 0.122275375 -0.0055922666 -0.029814329 0.046474148 0.2330525 0.068141274 -0.114266306
-0.13954285 -0.087214954 0.08265461 -0.26909745 -0.20853432 -0.00022726745 -0.07673462 -0.17224371
-0.14128184 0.28058693 0.081951596 0.07597626 0.2623811 -0.0104203 0.08732823 -0.07361551
0.020067768 0.16783842 -0.1890265 -0.008719484 -0.029583013 -0.008223959 0.21160619 -0.008185915
-0.010324026 -0.03181056 -0.038771536 -0.13318464 -0.16425492 0.11879074 0.27603996 0.12098733
0.0218451 0.10632596 -0.21653976 -0.14621945 0.24209255 -0.097102165 0.07701882 -0.0880914
-0.0634546 -0.021085445 -0.13207263 0.14760113 -0.011892174 -0.15567775 0.15952097 -0.05623231
0.2158153 0.10092385 -0.079296 -0.19219789 0.21357068 0.01979404 0.037738618 0.09372914
-0.17187582 -0.01581623 -0.10871515 -0.072482735 -0.10715825 0.037728895 0.10587999 -0.06287018
-0.023371717 0.054798987 -0.06286717 -0.0680888 -0.026826069 0.023757026 0.09710238 -0.12629072
0.22261737 0.24537642 -0.12252095 -0.04809948 -0.03637546 0.3226795 0.1482412 0.025933767
0.2502498 0.23079 0.08330038 0.2802399 0.1717535 0.10112552 -0.034404922 0.08824856
0.12588666 0.032847133 0.16277458 -0.11867209 0.29238677 0.13071826 -0.055579595 0.22206196
0.24557443 0.115092024 -0.07257604 0.021561287 0.22803757 -0.031725194 -0.014146199 -0.08911057
0.24310824 0.056279883 0.058579832 -0.11121102 0.12019488 -0.054166406 0.23251392 0.18224452
0.27205506 0.23930171 0.09404916 0.52005917 0.014144112 0.11927192 0.21195745 -0.07829494
0.15061592 0.2934494 0.48405498 -0.029118298 0.13441396 0.26129737 0.1584526 0.12545964
0.013502073 -0.082025945 0.032128386 0.10099339 -0.19852123 0.09930134 0.2754704 0.20266066
0.29115182 0.25202608 0.057557415 0.010186169 0.3054897 0.16091534 0.13202931 -0.20564446
00000000: e4ab c0be 7210 483e 9c53 133e fa03 333d
00000010: da09 81be 24b6 79be b9f6 23be 599c 8dbe
00000020: 9ff0 ba3b 3380 20be 4e95 abbe ee55 c9be
00000030: bf6f 403d 1cfe 26be 8604 0fbe b8ca c8bd
00000040: 337f c93c 15ec eebd 283a 1dbd 6d8b 99be
00000050: c2e0 003e 40e4 9dbe 2f93 4fbe b679 3fbe
00000060: 879a 853d 6bb4 ffbd d5e5 dabe f98a e9be
00000070: 1ddd 5ebe 515e 2dbd c7ca b13d 10dd f4bc
00000080: 6dae 063e 8d39 2d3c e01b 99be e4db acbe
00000090: b7dc a5be 8df9 bdbe 9b7d 09be 4742 b2be
000000a0: 8077 3b3d ef05 fcbd 4097 113e 49c4 f9bd
000000b0: 54b5 e4bd 6ff7 3abe 6986 aabe 53f4 24be
000000c0: 9a11 2fbe 6e4f 44be 07e9 abbe ed56 d6bd
000000d0: 332f 88be 0c8c 55be 5d1e 72bd 5328 63bd
000000e0: 3c11 c73d dcac caba f512 7abd 6625 38be
000000f0: 5745 2ebe 43f8 42bc 13ff 9b3d fb0b 6ebe
00000100: 84d3 bd3e d61e bdbd cbc3 d9bd e96b 3ebe
00000110: 8b89 d53e f7a3 703e 89db a1bd ddbd 7a3d
00000120: fc89 b6be 121f 69be 612f 493c 74d7 8abd
00000130: 2f86 00be 9464 12be 1cd2 6f3e db63 6cbe
00000140: 2af1 fdbd 6569 b9bd c9b8 04be 86d5 e03d
00000150: 6479 a4bd 48ac f23d 1640 663b 7ca0 e2bc
00000160: 38b6 1dbd 3e2f 71be e9a5 c63d 42fa 6e3c
00000170: ab1d 203d 1051 57be cd94 57be 31b2 56be
00000180: e42b 01bd 1b27 65be 257b df3e 8112 003f
00000190: c60d d4bd c87f a83d 90a5 09be 9a74 4a3e
000001a0: 1a59 36bc 836b fa3d 553f b7bb 2e3d f4bc
000001b0: ad5b 3e3d 51a5 6e3e a78d 8b3d 7404 eabd
000001c0: 52e4 0ebe c19d b2bd d246 a93d 24c7 89be
000001d0: 058a 55be a44e 6eb9 0a27 9dbd a860 30be
000001e0: 30ac 10be 17a9 8f3e 3dd6 a73d 7199 9b3d
000001f0: d156 863e e8b9 2abc 25d9 b23d bac3 96bd
00000200: 2965 a43c d6dd 2b3e 2a90 41be 2bdc 0ebc
00000210: 1358 f2bc c9bd 06bc 4baf 583e 371e 06bc
00000220: 1b26 29bc ca4b 02bd e7ce 1ebd 8e61 08be
00000230: 7132 28be 8f48 f33d 1c55 8d3e 35c8 f73d
00000240: 7ff4 b23c 6dc1 d93d 99bc 5dbe 8dba 15be
00000250: 1ce7 773e 80dd c6bd 0bbc 9d3d 4469 b4bd
00000260: 7cf4 81bd 62bb acbc 0c3e 07be c024 173e
00000270: 65d7 42bc fd69 1fbe 7759 233e da53 66bd
00000280: b0fe 5c3e 2ab1 ce3d f165 a2bd 86cf 44be
00000290: 46b2 5a3e 1c27 a23c cf93 1a3d 10f5 bf3d
000002a0: 3700 30be 0a91 81bc 0ca6 debd d471 94bd
000002b0: c975 dbbd 9d89 1a3d 9cd7 d83d 15c2 80bd
000002c0: 0b76 bfbc e774 603d 81c0 80bd 2472 8bbd
000002d0: 58c2 dbbc 189e c23c 9ddd c63d 5b52 01be
000002e0: cff5 633e f543 7b3e 44ec fabd f603 45bd
000002f0: 6ffe 14bd 3f36 a53e 8bcc 173e 0d73 d43c
00000300: be20 803e 3754 6c3e 6499 aa3d 9b7b 8f3e
00000310: 26e0 2f3e e61a cf3d 2dec 0cbd a9bb b43d
00000320: 6fe8 003e b78a 063d 61ae 263e 5a0a f3bd
00000330: b8b3 953e 02db 053e 6ea7 63bd 3664 633e
00000340: dd77 7b3e 5eb5 eb3d bfa2 94bd 4ca1 b03c
00000350: ae82 693e 47f2 01bd 76c5 67bc 9a7f b6bd
00000360: 5ef1 783e bc85 663d 68f1 6f3d 9ac2 e3bd
00000370: bc28 f63d 98dd 5dbd 2118 6e3e 4f9e 3a3e
00000380: cd4a 8b3e 820b 753e d99c c03d 9922 053f
00000390: b5bc 673c d644 f43d 600b 593e 1959 a0bd
000003a0: 0f3b 1a3e 003f 963e 0ed6 f73e 7f89 eebc
000003b0: d0a3 093e c5c8 853e 6641 223e 7e78 003e
000003c0: cc37 5d3c 38fd a7bd 0e99 033d 9fd5 ce3d
000003d0: 2649 4bbe 805e cb3d 750a 8d3e 4786 4f3e
000003e0: da11 953e 9009 813e 53c1 6b3d e4e3 263c
000003f0: 2569 9c3e fec6 243e b132 073e 7694 52be
