good_weights/my.ckpt (torch_old, 350841 bytes, 14 tensors)

lstm.weight_ih_l0 f4 [256, 12]
0	0x3c158962	0.009126993
1	0xbc67e739	-0.014154249
2	0x3e1924ee	0.14955494
3	0x3e654700	0.22390366
4	0xbd33eb8b	-0.043925803
5	0xbe75bd42	-0.23997977
6	0x3da117df	0.07865881
7	0xbe2d7a3c	-0.1694116
8	0xbe9d62fb	-0.3073958
9	0x3ce54624	0.027987547
10	0x3e82d6d1	0.25554517
11	0xbe41d12e	-0.18927452
12	0x3e1879f3	0.1489027
13	0xbe4f9dc8	-0.20275033
14	0xbdbf31d4	-0.09335676
15	0x3d25e7c7	0.040504243
16	0x3e6a06f6	0.22854218
17	0x3c9a9f76	0.018874865
18	0x3ddf54f7	0.10904878
19	0x3de1024b	0.109867655
20	0x3eb582e6	0.3545143
21	0x3bd590dc	0.0065175127
22	0x3ce973e9	0.028497653
23	0x3e299367	0.16560136
24	0xbd9bb6ad	-0.07603202
25	0xbea0a9b2	-0.31379467
26	0xbe40a2fb	-0.18812172
27	0xbd85fbb5	-0.0654215
28	0xbd31822c	-0.043337032
29	0xbda1b46e	-0.07895742
30	0x3d8931c1	0.06698943
31	0xbd4e0e96	-0.05030688
32	0xbedce2ef	-0.43141887
33	0xbecf489c	-0.40485084
34	0xbdc02340	-0.093817234
35	0xbe0b2eba	-0.13592044
36	0xbcb584dd	-0.02215808
37	0x3eaac4bb	0.33353218
38	0xbd32e109	-0.04367164
39	0x3e251768	0.1612221
40	0xbdd78a24	-0.10524395
41	0x3d2b25d3	0.04178412
42	0xbeee19a5	-0.4650394
43	0xbe8af13c	-0.27137172
44	0xbe5bead8	-0.21476305
45	0xbe6f22c4	-0.23353106
46	0x3d9ca5bd	0.076487996
47	0x3e39c3df	0.18141125
48	0x3d06c243	0.032900106
49	0x3ca76af3	0.02043674
50	0xbe4230ff	-0.18964003
51	0x3eb2cfe2	0.34924227
52	0xbc4e40fc	-0.012588736
53	0xbe8cfa7d	-0.27534857
54	0x3d13783f	0.036003347
55	0x3e2a33b7	0.1662129
56	0xbe51beae	-0.20482895
57	0x3c8a2240	0.016862035
58	0x3e284ee1	0.1643634
59	0xbdc461e1	-0.095889814
60	0x3e398975	0.18118842
61	0xbe152a23	-0.14566855
62	0xbe44a7ca	-0.19204631
63	0x3e90e170	0.28296995
64	0xbda42edb	-0.080167495
65	0xbe1e4aac	-0.15458173
66	0x3d1737c2	0.03691841
67	0x3e5a75ed	0.21334048
68	0xbeb7b430	-0.3587966
69	0xbe084575	-0.13307746
70	0xbe03eb85	-0.12882812
71	0xbc854ca1	-0.016271891
72	0xbb25540e	-0.0025227102
73	0x3e0b06a6	0.13576755
74	0x3e7d285f	0.24722432
75	0x3dbef561	0.09324146
76	0xbd07ab7c	-0.033122525
77	0xbe3b730b	-0.18305604
78	0xbed7d0b0	-0.42151403
79	0xbe4a3bca	-0.1974937
80	0xba5468d0	-0.00081027765
81	0x3e19a1ca	0.15003124
82	0x3e5ed806	0.21762094
83	0x3d9af4aa	0.07566197
84	0xbd1e9d5a	-0.03872428
85	0x3e9a7b49	0.30172184
86	0xbd4d0cb4	-0.050060943
87	0x3e456650	0.1927731
88	0xbe8d45c3	-0.27592286
89	0xbd2b0d8f	-0.041760977
90	0xbecbd0c4	-0.39807713
91	0xbbc49970	-0.0059997365
92	0xbe7023d3	-0.23451166
93	0xbd96ddfb	-0.07366558
94	0x3da75054	0.08169618
95	0xbd157976	-0.036492787
96	0xbd3a087b	-0.045418244
97	0x3ea773bf	0.32705495
98	0xbea18720	-0.31548405
99	0x3db592c6	0.088658854
100	0x3e4c203d	0.19934173
101	0xbde721d6	-0.112857506
102	0xbe90653c	-0.28202236
103	0x3de5408f	0.11193954
104	0x3e8a19a4	0.26972687
105	0xbcb85d7f	-0.02250552
106	0xbe742810	-0.23843408
107	0x3c0c0d67	0.008548117
108	0xbec7c44b	-0.39016947
109	0x3e0888ee	0.13333485
110	0x3cbd14cf	0.023081211
111	0x3ea646e2	0.32475954
112	0xbe051a24	-0.12998253
113	0x3d9893b5	0.07450048
114	0xbdbd9728	-0.092573464
115	0xbb686a89	-0.003546389
116	0x3e92e7b6	0.28692406
117	0x3e49f191	0.19721057
118	0x3e0f9cee	0.14024708
119	0x3e0ee50d	0.13954563
120	0xbc998efb	-0.018744936
121	0xbf25e0a6	-0.6479591
122	0x3d6c6394	0.057712153
123	0xbdb8a35a	-0.09015532
124	0xbd62ac9a	-0.055340387
125	0x3ea0131f	0.31264588
126	0xbe85244a	-0.2600425
127	0xbe300e34	-0.17192918
128	0xbe0b6588	-0.1361295
129	0x3e3af6cc	0.18258208
130	0x3caa8a11	0.020817788
131	0xbce745ae	-0.028231468
132	0xbd009cbd	-0.031399477
133	0x3c2d8e85	0.010593061
134	0x3dd15935	0.10222093
135	0x3cab3eb2	0.020903919
136	0xbeb11b2c	-0.34591043
137	0x3f1a4d9f	0.6027469
138	0xbf01b929	-0.50673157
139	0x3d1b059b	0.037847143
140	0x3e8d3618	0.27580333
141	0xbeaf4dae	-0.34238952
142	0xbd0e2ffa	-0.034713723
143	0x3df6c005	0.120483436
144	0xbdcdf6b6	-0.10056822
145	0x3ed17bc0	0.40914726
146	0x3d406cf2	0.0469789
147	0x3e27ab78	0.16374004
148	0x3d38a7d5	0.045081932
149	0xbd16febe	-0.036864035
150	0x3e278c8b	0.16362207
151	0xbdbf4641	-0.09339572
152	0xbddf90ff	-0.10916328
153	0x3ddcc2b6	0.10779326
154	0x3e29f986	0.16599092
155	0x3dca7cd3	0.098870896
156	0xbd3ee262	-0.046602614
157	0xbd0848fd	-0.033272732
158	0x3e808822	0.2510386
159	0x3eac0498	0.33597255
160	0x3eac3ab6	0.33638543
161	0x3eb44aa9	0.3521321
162	0xbe2c8e62	-0.1685119
163	0x3e16717d	0.1469173
164	0xbe5dcc70	-0.21660018
165	0x3e204a9f	0.15653466
166	0xbdfb87c9	-0.12281758
167	0xbeba3aea	-0.36373073
168	0xbc8ce1ba	-0.017197479
169	0x3dcdb0af	0.10043465
170	0xbddd0e12	-0.10793699
171	0xbe55dbee	-0.20884678
172	0xbf280dca	-0.6564604
173	0xbec8617b	-0.39136872
174	0xbc3d69e2	-0.011560889
175	0xbb6515e6	-0.003495568
176	0xb9f1941e	-0.00046077458
177	0x3d869ea8	0.0657323
178	0x3e2750be	0.16339394
179	0x3d47b0ce	0.0487526
180	0x3d368b58	0.044566482
181	0xbc2048eb	-0.00978301
182	0x3e1ab6b0	0.15108752
183	0xbe51a883	-0.20474438
184	0xbe954528	-0.29154325
185	0x3e9a45ae	0.30131286
186	0x3df0635f	0.117377035
187	0xbeb97e44	-0.36229146
188	0x3e215df6	0.157585
189	0x3e15ec86	0.14641008
190	0x3c50e278	0.012749307
191	0x3dbc1a02	0.09184648
192	0x3ca41fb9	0.020034658
193	0x3f1a4e18	0.6027541
194	0x3e878ddf	0.26475427
195	0x3df4f604	0.11960986
196	0x3e800447	0.25003263
197	0xbb8c34d3	-0.004278758
198	0x3d1b43b3	0.03790636
199	0xbe6b0222	-0.22950032
200	0xbee86d8b	-0.45396075
201	0xbec531c7	-0.3851454
202	0xbe2a3571	-0.16621949
203	0xbec76945	-0.38947502
204	0xbd1fc0a2	-0.03900207
205	0x3e87b48d	0.26504937
206	0xbdf6a537	-0.12043231
207	0x3d0dc719	0.034613702
208	0xbe26febc	-0.16308111
209	0xbe6dc7db	-0.2322077
210	0xbea8e7b7	-0.32989284
211	0x3cb9c1af	0.022675363
212	0x3e1fc347	0.15601836
213	0x3db69227	0.08914595
214	0x3d5d0712	0.05396182
215	0x3d35c2c6	0.044375204
216	0xbc93ba87	-0.01803328
217	0x3cd6767d	0.026179546
218	0xbed70073	-0.4199253
219	0xbe2de26b	-0.16980903
220	0xbe89baf4	-0.26900446
221	0x3e4d8f1b	0.20074122
222	0x3e941bb6	0.28927392
223	0xbd8ead63	-0.06966665
224	0xbe0ab1c0	-0.13544369
225	0xbe09546c	-0.1341111
226	0x3e545885	0.20736893
227	0x3ed7ebb2	0.4217201
228	0xbe22886c	-0.15872353
229	0x3e54e827	0.20791684
230	0x3dd4de6e	0.103939876
231	0xbda4be58	-0.08044118
232	0xbe3a32f3	-0.18183498
233	0xbed27249	-0.41102818
234	0xbeba277b	-0.36358246
235	0xbe76b4d1	-0.24092413
236	0xbe969017	-0.29406807
237	0xbe8a4c3e	-0.27011293
238	0xbcc396cc	-0.023875616
239	0xbe1295b0	-0.14314914
240	0xbd0a2ba6	-0.033733033
241	0xbd847b98	-0.06468886
242	0x3ea7c78b	0.32769427
243	0xbe88bb4f	-0.26705405
244	0x3e1e17a6	0.15438709
245	0x3ec4a15b	0.38404354
246	0x3eb29f9f	0.34887406
247	0x3e4950cc	0.19659728
248	0x3eaa2818	0.33233714
249	0x3e370d81	0.17876245
250	0x3ea4baec	0.3217386
251	0x3e1e7a46	0.15476331
252	0xbcc18153	-0.023621237
253	0x3e7711f2	0.2412794
254	0x3ec410b8	0.38294005
255	0x3eaf296b	0.34211287

lstm.weight_hh_l0 f4 [256, 64]
0	0x3fda57eb	1.705808
1	0xbc234293	-0.009964603
2	0xbe3aeff2	-0.18255594
3	0xbecc086c	-0.39850175
4	0x3d96c7ed	0.073623516
5	0x3d9f1eab	0.07769521
6	0xbea88cec	-0.32920015
7	0xbf2bcec2	-0.6711236
8	0xbee4262b	-0.4456037
9	0x3f82d089	1.021989
10	0xbe713e80	-0.23558998
11	0x3e6dd38a	0.23225227
12	0x3ec75f0b	0.389397
13	0x3f375e06	0.71627843
14	0xbcdcb40c	-0.026941322
15	0xbc8037ec	-0.015651666
16	0x3d84e944	0.064898044
17	0x3ebe4fda	0.37170297
18	0xbe0345cb	-0.12819593
19	0xbe1c7da4	-0.15282303
20	0x3e59678c	0.21230906
21	0xbe8991b5	-0.26868978
22	0x3ef12a9f	0.4710283
23	0x3ea92555	0.33036295
24	0xbeb1d4ce	-0.3473267
25	0x3e1e6aa1	0.15470363
26	0xbf154f14	-0.5832379
27	0xbe24fe32	-0.16112593
28	0x3f7b9f68	0.9829011
29	0xbe3a3836	-0.18185505
30	0xbe20dd95	-0.15709527
31	0x3e3dceb5	0.18535884
32	0xbe83c127	-0.257333
33	0x3d8e8f30	0.069609046
34	0x3ebfcc41	0.3746052
35	0xbef007aa	-0.46880847
36	0x3e8379ba	0.25678807
37	0x3e12f8b8	0.14352691
38	0x3db8b1ac	0.09018263
39	0x3e0da1b5	0.13831218
40	0x3e4ccea2	0.20000699
41	0x3e5d81a6	0.21631488
42	0x3f3f3a03	0.74697894
43	0x3dd15d68	0.10222894
44	0xbee4acb6	-0.44663018
45	0xbda7207d	-0.081604935
46	0xbe8c1883	-0.2736245
47	0x3ab1e85c	0.0013573277
48	0xbedcd836	-0.43133706
49	0xbf096356	-0.536672
50	0x3f15fa0c	0.58584666
51	0xbea43f22	-0.32079417
52	0xbf09c67e	-0.538185
53	0xbccfdf17	-0.025374932
54	0x3e22c8aa	0.1589686
55	0xbf3d7af4	-0.74015737
56	0x3e29fa13	0.16599302
57	0x3f121671	0.5706549
58	0xbf015264	-0.50516343
59	0xbd84d82b	-0.06486543
60	0x3d6d9541	0.058003668
61	0xbf0ac6b5	-0.5420945
62	0xbf240779	-0.640739
63	0x3e8ea81d	0.27862635
64	0xbdacefe0	-0.0844419
65	0xbed95590	-0.42448092
66	0xbed13162	-0.4085799
67	0xbe10f08f	-0.14154266
68	0x3f108686	0.56455266
69	0xbd2bf158	-0.04197821
70	0x3d2edbf4	0.042690232
71	0x3e813ff7	0.25244114
72	0x3c85b717	0.016322656
73	0x3dc4940f	0.095985524
74	0x3d0d2616	0.03446015
75	0x3e87f346	0.2655279
76	0xbe95f45a	-0.29287988
77	0x3e825689	0.25456646
78	0x3eb64cd5	0.35605493
79	0xbe9fbbb7	-0.31197903
80	0xba5a277a	-0.00083219225
81	0x3ea1cd9d	0.31602183
82	0xbca67f64	-0.020324416
83	0x3b8d2196	0.0043069823
84	0xbe0a24bf	-0.1349058
85	0x3e5117d0	0.2041924
86	0x3e9fd3d1	0.3121629
87	0xbd3fb000	-0.046798706
88	0xbe3dce1d	-0.18535657
89	0xbf017e58	-0.5058341
90	0xbf061693	-0.52378196
91	0x3e9c8b24	0.30574906
92	0x3e1fe4e1	0.15614654
93	0x3d8449b6	0.06459372
94	0x3e291519	0.16511954
95	0xbd6a598e	-0.057214312
96	0xbe115f1c	-0.14196438
97	0x3ce779d9	0.028256344
98	0xbdee002b	-0.11621126
99	0xbea62d99	-0.32456663
100	0x3ef4269d	0.4768571
101	0x3e484b6f	0.19560026
102	0xbe9bbc2b	-0.30416998
103	0xbe38aa2b	-0.18033664
104	0x3e9c2a98	0.30501246
105	0xbe19d0b0	-0.15021014
106	0x3da1412a	0.07873757
107	0xbe96f0cc	-0.29480588
108	0x3e032706	0.12807855
109	0x3e08b992	0.1335204
110	0x3ceaf395	0.028680602
111	0xbd8ccaec	-0.06874642
112	0xbd50edbf	-0.051007982
113	0x3df01d38	0.11724323
114	0x3dd3dc8d	0.10344801
115	0x3f049077	0.51782936
116	0xbe3f16c3	-0.18661027
117	0x3ecf5eb5	0.40501943
118	0xbc3d42fb	-0.011551614
119	0xbe95fbdb	-0.29293713
120	0xbea0feb1	-0.31444314
121	0x3dbf40e2	0.09338547
122	0xbe83f59d	-0.25773326
123	0x3e0b452f	0.1360061
124	0xbeac9c53	-0.33713016
125	0x3d20167e	0.03908395
126	0x3e3293de	0.1743922
127	0xbddc1dab	-0.10747846
128	0x3e20bb51	0.15696456
129	0xbd642187	-0.055696037
130	0xbedc676d	-0.43047658
131	0x3e271c15	0.16319306
132	0xbdadadf4	-0.084804446
133	0xbe5824dd	-0.21107812
134	0x3e8eca62	0.2788878
135	0xbe4129c9	-0.18863596
136	0xbed69573	-0.41910896
137	0xbe09b9e7	-0.13449822
138	0x3d9860bf	0.07440328
139	0x3d05be58	0.03265223
140	0xbc763461	-0.015027137
141	0x3d13f8f4	0.036126092
142	0x3d1afcca	0.037838735
143	0xbdc15a05	-0.09440998
144	0x3ebb7b70	0.36617613
145	0x3e8b2093	0.2717329
146	0x3dcaf650	0.09910262
147	0x3e80884e	0.25103992
148	0x3e11f027	0.14251767
149	0x3d98bfcf	0.074584596
150	0xbca9bc77	-0.02071975
151	0xbd7967b9	-0.060889933
152	0xbe4cf79a	-0.20016328
153	0x3e376381	0.17909051
154	0xbd46fa5d	-0.04857861
155	0xbe21a1a7	-0.15784322
156	0xbe3d47ab	-0.1848437
157	0x3dada367	0.08478432
158	0x3e1251ef	0.14289068
159	0x3ca0c5f6	0.019625645
160	0x3e520888	0.20511067
161	0xbdb75725	-0.089521684
162	0x3be548b4	0.0069971923
163	0xbde913f6	-0.1138076
164	0xbf0051fc	-0.501251
165	0xbec0d9c1	-0.37666133
166	0x3ea47b99	0.32125548
167	0x3ea4fc07	0.32223532
168	0x3b85ab45	0.004079255
169	0x3eba54b5	0.3639275
170	0x3e988843	0.2979146
171	0xbec61235	-0.38685766
172	0x3e906905	0.28205124
173	0xbe995ed4	-0.2995516
174	0x3db487a3	0.08814933
175	0xbe2cd788	-0.16879094
176	0xbe99bec6	-0.3002836
177	0xbea1e0bd	-0.31616774
178	0x3e82b0ce	0.25525516
179	0x3baa57a3	0.0051984354
180	0xbe39a2bc	-0.18128484
181	0xbe40c469	-0.18824925
182	0x3e567785	0.2094403
183	0x3d0b7744	0.034049287
184	0x3e825b48	0.25460267
185	0x3cb68ef3	0.02228496
186	0xbda3a3f8	-0.07990259
187	0x3e09f49f	0.13472222
188	0xbbc599e3	-0.0060303076
189	0x3d3bb221	0.045824174
190	0x3c6e4ad5	0.0145442085
191	0xbc840949	-0.016117709
192	0xbdc10ef2	-0.09426679
193	0xbe9b80d2	-0.3037172
194	0xbe36099c	-0.17777103
195	0x3f1c24af	0.60993475
196	0xbe899c47	-0.26877043
197	0x3e021a0e	0.12705252
198	0xbe6c55e0	-0.23079634
199	0x3e83be3e	0.2573108
200	0x3cfd1d60	0.030897796
201	0xbe0500ec	-0.12988633
202	0xbe9e48e2	-0.3091498
203	0x3e9a2cf9	0.30112436
204	0xbe59fc17	-0.21287571
205	0x3dc41ea6	0.09576158
206	0xbe76cda5	-0.24101885
207	0x3c6878a7	0.014188922
208	0x3f00e381	0.50347143
209	0xbcc12311	-0.023576291
210	0x3c4ae232	0.012383031
211	0x3e809f5a	0.25121576
212	0xbd0de9fe	-0.03464698
213	0x3e379737	0.17928778
214	0xbdd1e852	-0.1024939
215	0xbe606c96	-0.21916422
216	0x3e21952b	0.1577956
217	0x3e6e7eb3	0.2329052
218	0x3dd528e2	0.104081884
219	0xbd5deaf8	-0.05417916
220	0x3c40c35e	0.011765329
221	0xbe42be90	-0.19018006
222	0x3e57782a	0.21041933
223	0xbe5e46a6	-0.21706638
224	0xbe4a2d97	-0.19743954
225	0x3e6353ec	0.22199982
226	0x3e247c7f	0.16063116
227	0x3dd63a38	0.10460323
228	0x3ed92d5d	0.42417422
229	0xbe948c90	-0.2901349
230	0x3e102393	0.1407607
231	0x3e9ae339	0.30251482
232	0xbe0e2029	-0.13879456
233	0xbe2b3e06	-0.16722879
234	0xbda4f74c	-0.08054981
235	0xbe3f3831	-0.18673779
236	0xbde0871d	-0.10963271
237	0xbdfae344	-0.12250379
238	0xbd5a9938	-0.053368777
239	0xbeb29464	-0.34878838
240	0x3e450e33	0.19243698
241	0x3c95a4ed	0.01826712
242	0x3d633011	0.05546576
243	0xbe38c6d9	-0.18044604
244	0xbc96e68f	-0.018420486
245	0xbd8e70c6	-0.069551036
246	0xbcfb69e5	-0.030690143
247	0x3e29c722	0.1657987
248	0x3cb553da	0.02213471
249	0x3d597847	0.05309322
250	0x3dedf39d	0.11618731
251	0xbd0e6fa7	-0.03477445
252	0xbde11eaf	-0.109921806
253	0x3e9129a4	0.28352082
254	0x3d5a4dd9	0.053296898
255	0xbdbe963c	-0.09305999

lstm.bias_ih_l0 f4 [256]
0	0xbf1a50ef	-0.60279745
1	0xbed259e2	-0.410842
2	0x3e5e92b5	0.21735652
3	0x3e4ac859	0.19802989
4	0x3f060178	0.5234599
5	0xbdf68d5b	-0.1203868
6	0xbec068ff	-0.37580106
7	0x3e772dac	0.24138516
8	0x3e45ccfb	0.19316475
9	0x3e0fd718	0.14046896
10	0x3ead9e69	0.3390992
11	0x3e5b7cad	0.21434279
12	0xbd06a58c	-0.03287272
13	0x3f391e7f	0.7231216
14	0xbe89b24b	-0.2689384
15	0xbcfb8452	-0.030702744
16	0xbdd4f331	-0.103979476
17	0x3f1e752f	0.6189756
18	0xbf037fae	-0.513667
19	0xbe2a6e13	-0.16643552
20	0x3eebbf2c	0.4604429
21	0xbe398584	-0.18117338
22	0xbe120e56	-0.14263281
23	0xbed2582b	-0.41082892
24	0xbead3253	-0.33827457
25	0x3e54f080	0.20794868
26	0xbed1159d	-0.40836802
27	0x3ea28927	0.31745264
28	0xbf1f60ee	-0.6225728
29	0xbe07db33	-0.13267212
30	0x3ed056bd	0.40691176
31	0xbe9bb498	-0.3041122
32	0xbd04f271	-0.032457773
33	0x3ec1cd76	0.37852067
34	0x3dccc996	0.09999387
35	0xbe6c6962	-0.23087075
36	0x3e7a6596	0.24452814
37	0x3e553494	0.20820838
38	0xbeb63433	-0.355867
39	0x3e8d0def	0.27549693
40	0xbe5dc526	-0.21657237
41	0xbd253eb8	-0.040343016
42	0xbe005fcf	-0.12536548
43	0xbcb1973f	-0.021678565
44	0xbdcbc1ad	-0.0994905
45	0xbed62ccb	-0.4183105
46	0xbeceb71c	-0.40374076
47	0x3ea62b1e	0.3245477
48	0x3e17774c	0.14791602
49	0x3d81a437	0.063301496
50	0x3dbeb5fb	0.09312054
51	0xbe1c1acb	-0.15244596
52	0x3f2b15c6	0.668301
53	0xbe3686c7	-0.17824851
54	0x3d8af51d	0.06785033
55	0x3db275bc	0.08713862
56	0x3e2faa29	0.17154755
57	0xbd83f1df	-0.064426176
58	0x3e749123	0.2388349
59	0xbe813519	-0.25235823
60	0xbdaefc4c	-0.085442156
61	0x3f00ca0a	0.5030829
62	0x3eb5f84f	0.35541007
63	0xbe9df63a	-0.30851918
64	0xbdf611d9	-0.12015123
65	0x3e095972	0.13413027
66	0x3ec9578e	0.3932461
67	0xbd1f8f5e	-0.038955085
68	0xbf1fb38f	-0.6238336
69	0xbe3a2e3e	-0.18181702
70	0xbf526650	-0.82187366
71	0x3eaf20e6	0.34204787
72	0xbe0524b9	-0.1300229
73	0xbd78814c	-0.060670182
74	0xbc7e6b5f	-0.015528529
75	0xbef1b49a	-0.472081
76	0x3d519c6e	0.051174574
77	0x3ecd228c	0.4006542
78	0xbef2d424	-0.47427475
79	0x3eb3c2b7	0.35109493
80	0x3f14ca7f	0.58121485
81	0x3f1ba13e	0.6079291
82	0x3b1df5a4	0.0024102712
83	0xbccc441c	-0.02493482
84	0xbee6cc6a	-0.4507783
85	0xbd63b40e	-0.055591635
86	0xbef3e226	-0.47633475
87	0xbec616c7	-0.38689253
88	0x3eb8609c	0.36011207
89	0xbe62b8a7	-0.22140752
90	0xbe993282	-0.29921347
91	0x3aae289d	0.001328725
92	0x3e278071	0.1635759
93	0x3e027036	0.12738118
94	0xbea3f152	-0.3202005
95	0x3e393662	0.18087152
96	0x3e0ab03c	0.1354379
97	0x3e346739	0.17617501
98	0x3dea21d9	0.11432237
99	0xbf8aacb9	-1.0833961
100	0xbe270fa0	-0.16314554
101	0xbebe5ef3	-0.37181816
102	0x3eb9147d	0.36148444
103	0xbea28b6c	-0.31746995
104	0xbec0d000	-0.3765869
105	0xbebc7853	-0.3681055
106	0x3d0e264a	0.034704484
107	0xbeef6053	-0.46753177
108	0xbf009dfa	-0.50241053
109	0x3e332b49	0.1749698
110	0xbf14adcd	-0.580777
111	0xbea329e6	-0.31867903
112	0x3de546c9	0.11195142
113	0xbea1c70d	-0.31597176
114	0xbf176143	-0.59132785
115	0xbf12b71f	-0.5731067
116	0xbf0e79eb	-0.5565478
117	0xbe64cb33	-0.2234314
118	0xbeba66ea	-0.36406642
119	0x3d8e3d3f	0.069452755
120	0xbeb8ab6a	-0.3606828
121	0xbd056601	-0.03256798
122	0x3f0e8e79	0.55686146
123	0xbece30f6	-0.4027173
124	0xbebadc2d	-0.36496106
125	0xbdaf39e5	-0.085559644
126	0x3e90246e	0.28152794
127	0xbdd5a9df	-0.10432791
128	0x3e8f6888	0.2800944
129	0x3e4a97c5	0.19784458
130	0x3eccdb88	0.4001124
131	0x3e12f3ef	0.14350866
132	0xbe1dc534	-0.15407258
133	0xbda5d10c	-0.08096513
134	0x3eb27c05	0.34860244
135	0x3f33181c	0.69958663
136	0xbecb5e69	-0.39720467
137	0xbf252182	-0.64504254
138	0x3f317699	0.6932159
139	0xbeab2933	-0.3342987
140	0xbe765bb2	-0.24058416
141	0xbf83e5d6	-1.0304515
142	0xbeadc4ef	-0.3393931
143	0x3f059c36	0.52191484
144	0xbef9f06b	-0.48816237
145	0x3f8b7160	1.0893974
146	0xbc59bc29	-0.01328949
147	0x3ec38ed9	0.38194922
148	0xbf0a41f5	-0.5400689
149	0x3c997208	0.018731132
150	0xbeac6971	-0.33674195
151	0xbf51c34f	-0.8193864
152	0x3eff84e6	0.4990608
153	0xbdcf296f	-0.10115325
154	0x3d45d46b	0.04829828
155	0x3ecb1528	0.39664578
156	0xbf0507e3	-0.5196516
157	0xbec74696	-0.3892104
158	0x3e84b457	0.25918838
159	0x3e976d2b	0.29575476
160	0x3f0ff485	0.5623248
161	0x3f185ac1	0.5951348
162	0xbf1d597e	-0.6146468
163	0x3c360c17	0.011111281
164	0xbf0efa6d	-0.5585087
165	0xbeab22c5	-0.33424965
166	0x3ea12ff5	0.314819
167	0xbf17e6bf	-0.59336466
168	0xbe7957d6	-0.24349913
169	0x3f2b8f18	0.6701522
170	0xbd737c0d	-0.059444476
171	0x3d872c1c	0.0660021
172	0xbe57ae38	-0.21062553
173	0x3e1d54ef	0.15364431
174	0x3f00f9c6	0.50381124
175	0x3f76a62e	0.9634732
176	0x3f1c957b	0.6116559
177	0xbebed415	-0.3727118
178	0x3eb1b2af	0.34706637
179	0xbe6fcb64	-0.23417431
180	0x3eebe7a5	0.46075168
181	0xbef9a911	-0.487618
182	0x3e661c24	0.22471672
183	0x3e168097	0.1469749
184	0xbe7bb9bd	-0.24582572
185	0xbebf7980	-0.37397385
186	0x3f237580	0.63851166
187	0x3e65d9d0	0.2244637
188	0x3f070012	0.5273448
189	0xbce88231	-0.028382393
190	0x3ee1182d	0.43963757
191	0x3f2702a0	0.6523838
192	0xbe9d4184	-0.30714047
193	0xbeb8ab53	-0.3606821
194	0x3e16ac99	0.14714278
195	0xbee52181	-0.44752124
196	0xbec2993d	-0.38007537
197	0xbe9ac2c8	-0.3022673
198	0x3d420c15	0.047374804
199	0x3f77a8a7	0.9674172
200	0xbdf3da0f	-0.11906826
201	0x3edef395	0.43545213
202	0x3e41fb08	0.18943417
203	0xbd8c4f32	-0.06851043
204	0x3f107ea2	0.56443226
205	0xbde0ac31	-0.10970343
206	0xbee30e55	-0.44346872
207	0x3eb92db4	0.3616768
208	0xbe90d9f9	-0.282913
209	0x3ed7352e	0.4203276
210	0xbce69c20	-0.028150618
211	0xbf569d74	-0.83834004
212	0x3d984bc7	0.074363284
213	0xbf14e356	-0.5815939
214	0xbf093cef	-0.536086
215	0x3f015730	0.5052366
216	0x3f421d2e	0.75825775
217	0xbf18bfd8	-0.5966773
218	0x3ec5e80d	0.38653603
219	0x3d872a30	0.065998435
220	0x3ed8e3e8	0.4236138
221	0x3d34064c	0.043951318
222	0x3df0024b	0.11719187
223	0xbf1d1271	-0.61356264
224	0x3ea15bf7	0.31515476
225	0x3e45520d	0.19269581
226	0xbf03a7a8	-0.514277
227	0x3e210b11	0.15726878
228	0xbe7a3c32	-0.24437025
229	0xbe2e3748	-0.17013276
230	0x3c1e5883	0.0096646575
231	0xbdb14f1a	-0.086576656
232	0xbf25cc54	-0.64764905
233	0x3e45d631	0.19319989
234	0xbe99f1cd	-0.30067292
235	0xbd80e5c7	-0.062938266
236	0x3e437768	0.19088519
237	0x3e46da98	0.19419324
238	0x3de12f9f	0.10995411
239	0x3f049bb0	0.5180006
240	0xbeef54c1	-0.4674435
241	0xbea9341b	-0.33047566
242	0xbedc5718	-0.43035197
243	0xbe87c8eb	-0.26520476
244	0xbdeb05ff	-0.11475753
245	0xbe949654	-0.2902094
246	0xbcd015fb	-0.025401106
247	0xbea56e6c	-0.32310808
248	0xbe0dd839	-0.13852014
249	0x3e96d3cd	0.29458466
250	0x3ec36e69	0.38170174
251	0xbe8cc10c	-0.27491033
252	0xbe342d76	-0.17595467
253	0x3df3899f	0.118914835
254	0xbebe84fc	-0.37210834
255	0xbe7bfe48	-0.2460872

lstm.bias_hh_l0 f4 [256]
0	0xbf2084a8	-0.6270242
1	0xbe8c50c9	-0.27405384
2	0x3e35294b	0.17691533
3	0x3ddcaf0e	0.107755765
4	0x3f1d0058	0.6132865
5	0xbdb2d01d	-0.08731101
6	0xbecab80e	-0.39593548
7	0x3eb85f92	0.36010414
8	0x3ad2c52b	0.0016080489
9	0x3e8108f2	0.25202137
10	0x3ee1838c	0.44045675
11	0x3da359bb	0.07976099
12	0x3dba30df	0.09091353
13	0x3f38987b	0.72107667
14	0xbe81a18e	-0.2531857
15	0xbcb3b05b	-0.021934679
16	0xbdb7154c	-0.08939609
17	0x3ee6f7df	0.45110986
18	0xbf0153a4	-0.5051825
19	0xbe8308bb	-0.25592598
20	0x3f021cac	0.50825
21	0xbe4416a4	-0.19149262
22	0xbe0f3c5f	-0.13987873
23	0xbecd8826	-0.40142936
24	0xbe911bde	-0.28341573
25	0x3e00add5	0.12566312
26	0xbf0496b8	-0.5179248
27	0x3ec0b266	0.37636107
28	0xbf21e4be	-0.6323966
29	0xbdec1b21	-0.11528612
30	0x3ec5d756	0.3864085
31	0xbe5c6a25	-0.21524866
32	0xbe718cbf	-0.23588847
33	0x3eb08e72	0.34483677
34	0x3d7e3d66	0.062070273
35	0xbe7e2194	-0.24817497
36	0x3eb71838	0.35760665
37	0x3d77f5f7	0.060537305
38	0xbe2b20f7	-0.16711794
39	0x3ef9924e	0.48744434
40	0xbebb7c44	-0.36618245
41	0x3e070b5d	0.13187928
42	0xbe2dcef4	-0.16973478
43	0xbd91d660	-0.07120967
44	0xbe62f49b	-0.22163622
45	0xbeb2ddbe	-0.349348
46	0xbeb22494	-0.34793532
47	0x3ebcf505	0.36905685
48	0x3e8ce9cd	0.27522126
49	0xbcce806b	-0.025207719
50	0xbd719409	-0.058979068
51	0xbe44e8d5	-0.19229443
52	0x3f445afc	0.7670133
53	0xbdafe91d	-0.08589385
54	0xbdb61427	-0.088905625
55	0x3cdd6b59	0.027028726
56	0x3c22bd81	0.009932877
57	0xbe3a046b	-0.18165748
58	0x3dbbaf7c	0.0916433
59	0xbe7e3659	-0.2482542
60	0xbdb1eb89	-0.08687503
61	0x3ea9132d	0.33022442
62	0x3e83b74f	0.2572579
63	0xbebf37e6	-0.37347335
64	0xbeac2763	-0.336238
65	0x3e047a85	0.12937362
66	0x3ecaf7c6	0.3964216
67	0xbaed55fd	-0.0018107292
68	0xbf387b1d	-0.72062856
69	0xbe378247	-0.1792079
70	0xbf619e45	-0.88132125
71	0x3ed77a22	0.42085367
72	0x3d87197c	0.06596658
73	0xbb9c333c	-0.00476685
74	0x3dc84b2b	0.09779962
75	0xbec6dc22	-0.38839823
76	0x3c88f457	0.016718073
77	0x3ebebb1c	0.37252128
78	0xbeeaeeee	-0.45885414
79	0x3f05b579	0.5223003
80	0x3f1d7f5a	0.6152245
81	0x3ed7ebcd	0.4217209
82	0xbc81ec35	-0.015859703
83	0x3c0c14f7	0.00854992
84	0xbeb8d1cc	-0.36097562
85	0xbe423328	-0.18964827
86	0xbee50838	-0.44732833
87	0xbeac10fd	-0.3360671
88	0x3e2880ba	0.16455355
89	0xbe6fb7dd	-0.23409982
90	0xbea5bc23	-0.323701
91	0x3c3911b0	0.011295721
92	0x3e42f803	0.19039921
93	0x3e5fdb7a	0.21861067
94	0xbe84fa0e	-0.25972027
95	0x3dabb3ef	0.08383929
96	0x3dc8d6a0	0.098065615
97	0x3e360969	0.17777027
98	0x3d672096	0.05642756
99	0xbf87aa6b	-1.0598882
100	0xbdfc74cc	-0.12326965
101	0xbe9fdefe	-0.31224817
102	0x3eba25f7	0.3635709
103	0xbeada099	-0.3391159
104	0xbf06ce5a	-0.5265862
105	0xbeb876be	-0.36028093
106	0xbd9e461a	-0.077282146
107	0xbf09648b	-0.5366904
108	0xbef9af0c	-0.48766363
109	0x3d03a84d	0.032142926
110	0xbf43e63b	-0.7652318
111	0xbdbdaf67	-0.09261971
112	0x3e98b46d	0.29825154
113	0xbf0c5be7	-0.5482773
114	0xbf12e589	-0.5738149
115	0xbf3b8168	-0.73244333
116	0xbf0cddd8	-0.55026007
117	0xbe8f42d5	-0.27980676
118	0xbe601317	-0.21882282
119	0x3e44cf55	0.19219716
120	0xbe977867	-0.29584047
121	0x3e0afea0	0.13573694
122	0x3f0119bc	0.5042989
123	0xbeb0900f	-0.34484908
124	0xbebdfc10	-0.3710637
125	0xbe416a7b	-0.18888275
126	0x3e457615	0.19283326
127	0xbca42557	-0.020037336
128	0x3e9d4b6f	0.30721614
129	0x3e1b8178	0.15186107
130	0x3e94ff19	0.29100874
131	0x3e012f66	0.12615737
132	0xbdf6a54f	-0.12043249
133	0x3d6825fe	0.056676857
134	0x3e8983b3	0.2685829
135	0x3f211cf1	0.62934786
136	0xbe6cbf4e	-0.23119852
137	0xbf4a3d1a	-0.78999484
138	0x3f62ca34	0.8858979
139	0xbec2f301	-0.38076022
140	0xbeed7991	-0.4638181
141	0xbf899e0e	-1.075136
142	0xbeb31862	-0.3497954
143	0x3ec8e347	0.392359
144	0xbf03953a	-0.51399577
145	0x3f8bc37a	1.091903
146	0x3c82b6fd	0.015956396
147	0x3eb65991	0.3561521
148	0xbf210182	-0.62892926
149	0x3e08111c	0.13287777
150	0xbf04d07d	-0.5188063
151	0xbf3546c1	-0.70811087
152	0x3f1bf22f	0.6091642
153	0x3b7ea716	0.0038856915
154	0xbcfc645b	-0.030809572
155	0x3e9bc782	0.3042565
156	0xbf24d45f	-0.6438655
157	0xbe26ef90	-0.16302323
158	0x3e48f1ae	0.19623443
159	0x3dd69255	0.10477129
160	0x3f15cf87	0.58519787
161	0x3f51590f	0.8177652
162	0xbef42b2f	-0.47689196
163	0x3e3df421	0.18550159
164	0xbf018f37	-0.50609154
165	0xbeaf8920	-0.34284306
166	0x3ebed949	0.3727515
167	0xbecea23d	-0.40358153
168	0xbe6d07a1	-0.23147441
169	0x3f1c6479	0.6109081
170	0x3dc6818d	0.096926786
171	0x3db28baa	0.08718045
172	0x3bbc9c86	0.0057559637
173	0x3d8656be	0.065595135
174	0x3eeb3ed7	0.4594638
175	0x3f6c6b69	0.92351395
176	0x3f4dfc19	0.80462795
177	0xbf0891bd	-0.5334738
178	0x3ed1875b	0.4092358
179	0xbe8583ce	-0.26077121
180	0x3ebd0b0c	0.3692249
181	0xbeb402ed	-0.35158482
182	0x3e10d598	0.1414398
183	0x3e43c6a4	0.19118744
184	0xbe941651	-0.28923276
185	0xbf10c47d	-0.5654982
186	0x3f407455	0.7517751
187	0x3e6f2f8e	0.23357984
188	0x3f1d66d0	0.61485004
189	0x3d6cdd72	0.057828374
190	0x3f06d9a9	0.52675873
191	0x3f19196a	0.59804404
192	0xbe81239d	-0.25222483
193	0xbee29f3c	-0.4426211
194	0x3eaee5a6	0.34159583
195	0xbe95e225	-0.29274097
196	0xbe6a1bcd	-0.22862168
197	0xbe813b00	-0.25240326
198	0xbdb74ec9	-0.08950574
199	0x3f569eed	0.8383625
200	0xbca3c2f9	-0.019990431
201	0x3eb21458	0.34781146
202	0x3e32c6c7	0.1745864
203	0x3df6ddbb	0.120540105
204	0x3ef438bd	0.47699538
205	0xbdb41480	-0.087929726
206	0xbed2e259	-0.41188315
207	0x3ef9c973	0.48786506
208	0xbe75c62f	-0.24001382
209	0x3ecf2c89	0.40463665
210	0x38807b36	6.1264655e-05
211	0xbf770081	-0.96485144
212	0x3d9328ad	0.07185493
213	0xbf43f8b1	-0.7655135
214	0xbf1ba812	-0.6080333
215	0x3ed4cd31	0.415628
216	0x3f2dfa94	0.67960477
217	0xbf18ddf1	-0.59713656
218	0x3e9d39a8	0.3070805
219	0x3da97aa2	0.082753435
220	0x3eb96603	0.3621064
221	0x3dcbb848	0.09947258
222	0x3e361d3c	0.1778459
223	0xbef63e0c	-0.48094213
224	0x3ec47800	0.38372803
225	0x3e86a133	0.2629486
226	0xbee60d34	-0.44931948
227	0x3e81abed	0.2532648
228	0xbeb54769	-0.35406044
229	0xbe354def	-0.1770551
230	0x3ba2620e	0.0049555367
231	0xbe83f6dd	-0.2577428
232	0xbedd5f66	-0.43236846
233	0x3e6021ee	0.21887943
234	0xbef4e69c	-0.4783219
235	0xbe301112	-0.17194012
236	0x3e37e561	0.17958595
237	0x3e8b1e46	0.27171534
238	0x3e6f9ec0	0.23400402
239	0x3f009e78	0.50241804
240	0xbe80afee	-0.25134224
241	0xbeaf0352	-0.3418222
242	0xbeb39fc3	-0.35082826
243	0xbea8fe99	-0.33006743
244	0x3c317ac8	0.010832496
245	0xbe6d8037	-0.23193441
246	0xbdca197f	-0.09868144
247	0xbe20bbdd	-0.15696664
248	0xbd72a989	-0.059243713
249	0x3ed55ebd	0.41673842
250	0x3ee6deb4	0.45091784
251	0xbe8ab7f0	-0.27093458
252	0xbe8edd49	-0.27903202
253	0x3e9debf2	0.30844074
254	0xbe962b62	-0.29329973
255	0xbe1b5fe6	-0.15173301

lstm.weight_ih_l1 f4 [256, 64]
0	0xbd16e692	-0.036840983
1	0x3c7a85be	0.015290676
2	0x3d9f46f5	0.07777206
3	0xbe71fcaf	-0.23631547
4	0x3e5f525d	0.21808763
5	0x3e4b5075	0.1985491
6	0xbe4590e1	-0.19293548
7	0xbde3e0ae	-0.111268386
8	0x3eb7353e	0.35782808
9	0x38dff4a7	0.00010679039
10	0xbd71a5e4	-0.058996096
11	0x3e584759	0.21120967
12	0x3e53d764	0.20687634
13	0xbc23ad32	-0.009990023
14	0xbd858291	-0.06519044
15	0xbe58c8dc	-0.21170372
16	0xbd37cf0d	-0.044875193
17	0xbef24483	-0.47317895
18	0x3e3e75fb	0.18599693
19	0xbeaf8a56	-0.3428523
20	0x3b855646	0.0040691225
21	0xbe135aeb	-0.14390151
22	0xbe206e40	-0.15667057
23	0x3d8403bd	0.064460255
24	0xbda3d489	-0.07999522
25	0x3dabac6c	0.08382496
26	0x3c9b29d8	0.018940851
27	0x3d85021b	0.06494542
28	0xbe121565	-0.14265974
29	0x3e88ba82	0.26704794
30	0xbd62d6a1	-0.055380467
31	0x3d90162c	0.07035479
32	0xbe10e02f	-0.14148019
33	0xbea435e5	-0.32072368
34	0xbd83ed6f	-0.06441771
35	0x3d9d7a15	0.07689301
36	0xbdd4fa42	-0.103992954
37	0x3e49c312	0.1970332
38	0xbdca4cc1	-0.09877921
39	0xbe15723a	-0.14594355
40	0xbd64bf65	-0.05584659
41	0xbcec32ea	-0.028832871
42	0xbe4214c7	-0.18953238
43	0xbb881455	-0.0041528144
44	0x3dea7460	0.11447978
45	0xbe63d71d	-0.22250028
46	0xbe593314	-0.21210891
47	0xbe4d1982	-0.20029262
48	0xbde4b9ec	-0.11168274
49	0x3b94c31c	0.0045398604
50	0xbe4c577c	-0.19955248
51	0xbd45ed58	-0.04832205
52	0xbe91da95	-0.28487077
53	0xbc090e41	-0.008365215
54	0xbe2d5d05	-0.16930015
55	0x3c49294e	0.012277914
56	0x3cf11906	0.029430877
57	0xbea924aa	-0.33035785
58	0xbe91d43d	-0.28482237
59	0x3e9dc937	0.30817577
60	0xbd77a0b1	-0.06045598
61	0x3c76f0eb	0.015072088
62	0xbd28314c	-0.04106264
63	0xbdd2538c	-0.102698416
64	0xbe2709ba	-0.16312304
65	0x3d978367	0.0739811
66	0xbe170bb2	-0.14750555
67	0xbe9f9191	-0.31165746
68	0x3df3a8ac	0.11897406
69	0x3d90f0ef	0.070772044
70	0x3e4be631	0.1991203
71	0x3e88f45d	0.26748934
72	0x3e27ec79	0.16398801
73	0xbd9ff53e	-0.07810448
74	0x3e285e1f	0.16442154
75	0xbd84c8ff	-0.064836495
76	0xbda6fc2a	-0.08153565
77	0x3e3f7f2d	0.18700857
78	0xbf20a146	-0.62746084
79	0x3e4e7bef	0.20164464
80	0xbdfac79c	-0.12245104
81	0xbe7abf6b	-0.24487083
82	0xbe42ad5f	-0.19011448
83	0x3e8b81c9	0.27247456
84	0xbe33ba91	-0.17551638
85	0x3e319e9e	0.17345664
86	0x3c0976c4	0.008390132
87	0x3e47726b	0.1947724
88	0xbd9a9b7e	-0.07549189
89	0xbcfb86a5	-0.030703852
90	0x3e54d2bd	0.20783515
91	0x3def2d75	0.11678592
92	0xbe809197	-0.25111076
93	0x3db01827	0.08598357
94	0x3e128a6d	0.14310618
95	0xbe10658f	-0.14101242
96	0xbe0974eb	-0.13423507
97	0xbe721298	-0.23639905
98	0xbe2b65f8	-0.16738117
99	0x3e3cc3c7	0.18434058
100	0x3e77d200	0.24201202
101	0x3dccb54b	0.099955164
102	0xbd16c458	-0.03680834
103	0xbe72dc1c	-0.23716778
104	0xbea063ec	-0.31326234
105	0xbeb9fad3	-0.36324176
106	0x3d661f21	0.05618203
107	0xbdfadfb5	-0.122497
108	0xbd5073e8	-0.050891787
109	0x3e5044a9	0.20338692
110	0xbeb1f513	-0.3475729
111	0x3e5fc1bd	0.21851249
112	0xbeb0e7ce	-0.34551853
113	0x3e2eb534	0.17061311
114	0xbe5b8ead	-0.21441145
115	0xbeff5ec7	-0.49876997
116	0xbee83952	-0.45356232
117	0xbec7c637	-0.39018413
118	0xbe765c30	-0.24058604
119	0xbc575593	-0.013142961
120	0x3e2a2e73	0.16619281
121	0xbb21a94a	-0.0024667555
122	0xbdb870ee	-0.09005915
123	0x3e4eeb22	0.20206884
124	0xbefb0002	-0.49023443
125	0x3e1a7df2	0.15087107
126	0xbd8587ca	-0.0652004
127	0x3d321aca	0.04348258
128	0xbdb3d9b2	-0.087817565
129	0x3ccedad5	0.025250832
130	0xbe85ffa4	-0.261716
131	0x3e7262a2	0.23670438
132	0xbd2e5958	-0.042565674
133	0x3dc99f56	0.09844844
134	0x3df8741f	0.12131523
135	0xbd50cc63	-0.05097617
136	0x3bfd3ed7	0.0077284384
137	0xbe523ce7	-0.20531045
138	0xbe906995	-0.28205553
139	0x3d3702c8	0.044680387
140	0xbd765d17	-0.06014737
141	0xbd0ced02	-0.034405716
142	0xbec2dba9	-0.38058212
143	0x3e722dd1	0.2365029
144	0xbcaef20e	-0.021355655
145	0xbe92cab3	-0.28670272
146	0x3ec124f2	0.377235
147	0x3da4c8ad	0.08046088
148	0x3da14c4e	0.07875882
149	0xbc8dd1d5	-0.01731197
150	0xbee8642c	-0.45388925
151	0x3e6aa333	0.22913818
152	0xbddd58a6	-0.10807924
153	0x3e3c162a	0.1836783
154	0xbd87ad90	-0.06624901
155	0xbe4aae0a	-0.19792953
156	0x3e2090a2	0.15680173
157	0xbd76a909	-0.0602198
158	0xbea6e99d	-0.32600108
159	0x3e578899	0.21048202
160	0x3e83632e	0.25661606
161	0x3e10fb4b	0.1415836
162	0x3efd0f06	0.49425524
163	0x3e963da4	0.29343903
164	0x3e79c282	0.24390605
165	0x3e0140f8	0.1262244
166	0xbc7fff56	-0.015624842
167	0xbe4ed2e9	-0.20197643
168	0xbe4b05aa	-0.1982638
169	0x3f09e4c2	0.5386468
170	0xbe013817	-0.12619053
171	0x3e056881	0.13028146
172	0x3e00d115	0.12579758
173	0xbda2caeb	-0.0794886
174	0xbc2f8824	-0.010713611
175	0xbe70b38c	-0.23505992
176	0xbd2887d6	-0.04114517
177	0xbe1d07e9	-0.15335049
178	0x3d8f1f74	0.06988421
179	0xbda61e0c	-0.081112
180	0x3eb3da2d	0.35127392
181	0xbee2eebf	-0.44322774
182	0x3e8f074a	0.2793525
183	0x3e5e6384	0.2171765
184	0x3df3b985	0.119006194
185	0xbe04350f	-0.12910865
186	0x3e54eecc	0.20794219
187	0xbde8dff4	-0.11370841
188	0xbf1e29c5	-0.61782485
189	0xbe3ffd62	-0.18749002
190	0x3e1cc04e	0.15307733
191	0xbe808f25	-0.2510921
192	0x3e0a380c	0.13497943
193	0xbe037959	-0.12839259
194	0xbdb042e0	-0.086065054
195	0x3ea8a788	0.32940316
196	0x3cddfb88	0.027097479
197	0xbedfc6c4	-0.43706334
198	0xbd68d322	-0.056841977
199	0x3e96e7b3	0.29473647
200	0xbea15676	-0.31511277
201	0xbe5ffe15	-0.21874268
202	0xbe4aa93a	-0.19791117
203	0xbefc879e	-0.49322218
204	0xbd0f5c30	-0.035000026
205	0xbe086da9	-0.13323082
206	0x3cda1de9	0.02662559
207	0x3e1f0c1f	0.15531968
208	0xbcde09e5	-0.027104327
209	0x3dc340d0	0.095338464
210	0x3e6158de	0.22006556
211	0x3f0cd17b	0.5500714
212	0x3ea3e35c	0.320094
213	0x3d862afa	0.06551166
214	0xbe4fb2cb	-0.20283048
215	0x3e959c64	0.2922088
216	0x3cca55ca	0.02469911
217	0x3e8c66dd	0.27422228
218	0x3da5d81d	0.08097861
219	0x3e2fbe3d	0.17162414
220	0xbe4f434e	-0.20240518
221	0x3d8a2dd5	0.06747023
222	0x3e7ec463	0.24879603
223	0x3e718c51	0.23588683
224	0x3e2992d7	0.16559921
225	0xbd66098b	-0.056161445
226	0xbdc9d879	-0.09855742
227	0xbe34290a	-0.1759378
228	0xbe53ff54	-0.20702869
229	0xb9083506	-0.00012989723
230	0x3dda173f	0.10648965
231	0xbf170c11	-0.59002787
232	0x3dae382e	0.08506809
233	0x3e46a797	0.19399868
234	0x3d4e0b65	0.050303835
235	0xbee747d2	-0.45171982
236	0xbdbdc808	-0.092666686
237	0x3d1b79d4	0.03795798
238	0x3edb9792	0.42889076
239	0x3d165fd4	0.036712483
240	0x3e16e7ed	0.1473691
241	0x3e24ed1d	0.16106077
242	0xbcd2a810	-0.025714904
243	0x3e817b4f	0.2528939
244	0xbdbb7ea5	-0.09155015
245	0x3e8f4eb7	0.27989742
246	0x3c0d03ad	0.008606833
247	0x3e4baa82	0.19889262
248	0x3ead262c	0.33818185
249	0x3efd270e	0.4944386
250	0xbd39bfeb	-0.045349043
251	0xbf447408	-0.7673955
252	0x3d32fd74	0.043698743
253	0x3dbe5446	0.09293418
254	0xbe81fd99	-0.25388792
255	0x3e7e8e04	0.24858862

lstm.weight_hh_l1 f4 [256, 64]
0	0x3eda2c1b	0.42611775
1	0xbe9ee963	-0.31037435
2	0x3e6bd8c4	0.23031908
3	0xbd970735	-0.073744215
4	0xbc24a196	-0.010048291
5	0xbe073a73	-0.1320589
6	0xbe212787	-0.15737735
7	0xbde1e4f6	-0.11029999
8	0x3de4350a	0.11142929
9	0xbf0e6ede	-0.5563792
10	0xbe166358	-0.14686334
11	0x3dae982e	0.0852512
12	0x3e7da6bb	0.24770634
13	0x3db9bf10	0.090696454
14	0x3e256a3a	0.16153803
15	0x3ea095b3	0.3136421
16	0x3c70b741	0.014692129
17	0xbdf2416e	-0.11828886
18	0xbe3e71c0	-0.1859808
19	0x3d03957b	0.032124978
20	0xbf512c86	-0.8170856
21	0xbd9931d7	-0.07480209
22	0x3dfda71b	0.123853885
23	0x3e8d6b02	0.27620703
24	0x39bd82bb	0.0003614629
25	0xbc454666	-0.01204071
26	0xbdc9ec5b	-0.09859534
27	0xbd344ce3	-0.044018637
28	0xbea65688	-0.32487893
29	0xbd40de88	-0.047087222
30	0x3e4cbb45	0.19993313
31	0xbd19ec53	-0.037578892
32	0xbef5a3f3	-0.47976646
33	0x3e886d80	0.26646042
34	0xbd8c69f7	-0.06856149
35	0xbd89e892	-0.067338124
36	0x3d551dc5	0.052030344
37	0xbe0bad8b	-0.1364042
38	0x3e84102c	0.25793588
39	0xbe885f2a	-0.26635104
40	0x3e81fa7a	0.2538641
41	0x3ca4cc26	0.020116877
42	0x3ee80446	0.4531576
43	0x3ec62c46	0.38705653
44	0x3e66b2fe	0.22529218
45	0xbec8b0fa	-0.39197522
46	0x3deb995f	0.115038626
47	0x3d5ea1af	0.054353412
48	0xbee9858a	-0.45609695
49	0xbe93f7b5	-0.28899923
50	0x3ea67ed4	0.32518637
51	0xbe629c1c	-0.22129864
52	0x3ec5b61b	0.38615498
53	0xbe889500	-0.26676178
54	0xbe1f1d4d	-0.15538521
55	0xbe92ad65	-0.28647915
56	0xbee6bcee	-0.45066017
57	0xbe89de70	-0.2692752
58	0x3e49c1d7	0.1970285
59	0xbcaa0e24	-0.020758696
60	0xbdde9f57	-0.108702354
61	0xbd63d5b4	-0.055623725
62	0xbea22dfd	-0.3167571
63	0xbeeb7119	-0.45984724
64	0x3da1649a	0.07880516
65	0x3e348b03	0.17631154
66	0x3ed32baa	0.4124425
67	0xbee21795	-0.44158617
68	0x3cbe423c	0.023224942
69	0xbd485305	-0.0489073
70	0x3d4077cf	0.04698926
71	0xbd3bc950	-0.045846283
72	0xbe975802	-0.29559332
73	0x3d7f8560	0.062383056
74	0x3db5f48d	0.08884535
75	0x3d197fd1	0.03747541
76	0x3da4b1fd	0.08041761
77	0x3e2f97a1	0.17147686
78	0xbe5caf36	-0.21551213
79	0xbdefccdb	-0.11708995
80	0x3e20b13d	0.15692611
81	0xbdf5c538	-0.12000507
82	0xbec0071d	-0.37505427
83	0xbc3f4f52	-0.011676626
84	0xbe383c7e	-0.17991826
85	0x3eeb7c9b	0.45993504
86	0xbe9da2a2	-0.3078814
87	0x3d12fd7c	0.035886273
88	0xbdac0cd6	-0.08400886
89	0xbec8da9a	-0.3922928
90	0xbd46d434	-0.048542216
91	0xbc8ee84b	-0.01744475
92	0xbec50231	-0.38478234
93	0x3e820bf9	0.2539976
94	0x3eb1c068	0.34717107
95	0xbf1845ca	-0.5948149
96	0x3e8476ef	0.2587199
97	0x3e491705	0.19637688
98	0x3eca004d	0.39453354
99	0x3ebe406e	0.3715853
100	0x3e9d8759	0.30767325
101	0xbecb348e	-0.39688534
102	0x3ef2f8e6	0.4745552
103	0x3e6879b8	0.22702682
104	0xbeaee74c	-0.3416084
105	0x3d21ae76	0.03947302
106	0x3ea0c1ab	0.31397757
107	0xbde4c33b	-0.1117005
108	0x3e97407d	0.29541388
109	0xbdfc6bcb	-0.123252474
110	0xbe15efb0	-0.14642215
111	0xbe889765	-0.26678005
112	0x3d512f65	0.05107059
113	0x3dcbfa88	0.099598944
114	0x3f089ae8	0.5336137
115	0xbf7437be	-0.95397556
116	0x3efcd848	0.4938376
117	0x3d90fd46	0.07079558
118	0xbc91b7c8	-0.017787829
119	0xbc2fcf83	-0.010730627
120	0xbdcef2c3	-0.10104897
121	0x3a1d7550	0.00060065556
122	0x3e774892	0.24148777
123	0xbe703d55	-0.23460896
124	0x3d4da2ee	0.05020421
125	0xbdad1840	-0.08451891
126	0x3ec1f2f5	0.37880674
127	0x3e2c7cf2	0.16844538
128	0xbf0c289d	-0.5474947
129	0xbdde4628	-0.10853225
130	0xbe0da35d	-0.1383185
131	0x3d98ed0d	0.07467089
132	0xbe755f5a	-0.23962155
133	0x3d29dc9a	0.041470148
134	0xbdc0c143	-0.09411862
135	0xbc056c3d	-0.008143482
136	0xbde71525	-0.1128333
137	0xbec01566	-0.37516326
138	0x3f0a28ec	0.5396869
139	0xbcbb8684	-0.02289129
140	0xbd87c6a5	-0.06629685
141	0x3e638a50	0.22220731
142	0xbed1742c	-0.40908945
143	0xbe09d5ee	-0.13460514
144	0x3dfb785a	0.122788146
145	0x3f06780c	0.52526927
146	0xbec5cf49	-0.3863471
147	0xbc512197	-0.012764356
148	0x3e8dfd10	0.27732134
149	0x3ec0d0b1	0.3765922
150	0xbe0b896f	-0.13626646
151	0x3e9188c7	0.28424665
152	0x3e33e17f	0.17566489
153	0xbe371a64	-0.17881161
154	0xbe1c01cc	-0.1523506
155	0x3ed1a34c	0.40944898
156	0x3ebd746c	0.37002885
157	0xbe5ab8e7	-0.21359597
158	0xbd6e449d	-0.058170903
159	0xbe0d6615	-0.13808472
160	0xbeb68a0c	-0.35652196
161	0x3e10c348	0.14136994
162	0x3d4589df	0.048227187
163	0xbbe8a666	-0.0070999144
164	0xbd16dbdc	-0.036830768
165	0xbe2cc462	-0.16871789
166	0xbe3e2654	-0.18569309
167	0x3d3b7107	0.04576209
168	0xbddbba46	-0.10728888
169	0x3d10a55d	0.035313953
170	0x3dea9c78	0.11455625
171	0xbb9d04b8	-0.0047918223
172	0xbde11556	-0.10990398
173	0x3e9775ca	0.29582053
174	0x3e02d7fe	0.12777707
175	0xbe2cf847	-0.16891585
176	0x3dfad8e5	0.122484006
177	0x3dc18965	0.09450034
178	0x3e7d3953	0.24728899
179	0xbe3aabad	-0.18229552
180	0x3e829036	0.2550065
181	0x3e1685c4	0.14699465
182	0x3e3c7f65	0.18407972
183	0xbeacab6c	-0.33724535
184	0x3d2f6849	0.042824063
185	0x3e75c3ca	0.24000469
186	0x3dc9c62c	0.098522514
187	0xbdd90ecc	-0.105985254
188	0xbe41537a	-0.188795
189	0xbd9af2d6	-0.075658485
190	0x3e2c4c7d	0.16826053
191	0xbe3292d2	-0.1743882
192	0xbe096f0a	-0.13421264
193	0xbd79391f	-0.06084549
194	0x3e599160	0.21246862
195	0x3df43366	0.11923866
196	0xbe67de69	-0.22643436
197	0x3e5d6389	0.21620001
198	0x3ec5ab79	0.38607386
199	0x3ed54f68	0.41662145
200	0xbef31233	-0.47474822
201	0xbcf1c576	-0.029513102
202	0x3f129f3b	0.57274216
203	0xbd86a161	-0.06573749
204	0xbd74d917	-0.059777346
205	0x3e5476df	0.2074847
206	0x3cb0f9e6	0.021603536
207	0xbd30ab82	-0.043132313
208	0xbc204797	-0.009782693
209	0x3d643560	0.055714965
210	0xbedabe4e	-0.42723316
211	0x3eebef76	0.46081132
212	0x3ea61245	0.32435814
213	0x3ead63ea	0.3386529
214	0xbc861385	-0.01636673
215	0x3df47718	0.11936778
216	0x3ee28b1a	0.4424675
217	0xbe534175	-0.20630439
218	0x3cb958df	0.022625385
219	0x3d6505a3	0.05591358
220	0x3e7de956	0.24796042
221	0xbcebddd8	-0.028792307
222	0xbedb62be	-0.42848772
223	0xbe546257	-0.20740639
224	0xbdb95830	-0.090500236
225	0x3d8b8a49	0.06813485
226	0xbe921fb8	-0.28539824
227	0x3e4ae39e	0.19813392
228	0xbe2c3e51	-0.16820647
229	0x3e83f66c	0.25773942
230	0xbee9171c	-0.45525444
231	0x3f25229e	0.64505947
232	0x3f13c6a0	0.5772495
233	0xbe2c5443	-0.16829018
234	0x3ea3076c	0.318416
235	0xbdcf367a	-0.101178125
236	0xbd6a584d	-0.057213116
237	0xbdf6be09	-0.12047965
238	0x3ce9f794	0.028560437
239	0xbe303495	-0.17207558
240	0xbe5e8a89	-0.21732534
241	0x3d76d227	0.06025901
242	0x3e8f7e5e	0.28026098
243	0x3e772969	0.2413689
244	0xbce3a6ff	-0.02778959
245	0x3dcb7b7b	0.099356614
246	0x3ea4f548	0.32218385
247	0x3e13fea0	0.144526
248	0x3ea4e812	0.32208306
249	0x3efbb897	0.49164268
250	0x3eab895c	0.33503234
251	0xbf0b13e0	-0.543272
252	0x3e1e19e8	0.1543957
253	0xbebea0a8	-0.37231946
254	0x3e95bcba	0.2924555
255	0xbe3af548	-0.1825763

lstm.bias_ih_l1 f4 [256]
0	0xbece8c5d	-0.40341464
1	0x3d42d8a4	0.047569886
2	0x3e2548dc	0.16141075
3	0x3e1eac5d	0.15495439
4	0xbe4129e8	-0.18863642
5	0xbe8bad48	-0.2728064
6	0xbdffb7fe	-0.124862656
7	0xbe96ed6f	-0.29478022
8	0xbca4f770	-0.020137519
9	0xbe0a124f	-0.13483547
10	0xbe542c72	-0.2072008
11	0xbe941e58	-0.289294
12	0x3dd29be6	0.102836415
13	0xbe2837ed	-0.16427584
14	0xbe970b07	-0.295006
15	0xbd106874	-0.035255864
16	0xbd837bff	-0.06420135
17	0xbde25b66	-0.11052589
18	0xbbccd2c5	-0.0062507116
19	0xbe9b2106	-0.30298632
20	0x3e21990d	0.1578104
21	0xbeb8d2ca	-0.3609832
22	0xbdf280dd	-0.11840985
23	0xbe51597c	-0.20444292
24	0xbe0801ae	-0.13281891
25	0xbe817ef0	-0.25292158
26	0xbe39b22d	-0.18134375
27	0xbe5684c7	-0.20949088
28	0xbbc5cdd4	-0.0060364995
29	0xbdcedf47	-0.101011805
30	0x3d41fdfc	0.04736136
31	0x3c2561d1	0.010094122
32	0x3e2985b8	0.16554916
33	0x3cd9606c	0.026535235
34	0xbec47644	-0.3837148
35	0xbe1669f6	-0.14688858
36	0xbdef56d2	-0.116864815
37	0xbe99c304	-0.30031598
38	0xbd716327	-0.05893245
39	0xbe9a524b	-0.3014091
40	0xbdfa32ad	-0.12216697
41	0xbe87f5a9	-0.2655461
42	0x3ce67cf3	0.028135752
43	0xbd43063e	-0.047613375
44	0xbe0155dc	-0.12630409
45	0xbe5c20a0	-0.2149682
46	0xbe834f9f	-0.25646684
47	0xbe5ca839	-0.21548547
48	0xbe303fe1	-0.17211868
49	0xbe6adb29	-0.22935165
50	0xbe8e40e4	-0.27783883
51	0xbd9c34ef	-0.07627284
52	0xbe55089d	-0.20804067
53	0xbdbcf06f	-0.092255466
54	0xbd8730d1	-0.06601108
55	0xbe5a8c05	-0.21342476
56	0xbd07497f	-0.033029076
57	0xbcc71050	-0.02429977
58	0xbe5b2d81	-0.21404077
59	0xbdfdda13	-0.1239511
60	0xbe296317	-0.16541706
61	0x3dd02f97	0.10165327
62	0xbd5d977e	-0.054099552
63	0xbe2ed375	-0.17072852
64	0x3ea24847	0.31695768
65	0xbe9ab74a	-0.30217963
66	0xbde238d9	-0.11045999
67	0xbeb13d1d	-0.34616938
68	0x3ed76d58	0.4207561
69	0x3ec80c13	0.39071712
70	0xbe75bbfc	-0.23997492
71	0xbdbe2859	-0.092850395
72	0xbe60d660	-0.21956778
73	0xbe57c908	-0.21072781
74	0x3d44a5a2	0.048009522
75	0xbce8e939	-0.028431522
76	0xbdf52a48	-0.11970955
77	0xbd86e92a	-0.06587441
78	0x3e8d7092	0.27624947
79	0xbe92fa74	-0.28706706
80	0xbe03cd9c	-0.12871403
81	0x3ced313f	0.028954146
82	0xbe0db1f8	-0.13837421
83	0x3dfbaa3c	0.12288329
84	0xbdc88f94	-0.0979301
85	0x3e79ac07	0.2438203
86	0x3cac8464	0.021059223
87	0x3cca54eb	0.024698695
88	0x3d343e63	0.04400481
89	0xbe9b11dc	-0.30287063
90	0x3e6e1834	0.2325142
91	0xbd8193be	-0.06327008
92	0x3e18d8cb	0.1492645
93	0xbe8cfc9f	-0.27536485
94	0xbe749d40	-0.23888111
95	0xbd2031aa	-0.039109863
96	0xbe2585cf	-0.16164325
97	0xbe965f9b	-0.29369816
98	0x3e7cba86	0.24680528
99	0x3e85a4e9	0.2610238
100	0xbc534bd2	-0.012896495
101	0x3e00e336	0.12586674
102	0xbe18dbb0	-0.14927554
103	0x3db94b3f	0.09047555
104	0xbdcfac8d	-0.10140333
105	0x3e0260e3	0.12732272
106	0x3c1ff5d2	0.009763198
107	0x3df81631	0.12113608
108	0x3dd4ffb1	0.10400332
109	0x3e24d9cf	0.16098712
110	0x3de9baf8	0.114126146
111	0xbd84bf31	-0.06481779
112	0xbda7fbdf	-0.082023375
113	0xbdf0ec7a	-0.11763854
114	0x3de800ef	0.11328303
115	0xbe7d34b4	-0.24727136
116	0xbe94a07c	-0.2902869
117	0x3e58dee3	0.21178775
118	0xbe3e1376	-0.18562111
119	0x3ce47523	0.027887886
120	0x3d99a722	0.07502581
121	0x3ea904e9	0.3301156
122	0x3e0f7612	0.14009884
123	0x3d99a688	0.075024664
124	0x3e6bffca	0.23046795
125	0x3bb0e539	0.005398419
126	0x3de7f076	0.11325161
127	0xbe49872e	-0.19680473
128	0x3e6c8bc2	0.23100188
129	0x3e8a97f8	0.27069068
130	0xbc3c1a53	-0.011480886
131	0xbdb9f563	-0.09080007
132	0x3e128e54	0.14312106
133	0x3db877dd	0.09007237
134	0x3d0ea2f9	0.03482339
135	0xbd3a2c32	-0.045452304
136	0xbd25e922	-0.040505536
137	0x3d87725b	0.066136084
138	0x3db9d40d	0.090736486
139	0xbe3fc2f1	-0.18726708
140	0xbe4eaabc	-0.20182317
141	0x3da2075c	0.0791156
142	0x3df740f9	0.120729394
143	0x3d93bcc4	0.072137386
144	0x3d2a9a9a	0.041651346
145	0x3dd4769c	0.103741854
146	0xbdff3e2c	-0.1246303
147	0xbd16fb68	-0.036860853
148	0x3dccd107	0.10000806
149	0xbe24252d	-0.16029806
150	0xbd8c0623	-0.06837108
151	0xbcf58a16	-0.029973071
152	0xbcd11dac	-0.025526844
153	0x3cee0f88	0.02906014
154	0x3d827bb8	0.06371254
155	0xbd62c542	-0.0553639
156	0xbc93a06d	-0.018020833
157	0xbd49b525	-0.04924502
158	0x3d34f35d	0.0441774
159	0xbe45b984	-0.1930905
160	0x3c99786d	0.018734181
161	0x3d29456c	0.04132597
162	0xbd9b9a84	-0.07597831
163	0xbe674e86	-0.22588548
164	0x3da5726d	0.080784656
165	0xbcb0a62f	-0.021563618
166	0xbd80e3f2	-0.06293477
167	0x3e1fac45	0.1559306
168	0x3d755036	0.05989095
169	0x3ddc3bcb	0.10753592
170	0xbdfc8b8b	-0.12331303
171	0x3db56d80	0.08858776
172	0x3b7840dd	0.0037880458
173	0x3d2ea8e8	0.04264155
174	0x3a92f8d3	0.0011213071
175	0xbc865796	-0.016399186
176	0x3e004f17	0.1253017
177	0x3e36a904	0.17837912
178	0xbe6604ef	-0.2246282
179	0xbd1d23df	-0.038364287
180	0x3d497836	0.049186908
181	0x3cf35286	0.029702436
182	0x3e115266	0.14191589
183	0xbe252a6b	-0.16129462
184	0x3eb48867	0.35260317
185	0x3ea214b0	0.31656408
186	0xbe239f31	-0.15978695
187	0x3c23ba1e	0.009993104
188	0xbccc5a87	-0.02494551
189	0x3eb2c237	0.349138
190	0x3db84b86	0.0899878
191	0x3e7987ca	0.24368206
192	0x3d8c2576	0.068430826
193	0x3ecca0f2	0.39966542
194	0x3eb48ecc	0.35265195
195	0x3e61a832	0.22036818
196	0x3cfc6392	0.030809198
197	0x3e235768	0.15951312
198	0x3df0b23e	0.11752747
199	0x3dd51635	0.10404626
200	0x3ddc2ef2	0.107511416
201	0x3e42c726	0.19021282
202	0x3d06c378	0.032901257
203	0xbe2beb49	-0.16788973
204	0x3e8a9e87	0.27074072
205	0x3daaa371	0.08331955
206	0xbdc15adb	-0.094411574
207	0x3e4e4b17	0.20145832
208	0x3e646b85	0.2230664
209	0xbd34f5ab	-0.0441796
210	0x3c059b60	0.00815472
211	0x3e05a36c	0.13050622
212	0x3ed72d5f	0.42026803
213	0xbcca4242	-0.024689797
214	0x3e5ab45c	0.21357864
215	0x3df1f295	0.11813847
216	0x3e8c792d	0.274362
217	0xbda5408a	-0.080689505
218	0x3e426f1d	0.18987699
219	0xba46604c	-0.000756745
220	0x3d019edd	0.031645644
221	0x3d973ecb	0.07385024
222	0x3eca6d76	0.39536637
223	0x3dc5c08e	0.096558675
224	0x3ea931a3	0.33045682
225	0x3d18fc18	0.03734979
226	0x3d1e370c	0.038626716
227	0x3f013331	0.50468737
228	0x3e44d39e	0.1922135
229	0x3e16bd2c	0.14720601
230	0x3e085c15	0.13316377
231	0xbd800860	-0.062515974
232	0x3e3dd7b5	0.18539317
233	0x3e9083d8	0.2822559
234	0x3ee97df6	0.45603913
235	0x3e4ca496	0.1998466
236	0x3e8d3ca3	0.27585325
237	0x3e5358a4	0.20639282
238	0x3e5423e3	0.20716815
239	0x3dcbe69d	0.09956095
240	0xbe16f5eb	-0.14742248
241	0x3daa627d	0.083195664
242	0x3ddecdda	0.10879107
243	0xbda833d8	-0.082130134
244	0xbd738b5b	-0.05945907
245	0x3e3b3109	0.18280424
246	0x3db41d3e	0.0879464
247	0x3eaac986	0.33356875
248	0x3e66c08e	0.22534391
249	0x3e8f2fd5	0.2796618
250	0x3e14cd5a	0.1453146
251	0x3c1dadfd	0.009624002
252	0x3ef4ecbb	0.4783686
253	0x3de04550	0.1095072
254	0x3e88fe88	0.26756692
255	0xbe1c573b	-0.15267651
