models/good_model_ep14_ac98.ckpt (torch_old, 346485 bytes, 14 tensors)

lstm.weight_ih_l0 f4 [256, 8]
0	0x3ddc4726	0.10755758
1	0x3c1f39d5	0.009718378
2	0xbd7184d4	-0.058964565
3	0xbdb61336	-0.08890383
4	0xbdf377b5	-0.11888067
5	0xbd62815f	-0.05529916
6	0xbc5b56f1	-0.013387428
7	0x3d0ec415	0.034854967
8	0x3d076ee5	0.03306474
9	0x3d73b085	0.059494514
10	0x3d963dd0	0.073360085
11	0x3cbc00b9	0.022949563
12	0xbd2d073b	-0.042243224
13	0xbd88b4ec	-0.06675133
14	0xbe3f9e7d	-0.18712802
15	0xbde4c741	-0.11170817
16	0x3dfb2cd9	0.122644134
17	0x3d944db9	0.07241387
18	0xbd1bb8ca	-0.038018025
19	0x3cef9354	0.029245056
20	0xbd76f745	-0.06029441
21	0xbd974e6b	-0.07388004
22	0x3dc977a4	0.09837273
23	0x3d9740ab	0.07385381
24	0x3ced50ca	0.028969187
25	0xbc8a602b	-0.01689156
26	0xbd3abf33	-0.045592498
27	0xbc93efce	-0.018058684
28	0xbd556b6d	-0.052104402
29	0x3e5152b7	0.2044171
30	0x3bdc7eb2	0.0067289704
31	0xbdace4c1	-0.08442069
32	0x3d99eef1	0.075162776
33	0xbe076a35	-0.13224109
34	0x39d9ee5f	0.00041567066
35	0xbde417aa	-0.11137326
36	0x3d309213	0.043108057
37	0xbe13c228	-0.14429533
38	0x3c3064e0	0.010766238
39	0xbe1adafe	-0.15122601
40	0x3d0fbbd1	0.035091225
41	0x3e0270e4	0.12738377
42	0xbdf46ae3	-0.119344495
43	0xbdd50bfd	-0.10402677
44	0x3dcf723a	0.10129209
45	0x3c2dea88	0.010614999
46	0xbde1a375	-0.11017505
47	0x3d8a97dc	0.06767246
48	0x3e1176c9	0.14205469
49	0x3bb9650b	0.005657797
50	0x3da3117e	0.07962321
51	0xbe0a9599	-0.1353363
52	0x3d8fbcda	0.070184425
53	0xbd7a295d	-0.061074603
54	0xbc7a5c4e	-0.015280796
55	0xbdd7b33e	-0.105322346
56	0xbdba3628	-0.09092361
57	0xbdc58d7d	-0.096461274
58	0xbdd30fb1	-0.10305727
59	0xbd90bee2	-0.07067658
60	0xb9e81fe0	-0.00044274237
61	0x3db363aa	0.08759244
62	0xbdc767d3	-0.097366
63	0x3dc270ea	0.09494193
64	0xbd7c8fc1	-0.061660532
65	0xbda6a477	-0.08136838
66	0x3d18803c	0.03723167
67	0xbd40bffa	-0.047058083
68	0x3d70e503	0.058812153
69	0xbdfbaa11	-0.12288297
70	0xbdc41bda	-0.09575625
71	0xb9bfcd43	-0.0003658329
72	0xbe15e291	-0.1463721
73	0x3de74518	0.112924755
74	0xbd34c412	-0.0441323
75	0x3c1afd6d	0.0094598355
76	0xbe1fe960	-0.15616369
77	0x3e251080	0.16119576
78	0xbe0fc670	-0.14040542
79	0xbd35bf89	-0.044372115
80	0x3db22803	0.08699038
81	0xbdb39c68	-0.087700665
82	0x3dc32fcc	0.09530601
83	0x3cbb1f8b	0.02284219
84	0xbd156ca9	-0.03648058
85	0x3e0a13ea	0.13484159
86	0xbdde9da7	-0.108699135
87	0x3de31889	0.11088664
88	0xbbce522f	-0.006296418
89	0x3dfa9040	0.12234545
90	0x3b85c1df	0.004081949
91	0x3d936210	0.07196438
92	0xbda98136	-0.08276598
93	0x3e10af85	0.14129455
94	0x3dc005b7	0.0937609
95	0xbc4cd400	-0.012501717
96	0x3d340c5a	0.043957092
97	0x3d2c1761	0.042014483
98	0xbd46af0d	-0.048506785
99	0xbd98c5a8	-0.07459575
100	0x3df8dd5b	0.12151595
101	0xbc24de4d	-0.010062766
102	0xbd8f1663	-0.06986692
103	0x3d5bed9d	0.053693403
104	0x3b83ef17	0.0040263045
105	0x3d5a0488	0.053226978
106	0x3cfaa788	0.030597463
107	0xbdd033f0	-0.10166156
108	0xbdb670b8	-0.08908218
109	0x3d712cf0	0.058880746
110	0x3bf8a82f	0.0075884084
111	0x3e044fe9	0.12921108
112	0x3bcc307d	0.006231366
113	0xbdb3b15a	-0.087740615
114	0x3cb8e4cb	0.022570034
115	0x3d71cb8a	0.059032
116	0xbe279729	-0.16366257
117	0xbd960c0d	-0.07326517
118	0x3dda4c85	0.10659126
119	0x3da25bb2	0.07927646
120	0x3d061a68	0.032740027
121	0xbdb35ef5	-0.08758346
122	0xbc8006fb	-0.015628329
123	0x3cf39912	0.029736076
124	0xbdcb55df	-0.09928488
125	0x3e0aea79	0.13566007
126	0xbc8c27af	-0.017108766
127	0xbd8a60a6	-0.067567155
128	0x3d134334	0.03595276
129	0xbdd8a1d4	-0.10577741
130	0xbbf4585a	-0.0074568214
131	0x3e19349e	0.14961478
132	0xbc2bb943	-0.010481182
133	0xbdd7b841	-0.105331905
134	0xbd52e02a	-0.05148331
135	0x3b6d0a93	0.0036169633
136	0x3b43301b	0.0029783312
137	0x3e06ab78	0.13151348
138	0xbc62df3f	-0.013847171
139	0x3dc3efec	0.09567246
140	0xbc82c6f1	-0.015964003
141	0xbd364a2f	-0.04450434
142	0x3e0be4d3	0.13661508
143	0x3dc1b4fc	0.09458348
144	0x3da45a83	0.08025076
145	0x3dc808e4	0.09767321
146	0xbd50a8ff	-0.050942417
147	0xbd95ad21	-0.07308412
148	0xbe1f4fd7	-0.155578
149	0x3db1cbc6	0.08681445
150	0xbda8f6b2	-0.082501784
151	0xbd14841a	-0.036258794
152	0xbc5cee65	-0.013484572
153	0xbddbfaeb	-0.10741218
154	0xbdfcd361	-0.12345005
155	0x3d8cb68e	0.06870757
156	0xbe37c19a	-0.17944947
157	0x3dd2e0bb	0.1029677
158	0xbe33a116	-0.17541918
159	0x3c9409d2	0.018071089
160	0xbd9e3ba9	-0.07726223
161	0x3de8d4be	0.11368702
162	0x3d9bce99	0.07607765
163	0x3d1a2822	0.03763593
164	0x3d1b7a35	0.037958343
165	0xbbd8fb99	-0.0066217897
166	0x3d02d030	0.031936824
167	0x3dbe29ef	0.09285342
168	0xbe02c771	-0.12771393
169	0xbd5c888f	-0.05384117
170	0xbde00312	-0.109380856
171	0x3cabba7b	0.020962944
172	0x3bd0d932	0.006373548
173	0x3db7ccd4	0.08974615
174	0xbd259130	-0.040421665
175	0x3dc10af0	0.09425914
176	0x3dd5c8f1	0.10438717
177	0x3c151f52	0.009101706
178	0xbcdb7b9b	-0.026792338
179	0xbda5b374	-0.080908686
180	0xbdc44bd6	-0.09584777
181	0xbdf52eb7	-0.11971801
182	0xbe1ff034	-0.15618974
183	0x3e235bf6	0.15953049
184	0xbd60240c	-0.054721877
185	0xbc86927a	-0.016427267
186	0xbd7cc116	-0.06170758
187	0xbdcfa72a	-0.10139306
188	0x3e3503ab	0.1767718
189	0x3c43dc4b	0.011954377
190	0x3e1074e6	0.14107093
191	0x3b548724	0.0032429183
192	0xbda83ea4	-0.08215073
193	0xbd11a161	-0.035554294
194	0x3d21729d	0.039415944
195	0xbd6480c4	-0.055786863
196	0x3d60fd93	0.054929327
197	0x3daa1bbd	0.08306072
198	0xbbe75842	-0.0070600817
199	0x3e07ff76	0.13281044
200	0x3dc96689	0.0983401
201	0x3c81564d	0.015788222
202	0x3cf5c397	0.030000491
203	0xbd97e17f	-0.07416057
204	0xbd8573ad	-0.06516204
205	0xbdf29b17	-0.11845987
206	0xbdbc41ce	-0.09192239
207	0xbdd891c0	-0.105746746
208	0xbd91b742	-0.07115032
209	0x3a05a342	0.00050978747
210	0xbde758bf	-0.11296224
211	0xbde1c011	-0.11022962
212	0xbdfb5bd4	-0.12273374
213	0xbd76b5d7	-0.06023201
214	0xbccae209	-0.024765985
215	0x3e44fe4e	0.19237635
216	0x3dcf29ba	0.101153806
217	0xbd8a81f7	-0.0676307
218	0xbe1baca7	-0.1520258
219	0xbd787022	-0.060653813
220	0x3babd946	0.005244407
221	0xbd88a6f6	-0.0667247
222	0x3c0c2e88	0.008556016
223	0xbe4c9b75	-0.19981177
224	0x3dc3b340	0.095556736
225	0xbdb05a8b	-0.0861102
226	0xbd680b58	-0.056651443
227	0x3e35ebdb	0.17765753
228	0xbdbcee65	-0.09225158
229	0x3cb617ef	0.02222821
230	0xbdb13581	-0.08652783
231	0x3de08d70	0.10964477
232	0xbca3d8a9	-0.020000773
233	0x3df44f94	0.11929241
234	0xbcc53f24	-0.02407796
235	0xbdcc3f0b	-0.09972962
236	0xbd06df16	-0.032927595
237	0xbbf0837d	-0.0073398934
238	0x3d065cf5	0.032803494
239	0xbd8b71a0	-0.068087816
240	0x3df1971e	0.117964014
241	0x3ddd8f90	0.10818398
242	0xbc7b9e58	-0.015357576
243	0xbdad8905	-0.084734
244	0x3d95c659	0.073132224
245	0x3dbc394c	0.09190616
246	0xbe13f1ab	-0.14447658
247	0x3d3fb1a8	0.046800286
248	0x3df319ef	0.11870181
249	0x3d61a33d	0.055087317
250	0x3da9b6e5	0.082868375
251	0x3c9217fc	0.017833702
252	0xbe0f3a99	-0.13987197
253	0xbddeda1b	-0.10881444
254	0xbdb24179	-0.08703894
255	0xbe1d7b6c	-0.15379113

lstm.weight_hh_l0 f4 [256, 64]
0	0xbd320867	-0.043465044
1	0x3d468192	0.04846341
2	0x3dd16159	0.10223646
3	0x3e179a69	0.14804997
4	0x3d4d0b87	0.05005982
5	0x3e0545d1	0.13014914
6	0x3dce4f7e	0.10073756
7	0x3dff7a55	0.12474505
8	0x3b653f3d	0.003498032
9	0x3d055d9f	0.032559987
10	0x3d5def65	0.054183383
11	0x3d8b080e	0.06788646
12	0x3dcfa493	0.10138812
13	0xbcab2999	-0.020893859
14	0x3dcd2b89	0.10018069
15	0xbc9a4e30	-0.01883611
16	0x3d87a1e6	0.066226766
17	0xbd0c5c9a	-0.034268
18	0x3e36ade7	0.17839776
19	0xbb48e6c1	-0.0030655118
20	0x3e0d35b5	0.13790019
21	0xbe118b1b	-0.14213221
22	0x3e1b9fce	0.1519768
23	0xbd7d3ba5	-0.06182446
24	0x3de8b7b2	0.11363162
25	0x3d57f8b8	0.05272743
26	0x3da3bb06	0.07994656
27	0x3cb2fad7	0.021848125
28	0xbcd10afe	-0.025517937
29	0x3deba593	0.1150619
30	0xbd182ced	-0.03715222
31	0x3d67744d	0.056507397
32	0xbd3aaa5a	-0.045572616
33	0x3d658fb6	0.056045257
34	0x3c765100	0.01503396
35	0x3e038b40	0.12846088
36	0x3cc7737f	0.024347065
37	0x3d0589bd	0.03260206
38	0xbd7cd19b	-0.061723333
39	0x3d66b69c	0.056326494
40	0xbd317f38	-0.043334216
41	0xbd46ec15	-0.04856499
42	0xbb228398	-0.0024797674
43	0x3de891f1	0.11355961
44	0x3d2cc107	0.042176273
45	0x3c86fa91	0.016476901
46	0x3d5f0adc	0.054453716
47	0x3de5063a	0.11182828
48	0xbdaddd03	-0.0848942
49	0xbdbc8e19	-0.092067905
50	0x3c373229	0.011181393
51	0x3d9fc0ba	0.078004315
52	0xbd0e42cb	-0.034731667
53	0xbc212e7a	-0.009837741
54	0x3c84bcfe	0.0162034
55	0xbdc3b1ec	-0.0955542
56	0x3d18d58c	0.03731303
57	0xbde0d273	-0.1097764
58	0xbe05244b	-0.13002126
59	0x3d7e8a7b	0.062143784
60	0xbd614b64	-0.05500354
61	0xbb055639	-0.0020345582
62	0xbd5bd50b	-0.05366997
63	0xbbbd5e46	-0.0057790605
64	0xbdae2cb8	-0.08504623
65	0x3cbf09ec	0.02332016
66	0x3d585303	0.05281354
67	0x3df1c945	0.11805967
68	0x3cb6ccf7	0.022314532
69	0xbe144ef6	-0.14483246
70	0x3d372a48	0.044718057
71	0xbe039c34	-0.12852556
72	0x3dd58a5d	0.10426781
73	0xbcae1612	-0.021250758
74	0x3b911228	0.004427213
75	0xbd96c4e2	-0.07361771
76	0xbe01aa3d	-0.12662597
77	0xbe675b69	-0.22593464
78	0x3d288720	0.04114449
79	0xbe08ca15	-0.13358338
80	0x3cc02743	0.023456221
81	0x3df8275c	0.12116882
82	0x3df7d588	0.12101275
83	0x3d22a02f	0.039703544
84	0x3bdf11ca	0.0068075405
85	0xbe0eb597	-0.13936459
86	0xbd90744c	-0.07053432
87	0xbcdd22b8	-0.026994094
88	0x3d99a8cd	0.07502899
89	0x3dfdcf4a	0.12393053
90	0xbd7e6549	-0.06210831
91	0xbbf02d96	-0.007329653
92	0x3d345bf9	0.044033024
93	0x3db07e59	0.08617849
94	0x3e133d23	0.1437879
95	0x3e319935	0.173436
96	0x3cd6954b	0.026194235
97	0xbe2781a6	-0.1635805
98	0x3d548e71	0.051893655
99	0x3d623d92	0.0552345
100	0xbd4efc79	-0.050533745
101	0x3d588e7b	0.052870255
102	0x3c109d99	0.008826637
103	0x3d2d695e	0.042336814
104	0xbd1ed3e1	-0.038776282
105	0x3dc464c9	0.09589536
106	0xbda66458	-0.08124608
107	0xbe17eeb7	-0.14837156
108	0x3ca67499	0.02031927
109	0xbcfe978e	-0.031078126
110	0xbd36e74b	-0.044654172
111	0x3e2ff3a6	0.17182788
112	0x3d637cbb	0.055538874
113	0x3d201800	0.03908539
114	0xbdf557b3	-0.11979618
115	0xbda2d24a	-0.07950266
116	0xbd83c53a	-0.06434102
117	0xbd64ddb1	-0.055875484
118	0xbda0cb0c	-0.07851228
119	0x3e19a9d0	0.15006185
120	0xbd1fec81	-0.039043907
121	0x3da2905c	0.079376906
122	0xbd56de42	-0.052458055
123	0xbd723eff	-0.05914211
124	0x3d3c0918	0.04590711
125	0x3d5a11f7	0.05323979
126	0xbe23c941	-0.15994741
127	0x3d2100a4	0.03930725
128	0x3d2fdb94	0.042934015
129	0x3e0da6c1	0.13833143
130	0xbd197d3a	-0.03747294
131	0x3d87d225	0.06631879
132	0x3d9c10e7	0.07620411
133	0xbd9b0bea	-0.07570632
134	0xbda4def4	-0.080503374
135	0x3c02bfb1	0.007980273
136	0xbd20ba31	-0.039240066
137	0xbdaafd84	-0.083491355
138	0xbc16aff0	-0.00919722
139	0xbdc5bd21	-0.09655214
140	0x3d00a7c4	0.031409994
141	0xbdf49dce	-0.11944161
142	0x3d73dcb7	0.059536662
143	0x3deb21e2	0.11481072
144	0xbd512646	-0.05106189
145	0xbc2cc033	-0.010543871
146	0xbd3f0881	-0.04663897
147	0xbbf27ed5	-0.0074003735
148	0x3d0bc0fb	0.034119587
149	0xbcca836f	-0.024720876
150	0x3de27c71	0.110588916
151	0xbda3c10e	-0.07995807
152	0x3de9761a	0.11399479
153	0x3d4a24c0	0.049351454
154	0x3de940cb	0.113893114
155	0x3e2b4ef4	0.16729337
156	0xbd6373b0	-0.05553025
157	0x3d5e8c99	0.054333303
158	0x3da06a70	0.07832801
159	0x3d27796a	0.040887274
160	0xbd072ad2	-0.03299982
161	0xbd2061a2	-0.03915561
162	0xba59aca6	-0.00083036197
163	0xbdaf9a31	-0.085743316
164	0x3c8b720a	0.017022151
165	0xbddce2b6	-0.10785429
166	0x3dca73d1	0.098853715
167	0x3ccd519a	0.025063325
168	0xbd7c43a8	-0.06158796
169	0xbd05f6ac	-0.032705948
170	0xbddfa484	-0.10920051
171	0x3b8a98e0	0.00422965
172	0xbc08a077	-0.008339039
173	0x3d522ade	0.051310413
174	0x3c538c84	0.0129119195
175	0xbd5444c0	-0.051823378
176	0x3a626c16	0.0008637322
177	0xbd51f969	-0.051263247
178	0x3c00fb64	0.007872436
179	0xbd0ee269	-0.03488389
180	0x3d88bb9e	0.0667641
181	0xbcf6c835	-0.030124763
182	0xbd0cd5c5	-0.034383554
183	0xbd5b5fde	-0.053558223
184	0x3e0afd34	0.13573152
185	0xbd88762e	-0.06663166
186	0x3dd74549	0.10511262
187	0xbd5b7899	-0.053581808
188	0xbc9ee673	-0.019396996
189	0x3b74dfc2	0.0037364815
190	0x3d12e977	0.03586718
191	0x3e15db32	0.14634398
192	0x3d7a0650	0.061041176
193	0x3d56026b	0.0522484
194	0xbcf493d8	-0.029855654
195	0xbc83e0ac	-0.016098343
196	0x3cb57832	0.02215204
197	0xbd3ead7e	-0.046552174
198	0x3dcc0261	0.09961391
199	0xbd47e14d	-0.048798848
200	0xbc9c6c55	-0.019094625
201	0xbdaa2f84	-0.08309844
202	0xbd6e71da	-0.058214046
203	0xbb807247	-0.003919873
204	0x3d82b067	0.06381302
205	0x3e3ce195	0.18445428
206	0x3d3818fd	0.044945706
207	0x3da33b2e	0.07970272
208	0xbe1b2b50	-0.15153241
209	0x3dd443cc	0.10364494
210	0x3daa429d	0.08313487
211	0xbc0f7225	-0.0087552415
212	0x3ce07de0	0.027403772
213	0xbd65755f	-0.056020137
214	0x3c9dd953	0.019268667
215	0x3ccc93f4	0.024972893
216	0x3d5d383f	0.05400872
217	0xbdffacac	-0.124841064
218	0x3d0cf689	0.0344148
219	0x3e0ad47c	0.13557619
220	0x3d012673	0.03153081
221	0x3e0ae530	0.1356399
222	0xbe0ad9c0	-0.13559628
223	0xbd9a9f28	-0.07549888
224	0x3da3b65b	0.07993766
225	0x3de7c857	0.11317509
226	0xbbad224d	-0.00528363
227	0x3de8cdc0	0.11367369
228	0x3d852eeb	0.065030895
229	0x3d9dd1c3	0.077060245
230	0x3c2cfc5c	0.010558214
231	0xb9e48555	-0.0004358689
232	0xb76cb7db	-1.4109503e-05
233	0x3b29f247	0.0025931762
234	0x3d18d7e8	0.03731528
235	0xbdb9e174	-0.09076205
236	0x3c976ff9	0.01848601
237	0xbe15c1a7	-0.14624654
238	0x3df35e76	0.11883251
239	0x3d0a1e77	0.03372046
240	0x3d9c66fa	0.07636829
241	0x3dce1f7a	0.100645974
242	0xbd38ad8d	-0.045087386
243	0x3e0ee28c	0.13953608
244	0xba725c27	-0.0009245299
245	0x3d64c252	0.05584938
246	0xbc0b3729	-0.008497038
247	0x3cbce679	0.023059117
248	0x3d97de0a	0.074153975
249	0x3e1cb720	0.15304232
250	0xbdda200c	-0.10650644
251	0xba38ccfd	-0.00070495886
252	0xbe049414	-0.12947112
253	0xbd17c9a6	-0.03705754
254	0x3cb5f7ad	0.022212828
255	0x3d4c6bf2	0.049907632

lstm.bias_ih_l0 f4 [256]
0	0x3c77bd37	0.015120796
1	0xbe03b89e	-0.12863395
2	0xbdc5fdd8	-0.096675575
3	0x3c2e7ffb	0.01065063
4	0xbd849157	-0.06473034
5	0xbd52f47e	-0.051502697
6	0xbde74db6	-0.11294119
7	0xbd007cbb	-0.031368952
8	0x3ddf6ef1	0.10909832
9	0xbd8cdddd	-0.068782546
10	0xbdcffd85	-0.10155777
11	0x3d0a32b5	0.033739764
12	0x3dbdf282	0.0927477
13	0xbda03ddc	-0.07824299
14	0xbcec9009	-0.028877275
15	0x3d997b6b	0.07494243
16	0xbda7ae8c	-0.08187589
17	0xbd9ae322	-0.075628534
18	0xbdbd75e4	-0.092510015
19	0x3e1a56ed	0.15072222
20	0xbcf26ba9	-0.029592352
21	0x3d94ba12	0.072620526
22	0x3d8c4370	0.068488
23	0xbd29525d	-0.041338313
24	0xbd22e995	-0.039773542
25	0x3d8fc674	0.07020274
26	0xbdab4e54	-0.08364549
27	0x3cebd04c	0.028785847
28	0x3d0c3258	0.0342277
29	0x3ca060d4	0.019577421
30	0xbdf46415	-0.11933152
31	0xbda597ce	-0.08085595
32	0x3c44fd72	0.012023317
33	0xbdb0844b	-0.08618983
34	0xbdca1b8d	-0.09868536
35	0xbd920563	-0.07129934
36	0x3d9a1d97	0.07525175
37	0xbda0f924	-0.0786002
38	0xbd4a2c79	-0.04935882
39	0xbcefe655	-0.029284636
40	0x3db7ea0e	0.08980189
41	0xbccca536	-0.024981122
42	0xbc60f972	-0.013731347
43	0x3e0949c2	0.13407043
44	0xbe0c4419	-0.13697852
45	0xbc5036ad	-0.012708348
46	0xbdf56e65	-0.11983947
47	0x3d551bec	0.05202858
48	0xbcc764c9	-0.02434005
49	0x3e149d32	0.1451309
50	0x3e00ca89	0.12577261
51	0xbd31073d	-0.043219794
52	0x3dacb85d	0.08433602
53	0xbd3b62c6	-0.045748495
54	0xbcc1eee4	-0.023673482
55	0x3d9f617f	0.07782268
56	0x3dd8a0f3	0.105775736
57	0xbd3d0544	-0.0461476
58	0x3c546431	0.012963341
59	0xbd6101ce	-0.05493336
60	0x39826cb7	0.0002487653
61	0xbd2f4e52	-0.0427993
62	0x3d8c1bb4	0.068412215
63	0x3d0ef51f	0.034901734
64	0xbddc2ac8	-0.107503474
65	0xbd129431	-0.035785858
66	0x3d80b0a4	0.062836915
67	0x3dafe2f4	0.0858821
68	0xbdc3bdfa	-0.095577195
69	0xbdc9f29e	-0.09860729
70	0x3c0666ee	0.008203251
71	0xbd972f29	-0.07382042
72	0x3de531a0	0.11191106
73	0x3d3e4863	0.046455752
74	0x3cf8b1f3	0.03035829
75	0x3d969c39	0.07354016
76	0x3d4b2507	0.04959586
77	0x3cb2677b	0.021777859
78	0x3e11fdad	0.14256926
79	0xbd9d8f4d	-0.07693348
80	0x3d7f1711	0.062277857
81	0x3d89aaf4	0.0672206
82	0x3d9ae239	0.0756268
83	0xbda63294	-0.08115116
84	0x3da28fc2	0.07937576
85	0x3d00370b	0.031302493
86	0xbd583bd1	-0.05279142
87	0x3d8e4368	0.069464505
88	0xbdb70bd2	-0.089378014
89	0x3dc3956e	0.09549986
90	0xbe2777eb	-0.16354339
91	0x3e2ed1ab	0.1707217
92	0x3ddd465a	0.10804434
93	0xbde274dd	-0.11057446
94	0xbe0dbfea	-0.1384274
95	0xbd58601a	-0.052826025
96	0x3d808bf3	0.06276693
97	0x3788e4dd	1.6319036e-05
98	0xbcb1cf99	-0.021705436
99	0xbd663d92	-0.05621106
100	0xbb302d3e	-0.0026882435
101	0x3dde13e6	0.10843639
102	0xbcd0c09c	-0.025482468
103	0xbc81d940	-0.015850663
104	0x3dcde8a1	0.10054136
105	0xbdeefa3b	-0.116688214
106	0x3b67abd5	0.0035350223
107	0x3e1a062c	0.15041417
108	0xbd88df47	-0.06683212
109	0x3d8e8b70	0.06960189
110	0xbdde0648	-0.10841042
111	0x3ca07c2d	0.019590462
112	0xbcc7be41	-0.024382712
113	0xbddac415	-0.10681931
114	0x3e0ded59	0.13860072
115	0x3cd570bf	0.026054738
116	0xbd42f6ba	-0.047598578
117	0x3e1c2cf7	0.15251528
118	0x3df0e11f	0.117616884
119	0xbe098fd1	-0.13433768
120	0x3c8ea210	0.017411262
121	0x3ca9b425	0.020715782
122	0xbd168464	-0.03674735
123	0x3ce31059	0.027717756
124	0x3d376ca5	0.044781346
125	0xbd897952	-0.06712593
126	0xbdd83831	-0.10557593
127	0x3d7b6404	0.06137468
128	0x3d9dff29	0.077146836
129	0x3c3538b1	0.01106088
130	0x3d8c397c	0.06846902
131	0x3e185e53	0.14879732
132	0x3ca1a9bb	0.019734254
133	0x3d96e612	0.07368101
134	0x3c1b27f4	0.009469975
135	0xbd41248e	-0.047154002
136	0x39b1bf47	0.00033902584
137	0x3ddbd013	0.107330464
138	0x3d5c0cfb	0.053723317
139	0x3e0e7910	0.13913369
140	0x3d3284d9	0.043583725
141	0x3ddecd43	0.10878994
142	0xbd3f4a92	-0.046701975
143	0xbd7a39e5	-0.06109037
144	0xbce77f8a	-0.028259058
145	0x3d7bf254	0.0615104
146	0xbd58463d	-0.05280136
147	0xbe16da80	-0.14731789
148	0xbe043cb8	-0.12913787
149	0xbd0887d0	-0.033332646
150	0x3dc5d125	0.09659032
151	0x3d6a87d1	0.05725843
152	0xbbaf98ea	-0.005358805
153	0xbde0a6f9	-0.109693475
154	0x3cfc86dc	0.030826025
155	0x3d87e065	0.06634597
156	0x3d9495ff	0.07255172
157	0xbe0c566f	-0.13704847
158	0x3cbe2dbf	0.023215173
159	0xbde1ec81	-0.11031438
160	0xbde5ef8c	-0.112273306
161	0xbcaa70d8	-0.020805761
162	0x3da7e1cf	0.081973664
163	0x3e0a66b0	0.13515735
164	0x3d0004ca	0.031254567
165	0x3d386240	0.045015574
166	0x3d3fef13	0.04685886
167	0x3dfdf48c	0.12400159
168	0x3c8bab4d	0.017049456
169	0xbd8cffef	-0.06884753
170	0x3df146db	0.11781093
171	0x3c7f90c6	0.0155984815
172	0x3de337b3	0.11094608
173	0xbd4f999d	-0.050683606
174	0xbe06f797	-0.13180386
175	0x3db81ec9	0.08990247
176	0x3d9fd366	0.07803993
177	0x39c99f74	0.0003845651
178	0xbce21aa9	-0.027600603
179	0xbc235f94	-0.009971518
180	0xbe0b99d1	-0.13632895
181	0x3e07a0fd	0.13245006
182	0x3cec8cca	0.028875727
183	0xbce78d0c	-0.028265499
184	0x3d4961e8	0.049165636
185	0xbde74143	-0.112917446
186	0x3ca22346	0.01979221
187	0x3dd14eb7	0.10220092
188	0xbc4caadd	-0.012491909
189	0x3d6a6477	0.057224717
190	0xbdbcffbf	-0.09228467
191	0xbdf399ab	-0.11894544
192	0xbde177a2	-0.11009146
193	0xbd5ba60b	-0.053625148
194	0x3cfdeb8f	0.030996112
195	0xbc82c219	-0.015961694
196	0xbe0fd133	-0.14044647
197	0xbc650269	-0.013977625
198	0xbde1eed0	-0.11031878
199	0xbdf85519	-0.12125606
200	0x3c32a3d2	0.010903316
201	0xbda99177	-0.08279698
202	0x3d2f4e05	0.042799015
203	0xbd79ce4a	-0.06098775
204	0xbc00af04	-0.007854227
205	0xbda5b431	-0.080910094
206	0x3d5fdae7	0.05465212
207	0x3d2f2886	0.042763256
208	0xbd822ec2	-0.063565746
209	0xbcc9c3b2	-0.024629448
210	0x3d18a778	0.037269086
211	0xbd820b27	-0.063497834
212	0x3d19cb22	0.03754724
213	0x3daf626e	0.08563696
214	0xbc9a7681	-0.018855335
215	0xbdba494c	-0.090960115
216	0xbd9172e5	-0.071019925
217	0xbcf2d1da	-0.02964108
218	0x3de87a60	0.11351466
219	0x3bfdbe30	0.0077436194
220	0x3cbff031	0.023429962
221	0xbbebda36	-0.0071976436
222	0xbdbf7024	-0.09347561
223	0xbdef5bd7	-0.11687439
224	0x3db6fe64	0.0893524
225	0x3dcbce90	0.09951508
226	0xbd721e02	-0.05911065
227	0xbd94fe00	-0.07275009
228	0xbd90c6ff	-0.070692055
229	0x3dcb5dbc	0.09929988
230	0xbda74946	-0.08168273
231	0x3c5d75b0	0.013516828
232	0x3cdbcd07	0.026831163
233	0xbcc1dbd2	-0.023664389
234	0x3dc1734c	0.09445819
235	0x3dd95346	0.10611586
236	0x3dd5de4e	0.10442792
237	0xbc7d0460	-0.015442938
238	0xbe380feb	-0.17974822
239	0x3d9f3e52	0.077755585
240	0x3dc9a7a3	0.09846427
241	0x3dae82c7	0.085210375
242	0x3df939c1	0.12169219
243	0xbdf92b6d	-0.12166486
244	0x3ddefc68	0.108879864
245	0xbdcfb5d6	-0.10142104
246	0xbd9a0354	-0.07520166
247	0xbd3f0ffd	-0.046646107
248	0x3d9db67f	0.07700824
249	0x3c2cedee	0.010554774
250	0x3e1afdf3	0.15135936
251	0x3d7880df	0.060669776
252	0xbc94adf3	-0.018149352
253	0xbd247da3	-0.04015888
254	0xbd0552f4	-0.032549813
255	0xbe05eddf	-0.13079022

lstm.bias_hh_l0 f4 [256]
0	0x3ddb0191	0.10693658
1	0xbdaf721e	-0.08566688
2	0xbc6aad81	-0.014323593
3	0xbd34fb18	-0.044184774
4	0xbdbfecb2	-0.09371318
5	0xbd1ad3bb	-0.03779958
6	0x3d85e866	0.06538467
7	0xbdce3728	-0.10069114
8	0x3bc2aefc	0.00594127
9	0x3db1bcf5	0.08678619
10	0x3d5a4f8d	0.05329852
11	0xbcc0d52e	-0.023539152
12	0x3b1d81e0	0.002403371
13	0xbdc76068	-0.09735185
14	0xbe01a47e	-0.12660405
15	0x3de8ac4e	0.113609895
16	0xba457817	-0.00075328484
17	0x3e24fa2e	0.16111061
18	0x3d195292	0.03743226
19	0x3d5f30f4	0.054490045
20	0x3e09cb9b	0.13456576
21	0x3d38afde	0.045089595
22	0x3d9b938a	0.075965
23	0x3de921a1	0.11383367
24	0xbd21b645	-0.039480466
25	0xbc75dc95	-0.015006204
26	0x3c41f928	0.011839189
27	0xbd78a1a9	-0.060701046
28	0xbc544f40	-0.012958348
29	0x3de145cc	0.10999641
30	0xbd742cc0	-0.05961299
31	0x3c24dcae	0.01006238
32	0xbde66965	-0.11250571
33	0x3c99f783	0.01879478
34	0xbd04410d	-0.0322886
35	0x3ad35efa	0.0016126328
36	0xbbf26e54	-0.007398406
37	0x3d8640ef	0.06555354
38	0x3d5b14f0	0.053486764
39	0xbd567458	-0.052357048
40	0x3d856ce0	0.06514907
41	0x3d08cbc2	0.033397444
42	0x3d9c48dc	0.07631084
43	0x3df637c3	0.120223545
44	0xbe139733	-0.14413147
45	0x3df94156	0.12170665
46	0xbcda3c5b	-0.026640108
47	0xbdbe00d7	-0.09277504
48	0xbd77089f	-0.060310956
49	0xbc8496d7	-0.016185207
50	0xbda9074a	-0.082533434
51	0x3dfb2596	0.12263028
52	0x3dcdbdd4	0.100459725
53	0xbda0a587	-0.07844072
54	0x3d9aa164	0.07550314
55	0x3c9bb708	0.019008175
56	0xbd9eb8a6	-0.07750063
57	0x3da32155	0.07965342
58	0x3e14e08e	0.14538786
59	0x3dc371ee	0.09543215
60	0xbb7c20a5	-0.0038471606
61	0x3da149c1	0.078753956
62	0x3db7ce7f	0.08974933
63	0x3db3db9e	0.08782123
64	0x3dae0df2	0.084987536
65	0x3b1a1141	0.002350882
66	0x3d0c5e98	0.0342699
67	0xbd9207f6	-0.07130425
68	0x3dddfe04	0.10839465
69	0x3b36a86f	0.002787139
70	0xbd92eae0	-0.07173705
71	0xbd10d3e9	-0.035358343
72	0xbbbcf2d0	-0.00576625
73	0xbd23a535	-0.039952476
74	0x3d13da00	0.036096573
75	0xbcda9dca	-0.026686568
76	0xbd294958	-0.04132971
77	0x3d9af3b8	0.07566017
78	0x3d9ee975	0.07759372
79	0x3d25f9d6	0.040521465
80	0x3d34b440	0.044117212
81	0x3c5dbcd6	0.0135337915
82	0x3d5c6189	0.053803954
83	0xbd74aaa0	-0.059733033
84	0x3dbeeda9	0.09322674
85	0x3e194736	0.14968571
86	0x3d7380ae	0.05944889
87	0xbd30bba1	-0.043147687
88	0x3d06eb4b	0.032939237
89	0xbdc665ba	-0.096873716
90	0xbddfb119	-0.109224506
91	0xbd53b60a	-0.051687278
92	0xbd219a2a	-0.039453663
93	0x3c0b68c9	0.008508869
94	0x3d942f00	0.07235527
95	0x3df89c02	0.12139131
96	0x3e18d96f	0.14926694
97	0xbd00117e	-0.03126668
98	0xbd520b4c	-0.051280305
99	0xbd874fe3	-0.06607034
100	0x3d92550b	0.07145127
101	0x3e3cc6af	0.18435167
102	0xbd15637a	-0.03647182
103	0xbca4f8a8	-0.0201381
104	0xbe0eaec4	-0.13933855
105	0xbd80be0a	-0.06286247
106	0x3dade527	0.08490973
107	0x3df18adf	0.11794066
108	0x3d7adc3f	0.0612452
109	0xbd0a2a51	-0.033731762
110	0xbd85f45b	-0.06540748
111	0x3d028247	0.031862523
112	0x3df5a751	0.11994804
113	0xbe1173b6	-0.14204296
114	0x3d8f2aca	0.06990583
115	0xbca448f5	-0.02005432
116	0xbc9c1f87	-0.019058002
117	0x3daa585d	0.08317635
118	0xbd76943d	-0.060199965
119	0xbd8d9c3a	-0.069145635
120	0xbde0da4f	-0.10979139
121	0x3bac9dff	0.005267858
122	0x3daa7bff	0.08324432
123	0x3d2584ab	0.040409725
124	0x3ba93eb5	0.005164946
125	0xbd99efc6	-0.07516436
126	0x3dcc08e8	0.09962636
127	0xbd642ae4	-0.055704966
128	0xbd8ed3ca	-0.06973989
129	0xbc4fbdcc	-0.012679528
130	0xbb89e393	-0.004208037
131	0x3e27626e	0.16346142
132	0x3d66e454	0.056370094
133	0x3d15223b	0.036409598
134	0x3dadd08a	0.08487041
135	0xbdfce211	-0.12347806
136	0xbd58a9a7	-0.052896168
137	0x3d3cc184	0.04608299
138	0xba139e73	-0.0005631216
139	0xbc8419a1	-0.016125502
140	0x3d0abbd4	0.033870533
141	0x3cb94a0c	0.022618316
142	0x3cf3a52b	0.029741844
143	0x3cd64262	0.0261547
144	0x3dde858b	0.10865315
145	0x3d7d6564	0.06186427
146	0xbda1d192	-0.079013005
147	0xbdae009e	-0.084962115
148	0x3d6b46c7	0.057440545
149	0x3d4482e0	0.047976375
150	0x3d568214	0.052370146
151	0xbdf5d032	-0.12002601
152	0x3d73946b	0.059467714
153	0xbd858adb	-0.06520625
154	0x3e0adec5	0.13561542
155	0x3dbbedeb	0.091762386
156	0xbde16dc3	-0.110072635
157	0xbe35c80a	-0.1775209
158	0x3da5bcbb	0.08092638
159	0x3df5ef79	0.120085664
160	0xbdd52648	-0.10407692
161	0x3dac5fb6	0.08416693
162	0x3cc55605	0.024088869
163	0xbd2ff1a5	-0.04295506
164	0xbddf0842	-0.10890247
165	0x3d810aa9	0.063008614
166	0xbdb5ae97	-0.08871191
167	0x3de38b80	0.11110592
168	0xbc6eee09	-0.014583119
169	0xbde5038c	-0.11182317
170	0xbcd9a8df	-0.026569782
171	0xbdea0d68	-0.11428338
172	0xbdac11a5	-0.08401803
173	0xbdb1a071	-0.0867318
174	0xbdb9b370	-0.09067428
175	0x3e0d7ac1	0.13816358
176	0xbe133c01	-0.14378358
177	0xbde301f9	-0.11084361
178	0x3e076318	0.13221395
179	0x3d96a649	0.07355935
180	0xbd24bd9f	-0.0402199
181	0xbdd63e31	-0.10461081
182	0xbdb8e22f	-0.09027516
183	0xbd0cf374	-0.034411862
184	0xbdf24bd8	-0.11830872
185	0xbd17b5a0	-0.037038445
186	0x3c0d5634	0.008626509
187	0x3d8c1081	0.06839085
188	0x3da8c0c4	0.08239892
189	0xbe0d1716	-0.13778338
190	0xbdfe7a77	-0.12425702
191	0xbd53f1dd	-0.05174433
192	0x3d1fc91b	0.03901015
193	0x3ce70a53	0.028203165
194	0xbc66e39b	-0.014092351
195	0x3da8bd2c	0.08239207
196	0xbd82f9c2	-0.06395294
197	0x3e073c01	0.13206483
198	0xbd476ae2	-0.048685916
199	0x3cb02fec	0.021507226
200	0x3e109690	0.14119935
201	0x3df45552	0.11930336
202	0xbd354a38	-0.044260234
203	0x3da38973	0.07985201
204	0xbdc81f91	-0.09771646
205	0x3d768636	0.060186587
206	0xbe39d73a	-0.18148509
207	0xbd900b90	-0.07033455
208	0xbc8d72d6	-0.017266672
209	0x3de12af0	0.10994518
210	0x3daa9f84	0.083312064
211	0x3bd8b7e2	0.0066137174
212	0xbc32ff06	-0.01092506
213	0xbd7e3636	-0.06206342
214	0xbcd00b92	-0.025396142
215	0xbc84a656	-0.016192596
216	0x3dae4c07	0.08510595
217	0x3ddedb3e	0.10881661
218	0x3c7bbd68	0.015364982
219	0x3e111f3a	0.14172068
220	0xbd83fc2d	-0.06444583
221	0xbc61a043	-0.0137711195
222	0x3ddbd19e	0.10733341
223	0x3dbcf1a1	0.092257746
224	0xbc488b47	-0.012240238
225	0x3e166578	0.14687145
226	0x3d31cdc1	0.043409113
227	0x3d8508fa	0.06495853
228	0x3dbc1322	0.09183337
229	0x3e0b5375	0.13606055
230	0xbd758b95	-0.05994757
231	0xbda8dac4	-0.08244851
232	0xbccdb8e0	-0.02511257
233	0x3c8fdb33	0.017560577
234	0x3e2d5720	0.16927767
235	0xbc5360e1	-0.012901516
236	0x3da33a3e	0.07970093
237	0x3c8e6f48	0.017387047
238	0xbd1454cd	-0.036213685
239	0xbd2026b9	-0.03909943
240	0x3d1759fb	0.036951046
241	0x3d845d61	0.06463123
242	0x3db84164	0.08996847
243	0xbce8949c	-0.028391175
244	0x3e1fd066	0.15606841
245	0xbddc055a	-0.10743208
246	0x3dbf366c	0.09336552
247	0xbded39b0	-0.11583269
248	0x3caee2a2	0.021348301
249	0x3c92fe94	0.017943658
250	0xbcf01e86	-0.02931143
251	0x3d302d66	0.043012045
252	0xbae07a93	-0.0017126374
253	0x3d7569a2	0.059915192
254	0x3d361976	0.044457875
255	0x3c4c7e39	0.012481266

lstm.weight_ih_l1 f4 [256, 64]
0	0x3d7c5aee	0.061610155
1	0x3c3c578f	0.011495485
2	0xbcdd344a	-0.027002472
3	0x3c38e6e2	0.0112855155
4	0xbc7129f1	-0.014719472
5	0xbddfefcd	-0.1093441
6	0xbc5f9dcd	-0.0136484625
7	0xbcf1a4a5	-0.029497454
8	0xbda25b6b	-0.07927593
9	0xbc87e858	-0.016590282
10	0x3d57936a	0.05263082
11	0x3e002801	0.1251526
12	0xbca4f38f	-0.020135669
13	0x3d37e64a	0.044897355
14	0x3e196882	0.14981273
15	0xbd43cc8c	-0.047802493
16	0xbe616a99	-0.2201332
17	0xbca9281b	-0.020649007
18	0x3d71ec00	0.059062958
19	0xbe29ebf3	-0.16593914
20	0xbcdb7389	-0.02678849
21	0xbcac72d3	-0.021050846
22	0xbc3465f8	-0.011010639
23	0x3e0e489f	0.1389489
24	0x3d320b18	0.04346761
25	0xbc88604e	-0.016647484
26	0x3d3994ee	0.045308046
27	0x3b86282f	0.0040941457
28	0xbd136f37	-0.035994735
29	0x3e03cfc2	0.12872222
30	0x3ce612c9	0.02808513
31	0x3cc385cb	0.023867508
32	0x3c90df43	0.017684584
33	0xbd96c5a4	-0.07361916
34	0xbddd5d75	-0.10808841
35	0x3da38260	0.079838514
36	0x3c02e9f9	0.007990354
37	0x3bd70811	0.006562241
38	0xbd7f2221	-0.062288407
39	0x3cf29a66	0.029614639
40	0x3da51ba1	0.080619104
41	0x3d82c4a7	0.06385165
42	0x3c1ab242	0.009441914
43	0x3d4507da	0.04810319
44	0x3c907ddc	0.01763814
45	0xbd99371b	-0.07481214
46	0xbd4eb639	-0.05046675
47	0x3d248332	0.04016418
48	0xbd83c634	-0.064342886
49	0x3d234f4f	0.039870556
50	0x3e1b0081	0.15136911
51	0xbac523d8	-0.001504059
52	0x3d60fb37	0.054927077
53	0x3bcda183	0.006275357
54	0xbd9226bc	-0.07136294
55	0xbd96a45a	-0.07355566
56	0x3b86720e	0.004102952
57	0xbd1c017c	-0.038087353
58	0xbca3e6cc	-0.020007513
59	0xbbaae401	-0.0052151685
60	0x3d767efa	0.060179688
61	0x3d2e9db2	0.04263086
62	0x3dd03cf8	0.10167879
63	0x3d8e1a51	0.06938613
64	0xbd945684	-0.07243064
65	0x3de49800	0.11161804
66	0xbddd7ec7	-0.108151965
67	0x3d16b652	0.036794968
68	0x3de7e2ea	0.11322577
69	0x3d1de46c	0.03854792
70	0xbd345315	-0.044024546
71	0x3d48ea90	0.04905182
72	0x3ddee9e3	0.10884454
73	0x3d1d5d26	0.03841891
74	0xbd770a72	-0.060312696
75	0xbc6fa240	-0.014626086
76	0x3c6b9707	0.014379269
77	0xbb8f8095	-0.004379342
78	0xbdf94c49	-0.12172753
79	0x3baf9e64	0.005359458
80	0x3e7f0ff6	0.24908432
81	0x3d118d5e	0.03553521
82	0xbdeb4da7	-0.114894204
83	0x3d4ca0eb	0.04995815
84	0xbd493692	-0.049124308
85	0x3cba4132	0.022736166
86	0x3d09ab95	0.0336109
87	0xbbe8bfd0	-0.007102944
88	0x3d087210	0.033311903
89	0x3d1e2714	0.038611487
90	0xbd048eeb	-0.03236286
91	0x3dc81284	0.097691566
92	0x3df24b07	0.118307166
93	0x3c6ed1cb	0.014576386
94	0x3c7a5820	0.0152798
95	0x3d7e0b02	0.062022217
96	0xbd1e740c	-0.03868489
97	0x3cb5586d	0.022136891
98	0x3d45c246	0.048280977
99	0x3cb5d256	0.022195023
100	0x3cf646d2	0.030063067
101	0xbc23c707	-0.009996182
102	0x3d907751	0.07054008
103	0xbd2b52c5	-0.041826982
104	0x3c84f30e	0.016229179
105	0x3cb9f9d0	0.022702128
106	0x3c58d34d	0.013233972
107	0xbd91f79e	-0.07127307
108	0xbcb807f5	-0.022464732
109	0x3e1f35f0	0.1554792
110	0x3b3e2e3d	0.002901926
111	0x3c3c1948	0.011480637
112	0xbd4a832c	-0.0494415
113	0xbd8d6449	-0.069038935
114	0x3dd63ba7	0.104605965
115	0xbd1cb061	-0.038254146
116	0xbd877717	-0.066145115
117	0x3df97a3a	0.12181516
118	0x3dca41d4	0.09875837
119	0xbdc6b044	-0.09701589
120	0xbd92a888	-0.07161051
121	0x3bf685f7	0.007523294
122	0xbd8bdce6	-0.068292424
123	0xbccffbd4	-0.025388636
124	0xbda2ab8f	-0.079428785
125	0x3bb66692	0.0055664266
126	0x3dcf76dc	0.101300925
127	0x3d18285f	0.037147876
128	0x3d16ae5f	0.036787387
129	0xbd9b3ae6	-0.07579593
130	0xbcd65586	-0.026163828
131	0x3d15783a	0.03649161
132	0xbda710c7	-0.08157497
133	0xbd0a7524	-0.03380312
134	0xbc35fa63	-0.01110706
135	0x3da80362	0.0820377
136	0xbd93867a	-0.07203384
137	0xbde9d668	-0.11417848
138	0xbd748a8b	-0.059702437
139	0xbd458205	-0.0482197
140	0xbd87f0c4	-0.06637719
141	0xbe1beec3	-0.15227799
142	0xbe05e240	-0.13074589
143	0xbe0f8580	-0.1401577
144	0xbdb851e1	-0.08999992
145	0xbdb2349a	-0.08701439
146	0x3dbacf05	0.09121517
147	0xbca52d3d	-0.020163173
148	0xbd4eac86	-0.0504575
149	0x3d83c731	0.06434477
150	0xbde1aafe	-0.11018942
151	0xbdbddc10	-0.09270489
152	0x3ddacb60	0.10683322
153	0xbca101eb	-0.019654235
154	0xbd937e4d	-0.07201824
155	0xba007e8e	-0.00049016706
156	0x3db4819f	0.08813786
157	0xbdf6183b	-0.1201634
158	0x3d94f325	0.07272939
159	0x3d556abe	0.05210375
160	0xb94f607b	-0.00019777
161	0x3d6aa31c	0.05728446
162	0xbcb81a72	-0.022473548
163	0x3d1c18e2	0.038109668
164	0xbd88409c	-0.06652948
165	0xbe21077f	-0.15725516
166	0x3d83d071	0.064362414
167	0x3d7d3169	0.0618147
168	0xbdce381a	-0.10069294
169	0xbc357a58	-0.011076532
170	0xbcd81250	-0.02637592
171	0xbdb8f50d	-0.09031115
172	0x3e0495cd	0.1294777
173	0x3d958c5c	0.07302162
174	0xbde57253	-0.11203446
175	0xbdbe69fb	-0.09297558
176	0xbd869990	-0.065722585
177	0x3ccc8e91	0.024970325
178	0x3dc81c7c	0.09771058
179	0xbafe3242	-0.001939364
180	0xbdccc5c5	-0.09998659
181	0x3e2f8a9c	0.17142719
182	0xbdab8d5e	-0.08376573
183	0x3d2cbf96	0.042174898
184	0x3c719a20	0.014746219
185	0xbd6d9122	-0.057999738
186	0xbdc681c2	-0.09692718
187	0xbe3f0f64	-0.18658215
188	0x3d3e686b	0.0464863
189	0xbd8f7760	-0.07005191
190	0x3d0af68e	0.03392654
191	0x3caf3c3e	0.02139103
192	0xbd1d6dcc	-0.03843479
193	0xbdbc2ad3	-0.091878556
194	0xbcde3573	-0.027125096
195	0xbe07f72c	-0.13277882
196	0x3dd2c309	0.10291106
197	0x3bee97d7	0.0072812843
198	0x3c795efb	0.015220399
199	0xbc98789e	-0.018612202
200	0x3c657020	0.014003783
201	0x3da73011	0.08163465
202	0xbde8241c	-0.11335012
203	0xbce0da99	-0.027447985
204	0x3d7c5c07	0.0616112
205	0x3e39a648	0.18129838
206	0x3d80ce98	0.06289405
207	0x3c7fe275	0.015617956
208	0xbb2eb895	-0.0026660312
209	0x3c24026d	0.010010344
210	0xbcf75068	-0.030189708
211	0x3e0c22be	0.13685128
212	0x3d80ecb6	0.06295149
213	0xb91150b6	-0.00013858345
214	0xbd197f53	-0.03747494
215	0x3d873e0a	0.0660363
216	0x3d2a0f1c	0.041518316
217	0xbe0f96d4	-0.1402238
218	0xbd3a4ee0	-0.045485377
219	0xbe230233	-0.15918808
220	0xbd851369	-0.06497843
221	0x3e3a47e3	0.18191485
222	0xbe181c09	-0.14854445
223	0x3cb29ee2	0.021804277
224	0x3d1c3d67	0.038144495
225	0x3c8691e9	0.016426997
226	0x3ddd3c4b	0.108025156
227	0x3cff1991	0.03114012
228	0xbd6e3505	-0.058156032
229	0xbb9bf47d	-0.00475937
230	0x3bddedc4	0.0067727286
231	0x3d98b285	0.07455925
232	0xbd9714e5	-0.07377032
233	0x3e0ca649	0.13735308
234	0xbe171648	-0.14754593
235	0xbce962fc	-0.028489582
236	0x3e03a44a	0.1285564
237	0xbe3128d7	-0.17300735
238	0xbe037c86	-0.1284047
239	0x3c432c45	0.01191241
240	0xbc36ec58	-0.011164747
241	0x3b827df4	0.0039823
242	0xbcaad0ca	-0.020851512
243	0x3de674f4	0.11252776
244	0xbdea26a8	-0.11433154
245	0x3d7d37f2	0.06182093
246	0xbc16dd7d	-0.00920808
247	0xbcdc2454	-0.026872791
248	0xbdb80b0f	-0.08986484
249	0xbd03f24c	-0.032213494
250	0xbde95f1e	-0.11395095
251	0xbb8be402	-0.004269124
252	0x3dab540f	0.08365642
253	0xbc113b95	-0.008864303
254	0xbd42ed12	-0.04758937
255	0x3cd6c3fc	0.0262165

lstm.weight_hh_l1 f4 [256, 64]
0	0xbdbff741	-0.09373332
1	0x3d07b115	0.033127863
2	0xbbb2d06b	-0.0054569743
3	0xbdfbbdff	-0.12292098
4	0x3e0dfa1a	0.13864937
5	0xbe026058	-0.12732065
6	0xbe33dc51	-0.17564513
7	0xbde0d811	-0.109787114
8	0xbe019d25	-0.12657602
9	0x3d04d239	0.032427046
10	0x3d8aae72	0.06771554
11	0x3d4f8c44	0.050670877
12	0xbde0f36b	-0.10983928
13	0xbd9c386b	-0.076279484
14	0xbd47fbd3	-0.048824143
15	0x3c560f56	0.01306518
16	0x3ce40ba5	0.027837584
17	0xbe20625d	-0.15662523
18	0xbe0dbed1	-0.13842322
19	0x3dd5761a	0.10422917
20	0xbd923839	-0.0713963
21	0x3e116604	0.14199072
22	0x3d55fbd8	0.05224213
23	0xbd39ab04	-0.04532911
24	0xbd237b96	-0.039912783
25	0xbda24892	-0.07923998
26	0x3db7b9d4	0.08970991
27	0x3c7b5861	0.015340895
28	0x3d9781aa	0.07397778
29	0xbe1b59fc	-0.15171045
30	0x3c7c3362	0.01539311
31	0x3d37083d	0.04468559
32	0xbd90dcfa	-0.07073398
33	0x3ab88d27	0.0014080153
34	0x3daa3805	0.08311466
35	0xbd7f8e83	-0.06239177
36	0xbd06d747	-0.03292015
37	0x3d32d1bd	0.043657053
38	0x3d45af38	0.048262805
39	0x3d7d8ed9	0.06190381
40	0x3deb0cea	0.114770725
41	0xbcfb7d5d	-0.030699426
42	0x3ddd164e	0.1079527
43	0xbde53418	-0.11191577
44	0x3cfd8192	0.030945573
45	0x3e01a75b	0.12661497
46	0xbcbff6ba	-0.023433078
47	0x3c4cab1e	0.012491969
48	0xbd5ef23e	-0.05443024
49	0xbc2deea5	-0.010615979
50	0xbc7df579	-0.01550042
51	0xbd47f1c9	-0.04881457
52	0xbbed300f	-0.007238395
53	0x3cd0e566	0.02550001
54	0x3db71456	0.08939426
55	0x3d46a64a	0.04849843
56	0x3dfff3bf	0.12497663
57	0x3dbedb2f	0.0931915
58	0x3df6a910	0.12043965
59	0x3d83a736	0.06428377
60	0xbc00ae2f	-0.007854029
61	0x3da79f33	0.08184662
62	0xbe1fe35b	-0.15614073
63	0x3d50b2fd	0.050951947
64	0xbd0e9edb	-0.034819465
65	0x3dfe708e	0.12423812
66	0x3d21bdb4	0.039487556
67	0x3e0366e3	0.12832217
68	0xbc4c3c56	-0.012465557
69	0xbda786bf	-0.08179998
70	0xbd967e92	-0.0734836
71	0x3c959bf3	0.018262839
72	0x3d913fe3	0.070922635
73	0x3c6be065	0.014396762
74	0x3c61246a	0.013741592
75	0xbde588d9	-0.11207742
76	0xbdd446f0	-0.10365093
77	0xbdc1d930	-0.09465253
78	0x3c2ab6ec	0.010419589
79	0xbdbf9cfd	-0.09356115
80	0x3db7a556	0.08967082
81	0xbe15c70d	-0.14626713
82	0xbd58a8cb	-0.05289535
83	0xbcfc01b3	-0.030762529
84	0x3dc695f4	0.0969657
85	0xbdceb5b1	-0.10093249
86	0x3dc3f31e	0.09567855
87	0x3c8cbdfd	0.017180437
88	0xbdbbf892	-0.091782704
89	0xbdceea14	-0.101032406
90	0x3d2642a4	0.040590897
91	0xbdeb6ef2	-0.114957705
92	0x3d820a51	0.06349624
93	0x3d5220fc	0.051300988
94	0x3d9e5ee6	0.07732944
95	0xbdd9bc84	-0.106316596
96	0xbdc46da9	-0.095912285
97	0x3d3c4a8f	0.045969542
98	0xbdac9a9d	-0.08427928
99	0xbd45c92f	-0.048287567
100	0x3cfc94a5	0.030832598
101	0x3bfb1b9b	0.007663203
102	0x3c95eed6	0.018302362
103	0x3c5fce26	0.013659989
104	0xbcea9fe4	-0.028640695
105	0x3d9f0bc5	0.07765917
106	0x3b3c4815	0.0028729488
107	0xbdf3858e	-0.11890708
108	0x3de401d2	0.1113316
109	0xbe06fb18	-0.13181722
110	0x3d000c59	0.031261776
111	0x3e105b2b	0.14097278
112	0xbc9d68a4	-0.019214936
113	0xbcb0a769	-0.021564202
114	0xbdca24f6	-0.09870331
115	0xbdd4b9d6	-0.10387008
116	0xbce9fda7	-0.028563334
117	0xbcecdeb9	-0.028914796
118	0x3c6365f7	0.013879291
119	0xbdc05804	-0.09391788
120	0x3dec6e09	0.11544425
121	0x3dabac6f	0.083824985
122	0xbc891c5d	-0.016737157
123	0xbe226700	-0.15859604
124	0x3d52d4b0	0.051472366
125	0xbd4a4333	-0.049380492
126	0xbd576886	-0.052589916
127	0x3db7bf77	0.08972066
128	0xbd1481cd	-0.0362566
129	0xbd15d2d5	-0.03657802
130	0x3d967584	0.07346633
131	0xbd83f607	-0.0644341
132	0xbc14e12c	-0.009086888
133	0xbbf9f645	-0.0076282346
134	0x3acd07f4	0.0015642629
135	0x3e18ec8a	0.14933982
136	0xbd958574	-0.07300845
137	0x3d56d272	0.05244679
138	0x3d5f3bb0	0.05450028
139	0x3d8a3e15	0.067501225
140	0xbe0c3584	-0.1369229
141	0xbd63f4aa	-0.05565325
142	0xbdb1b5e8	-0.08677274
143	0xbd81d909	-0.06340224
144	0xbdfe7576	-0.12424748
145	0xbde5bbc1	-0.11217452
146	0x3d5ac41b	0.053409677
147	0xbd532583	-0.051549446
148	0xbe092ea7	-0.13396703
149	0xbd2f1790	-0.04274708
150	0x3ce23a64	0.027615733
151	0xbda597ed	-0.08085618
152	0x3dd2edb1	0.10299242
153	0xbd2ca9c3	-0.042154085
154	0x3d8662d9	0.065618224
155	0x3ceda976	0.02901147
156	0x3dff00a5	0.12451295
157	0x3dc7e5b6	0.09760611
158	0xbcb1f48d	-0.021723056
159	0x3df28251	0.11841262
160	0x3d75b496	0.059986673
161	0xbdc4a6ec	-0.0960215
162	0x3d434746	0.047675394
163	0x3e37f2e3	0.17963748
164	0x3d9d14d3	0.076699875
165	0x3d315951	0.04329807
166	0xbe144f4d	-0.14483376
167	0x3db25258	0.08707112
168	0x3d359283	0.044329178
169	0x3cb5cd37	0.02219258
170	0x3dc28595	0.09498135
171	0x3c81d06f	0.01584646
172	0x3e1502b9	0.1455182
173	0xbd97d79c	-0.07414171
174	0xbdcf6ce0	-0.10128188
175	0x3e05095f	0.12991856
176	0x3de2c607	0.11072927
177	0xbda46ab4	-0.080281645
178	0xbd3251da	-0.04353509
179	0xbd80463e	-0.06263398
180	0x3d819725	0.06327657
181	0x3dc17bae	0.09447418
182	0xbe08bcaa	-0.1335322
183	0x3dccf361	0.10007358
184	0x3cc01800	0.023448944
185	0x3d993f09	0.07482726
186	0x3cddb1d2	0.02706233
187	0xbdfe0b16	-0.12404458
188	0xbd96b258	-0.07358235
189	0x3cf4e86d	0.029895985
190	0xbda88256	-0.082279846
191	0x3de5b991	0.112170346
192	0xbb1ec611	-0.0024226943
193	0xbd090e8a	-0.03346113
194	0x3d50d5e6	0.05098524
195	0x3dd06895	0.101761974
196	0x3c8ada85	0.016949901
197	0x3e088f49	0.13335909
198	0xbc44ac7d	-0.012004015
199	0x3da1abea	0.07894118
200	0xbcd29c77	-0.025709374
201	0x3ca56981	0.02019191
202	0x3e1bc3dc	0.15211433
203	0x3ca68856	0.020328682
204	0x3d1806d6	0.037115894
205	0xbcd68af6	-0.026189309
206	0x3ad400da	0.001617457
207	0x3c7b830d	0.015351069
208	0xbdd797ab	-0.10526975
209	0xbe1c4c86	-0.15263566
210	0xbe2cbb96	-0.16868433
211	0x3d901387	0.070349745
212	0xbe142c22	-0.1446996
213	0x3e1446ad	0.14480086
214	0xbd93b968	-0.07213098
215	0x3d0aa974	0.03385301
216	0xbe597854	-0.21237308
217	0x3deb9160	0.115023375
218	0xbde89bb6	-0.113578245
219	0xbd7ef910	-0.062249243
220	0xbdb17543	-0.08664944
221	0x3d4b2b43	0.049601804
222	0x37f25970	2.8890296e-05
223	0xbe325e39	-0.17418756
224	0x3bf2293d	0.00739017
225	0xbccb7c2e	-0.024839487
226	0xbe556040	-0.20837498
227	0xbd46f026	-0.048568867
228	0xbd864f10	-0.06558049
229	0x3dd6d406	0.10489659
230	0xbd9046c0	-0.070447445
231	0x3ddcacf0	0.10775173
232	0xbd8785f6	-0.06617348
233	0xbde4613c	-0.111513585
234	0x3dd48a3b	0.10377928
235	0x3bd5d80e	0.006526
236	0xbaf73d10	-0.0018862803
237	0x3dfd4021	0.12365747
238	0x3e0956f1	0.13412072
239	0xbdc53a0a	-0.09630211
240	0x3d9b15d3	0.07572522
241	0xbdb56dca	-0.08858831
242	0xbd55138b	-0.05202059
243	0x3d5d18dd	0.05397879
244	0x3d2abd77	0.041684594
245	0x3e102022	0.14074758
246	0x3def03e0	0.11670661
247	0x3dba65a9	0.091014214
248	0xbe23ec33	-0.16008072
249	0xbce65bd0	-0.028119951
250	0x3c173226	0.009228265
251	0x3c8ee224	0.017441817
252	0xbde0da88	-0.109791815
253	0xbda4f852	-0.08055176
254	0x3c449951	0.011999444
255	0x3d7b4791	0.061347548

lstm.bias_ih_l1 f4 [256]
0	0xbdd125f2	-0.102123156
1	0xbd81e31e	-0.06342147
2	0xbd9ebafb	-0.077505074
3	0x3e116796	0.14199671
4	0x3d798375	0.060916383
5	0x3d587815	0.052848894
6	0xbd83402c	-0.06408724
7	0x3daed088	0.08535868
8	0x3dd50ebc	0.10403201
9	0x3db66243	0.08905461
10	0xbd91ac0d	-0.07112894
11	0xbc851fe2	-0.016250554
12	0x3e05a631	0.13051678
13	0x3da83fb1	0.08215273
14	0x3d7024bc	0.058628783
15	0xbdbd3bb5	-0.09239904
16	0xbc3426c9	-0.010995575
17	0x3c6e669f	0.014550834
18	0xbba7ed15	-0.005124698
19	0xbd365010	-0.044509947
20	0x3d899b03	0.06719019
21	0x3dba5f81	0.09100247
22	0xbb15bfe0	-0.0022849962
23	0x3df234f9	0.1182651
24	0xbd5d742e	-0.054065876
25	0x3e0fd472	0.14045885
26	0xbdba2fbe	-0.09091137
27	0x3e0acb9b	0.13554232
28	0xbd3ce41d	-0.046115983
29	0xbdc988f7	-0.09840577
30	0x3b927043	0.004468949
31	0x3e2d3a75	0.16916831
32	0xbd7c8215	-0.061647493
33	0xbd426292	-0.047457285
34	0x3c8229bf	0.015889047
35	0x3e29e84f	0.16592525
36	0xbd75a767	-0.0599741
37	0x3e20c481	0.1569996
38	0x3da4a1ec	0.08038697
39	0x3dbbe88e	0.09175216
40	0xbd7f6899	-0.06235561
41	0xbdee3c36	-0.11632578
42	0xbd955402	-0.07291414
43	0xbb3ac605	-0.0028499376
44	0xbcf07ed9	-0.02935736
45	0x3e038339	0.12843026
46	0xbdedf5f5	-0.11619178
47	0x3ddabdc7	0.106807284
48	0xbdc6307c	-0.096772164
49	0xbd9f0af1	-0.07765759
50	0x3d58e5cc	0.052953526
51	0xbd4339d3	-0.047662567
52	0xbdc90514	-0.09815422
53	0x3dd22f03	0.10262873
54	0x3e0df967	0.1386467
55	0x3d0ff702	0.035147674
56	0xbda6392a	-0.08116372
57	0xbd34f527	-0.044179108
58	0xbccacc61	-0.024755659
59	0x3d8e12e1	0.069371946
60	0xba74de66	-0.0009341001
61	0x3d18f931	0.037347022
62	0xbd94cdf7	-0.07265847
63	0xbdc9bb43	-0.098501705
64	0xbcfe7c73	-0.031065201
65	0xbdb0c778	-0.08631796
66	0xbde46540	-0.111521244
67	0x3df402bc	0.11914584
68	0x3d865c5e	0.065605864
69	0x3e29329b	0.1652321
70	0xbded1acd	-0.115773775
71	0x3db47d89	0.088130064
72	0x3df74d7e	0.12075327
73	0xbd85439d	-0.06507037
74	0xbd9a8b54	-0.07546106
75	0xbd9da58f	-0.076975934
76	0xbdabddf0	-0.083919406
77	0x3e1f18ac	0.15536755
78	0xbd5b2f5c	-0.053511962
79	0x3cde548f	0.02713993
80	0xbcda723f	-0.026665805
81	0x3d59f5ab	0.053212803
82	0x3db803f7	0.08985131
83	0x3c58954c	0.013219189
84	0xbd685b6b	-0.056727808
85	0x3d3b954a	0.04579667
86	0x3dc01a50	0.09380019
87	0x3dce6b3f	0.10079049
88	0x3cb4b019	0.022056626
89	0x3e04ceb0	0.1296947
90	0x3d90d167	0.0707119
91	0x3d296342	0.041354425
92	0x3ded8bd7	0.11598938
93	0x3c84f236	0.016228776
94	0x3d736689	0.059423957
95	0x3e1b148a	0.15144554
96	0xbcf0c037	-0.02938853
97	0xbd17ab15	-0.03702839
98	0x3df0d6f0	0.11759746
99	0xbd78ec82	-0.060772426
100	0xbd18cadd	-0.03730284
101	0x3c8fca25	0.017552445
102	0x3dc60c58	0.09670323
103	0x3db51cd6	0.08843391
104	0xbce75202	-0.028237347
105	0x3d0107a9	0.031501446
106	0xbc3c2a78	-0.011484735
107	0xbcc05b79	-0.023481118
108	0x3dd5af93	0.10433879
109	0xbcd48391	-0.025941642
110	0xbd53394a	-0.051568307
111	0x3e0ac6b2	0.13552359
112	0xbd671ebf	-0.056425806
113	0x3e132161	0.14368202
114	0xbd3e001a	-0.046386816
115	0xbdb86f33	-0.090055846
116	0xbd998dc8	-0.07497746
117	0x3cf138be	0.029446002
118	0x3c09ebb7	0.008418015
119	0x3e0426f4	0.12905484
120	0x3db558e5	0.08854846
121	0xbc6b7c06	-0.014372831
122	0x3b919d93	0.004443833
123	0xbdc7aa5e	-0.09749292
124	0x3c133297	0.0089842295
125	0xbcfb14be	-0.03064954
126	0xbdf9450c	-0.12171373
127	0x3c232cf1	0.009959445
128	0xbd4e74b9	-0.050404284
129	0x3d7bde25	0.06149115
130	0x3d9085a1	0.07056738
131	0x3d5a9a29	0.053369675
132	0xbc382233	-0.0112386225
133	0x3d82f2bc	0.06393954
134	0x3dfdf645	0.12400488
135	0xbddf10b8	-0.10891861
136	0xbd65f1b2	-0.0561387
137	0x3b88468c	0.0041588005
138	0x3c419e09	0.011817464
139	0xbcffc020	-0.031219542
140	0xbdb6b314	-0.08920875
141	0xbd29eed8	-0.041487545
142	0xbda7b948	-0.081896365
143	0xbdb37c89	-0.087639876
144	0x3ce3d2c1	0.027810456
145	0x3dbd8bf3	0.09255209
146	0xbd3bb661	-0.045828227
147	0x3d529fa5	0.05142178
148	0xbb8b4594	-0.0042502377
149	0x3ba3627b	0.004986105
150	0xbdde233b	-0.108465634
151	0xbd527cb9	-0.051388476
152	0xbdd8016b	-0.105471455
153	0xbd841a5c	-0.0645034
154	0x3c39176e	0.01129709
155	0x3dacd815	0.08439652
156	0xbcf50c13	-0.029912984
157	0xbcd4209a	-0.025894452
158	0xbd92904e	-0.0715643
159	0x3c3c55a3	0.011495027
160	0xbe00c00c	-0.1257326
161	0x3da5f957	0.081041984
162	0x3d1a4183	0.037660133
163	0xbceaccb8	-0.02866207
164	0x3caeae89	0.02132346
165	0x3de9bea7	0.11413317
166	0x3db81364	0.089880735
167	0xbdb0ad18	-0.08626765
168	0xbce07270	-0.027398318
169	0x3c2571b4	0.01009791
170	0xbcba5ee4	-0.022750326
171	0x3dd49678	0.10380262
172	0xbc37e784	-0.011224631
173	0xbc5ff5c5	-0.013669436
174	0x3dea03c1	0.11426497
175	0x3d105f46	0.03524711
176	0xbd697674	-0.05699773
177	0xbd42895d	-0.04749428
178	0xbd711322	-0.058856137
179	0xbd3a76d4	-0.04552348
180	0xbdd7e2c3	-0.10541298
181	0x3dfdc31c	0.1239073
182	0xbd20c3b1	-0.039249126
183	0xbb5782ca	-0.0032884353
184	0xbd51e50e	-0.051243834
185	0xbdd2c5cf	-0.10291635
186	0x3dc445ab	0.095836006
187	0x3c51bb15	0.0128009515
188	0x3c9f2d7b	0.019430866
189	0x3e0ff593	0.14058523
190	0xbd6298b3	-0.055321407
191	0xbd8b972f	-0.06815945
192	0x3d180bcc	0.037120625
193	0xbdd72a12	-0.10506071
194	0xbdcd19e2	-0.100147024
195	0xbd8f3fd8	-0.06994599
196	0x3d3a9164	0.04554881
197	0x3dc72a49	0.09724862
198	0x3d1db3dc	0.038501605
199	0x3d561a05	0.052270908
200	0xbccfa73e	-0.025348302
201	0xbcde7dc3	-0.027159577
202	0xbaf99664	-0.0019042012
203	0xbd00e249	-0.031465802
204	0xbcf57fb5	-0.029968122
205	0x3e042aaf	0.12906907
206	0x3e3d1b29	0.18467392
207	0x3d16c42d	0.03680818
208	0xbca87ae6	-0.020566415
209	0xbddfe384	-0.10932067
210	0xbda2358d	-0.0792037
211	0x3b11e9e1	0.0022264647
212	0xbd05526c	-0.032549307
213	0xbccc77d8	-0.02495949
214	0xbd002927	-0.031289246
215	0xbcdcf691	-0.02697304
216	0xbcfcf4c2	-0.030878428
217	0x3dc67386	0.09690003
218	0x3ae2e73d	0.0017311346
219	0xbd4c2089	-0.049835715
220	0x3d5c6f58	0.053817123
221	0xbc72f416	-0.014828702
222	0x3e079974	0.13242131
223	0xbd78d428	-0.060749203
224	0x3e2d90a1	0.16949703
225	0xbcff2791	-0.031146796
226	0xb8c995b7	-9.6123134e-05
227	0x3e26b8cc	0.16281432
228	0xbd190a70	-0.03736347
229	0x3deb4893	0.11488452
230	0x3d831f68	0.06402475
231	0x3e01e9a0	0.12686777
232	0x3d038256	0.03210672
233	0xbd1ec0a2	-0.038757928
234	0xbd639583	-0.055562507
235	0xbb80d059	-0.003931087
236	0x3dd3483d	0.10316513
237	0xbda685e7	-0.081310086
238	0xbdfdc099	-0.12390251
239	0x3dc70f55	0.09719721
240	0xbd3458ea	-0.044030108
241	0x3d67fd62	0.05663813
242	0x3b960467	0.0045781615
243	0x3cfaea54	0.030629314
244	0x3c789b03	0.015173676
245	0x3d8e4e31	0.069485076
246	0xbd3fa037	-0.046783652
247	0x3d2466d3	0.040137123
248	0x3d4ebf35	0.050475318
249	0xbd514c74	-0.051098302
250	0x3d3d3d38	0.04620096
251	0xbd478196	-0.048707567
252	0x3cb3a076	0.0219271
253	0x38a34514	7.7853125e-05
254	0xbd2cc8ba	-0.042183615
255	0x3df8704b	0.12130793
