models/rnn_0512_ep11_ac98.ckpt (torch_old, 346485 bytes, 14 tensors)

lstm.weight_ih_l0 f4 [256, 8]
00000000: 87fc a8bc f796 853b 0056 e43c c05f 1fbe
00000010: 91c7 333e 61df 7f3e 5330 7dbe a019 f03d
00000020: 037b 09be b767 b1ba dd5a 343e a279 edbb
00000030: 5125 0e3d ff55 ef3d d0a5 f9bc 14ed 38bd
00000040: b27f bfba 3c01 2ebd 5c7a 233e 85bb 083e
00000050: 887e 97bd f782 553d 3b2c a03d bd1c 22be
00000060: f1e8 663d e2a8 743c 77c4 ceba a397 1639
00000070: fcad 2abe 4597 7cbe 6043 033e ca0d 49bc
00000080: d5d2 653c 81ea 06bd b962 5bbe a55c c83d
00000090: c859 b43d 9855 893d 15cb 433d 3cbe 6bbd
000000a0: a0a5 0c3d 7852 333e 9346 05be ac29 c23c
000000b0: 9d29 513d ff80 83bc 99c0 ef3d c8f0 953b
000000c0: b56e cf3d fe25 86bc a68c 143c 1ec2 f73d
000000d0: aba0 0f3d 9f23 04be 05cc a43e 8773 843d
000000e0: db7d 56bc d67c a4bd d0d8 12be 52eb babd
000000f0: 2265 943e 9f01 abbd 8a53 b9bd 23d7 9fbd
00000100: 2a38 ce3d 5751 f13a 9ede 27be 3207 ed3c
00000110: be1f 343e 2d2f 12be f350 70be 2be6 59bd
00000120: c5b1 173d e433 d2bd a438 1ebd e85c 98bd
00000130: afdf 85bd 5531 ff3d 5f35 423d 6fef fd3d
00000140: 8e9f 67bd 245a f0bc d4e0 3a3c 51da e13d
00000150: 5d86 f1bd 6484 013d f7ae 713e 79e9 833d
00000160: ba99 f8bb ce3e 36bd 3b13 42b9 1105 47be
00000170: e953 503e fae5 2dbe 5065 b7bd cce6 173e
00000180: df76 f83d 9287 173c 6ea4 4fbe 42d3 31bc
00000190: c0d7 0fbe 9b16 a6bd 42b9 96bd fb9d 29be
000001a0: 310f d0bc 2d40 4fbd 7320 db3d dc72 d5bd
000001b0: 379b 79be fd8a 1cbe 041d 11bd 16df 80bc
000001c0: 0d44 3cbc 4bf6 613d d3ed 2cbe c725 adbc
000001d0: 1ee6 793e 9adf ea3d 5cbe 07be 28d3 263e
000001e0: 28f3 2ebe 95cc bebc 8ba8 3d3e 521d 813d
000001f0: 0b4a aebd be23 ed3d 25ec 1cbe 4506 17be
00000200: fdcd b73d 91e4 9d3d e4db 29bd 68df 843d
00000210: d21c a23d b0b6 323d 09b8 8dbd 90fc 3cbd
00000220: 8396 0c3d 8845 39bd 694e 20be 4cc8 28bd
00000230: 5171 853b b210 c8bd 89a0 d6bd c71d 37ba
00000240: 82f5 c83d 6e9b e43d 382a 173e 21b8 94bd
00000250: ac31 823d 7e25 4ebd 691b 10bd c70a 69be
00000260: fe26 863c e4da e13c 3b68 bbbd 818d 0f3d
00000270: daef 723e aae4 ac3d 5288 eb3b 26be 743d
00000280: c8bc cabd 5053 a83b dac5 753b 0d3a 0abd
00000290: 13bb b63d 89d5 3dbe e6ae 01be 4322 0fbd
000002a0: ce97 09bd fcc6 f03d 5689 5ebd 1bad 39be
000002b0: 8fb9 edbd 8882 b03d 3fd2 203e a161 fa3d
000002c0: 85a8 0f3d 77cb dbbc d440 b83d bb36 9f3d
000002d0: 5242 7e3e dc8c b1bd 5ca7 35be 741f 85be
000002e0: c65f 10be 898c a03d 96b0 803b 00b3 c03d
000002f0: 5552 913d 38e3 323e 7079 c4bc d12a 22be
00000300: a796 8d3d 3afb 803c e92d c43b 61dc f53c
00000310: 43cd a43d 6965 b13d 91ab 8fbe 43ca 5cbe
00000320: 858e c83c 7e2b 12be 01a3 d73d 4f62 4a3d
00000330: 8ed0 1e3e f3e9 033e 1afa e2bd 2b8f e33d
00000340: 8fb8 063e e4d6 ce3d 4788 d5bd 925e 0f3d
00000350: bf50 8a3d bf12 a3bd a905 9bbe 554c 8dbd
00000360: 78fa babd aa4d d4bb 6398 0a3e 5ca0 aa3d
00000370: ab54 0a3d cb08 bebd 3ea2 b23e 5d22 98bd
00000380: bba6 813d 85cd a5bb 8a27 38bd 7984 44be
00000390: 4d83 f03d f5e2 2f3e 6a40 47be f2d4 593e
000003a0: 8745 d83c 3925 0abe 0afc 173e 790a dd3d
000003b0: 0408 88bd 181b aa3d 2861 c9bc 4972 76be
000003c0: bc4c fbbc bd4c 01bd 33a9 12be c635 a0bd
000003d0: 6a5d 2b3e e52f 91be d461 87be 4ad9 253e
000003e0: c31b dbbd 82a2 873d 7984 8f3d 721f 833d
000003f0: 115a afbb 89b2 a7bd d9f6 fbbd 7426 46bd
-0.020628227 0.0040768343 0.02787304 -0.1556387 0.17556597 0.24987556 -0.24725465 0.117236376
-0.13425831 -0.0013534938 0.17612787 -0.007247166 0.034703556 0.11686324 -0.030474573 -0.04514797
-0.00146102 -0.042481646 0.15964645 0.13352783 -0.07397181 0.05212685 0.07820936 -0.15831275
0.056374494 0.014932843 -0.0015775104 0.00014361604 -0.16667932 -0.2466708 0.1281867 -0.012271354
0.014027317 -0.032938484 -0.21424378 0.097832955 0.08806187 0.06705779 0.047801096 -0.05755447
0.03433764 0.17511928 -0.13015203 0.023701511 0.051065076 -0.016052721 0.11706657 0.0045758225
0.101285376 -0.016375538 0.009066736 0.12097572 0.035065334 -0.12904213 0.32186905 0.064673476
-0.01309153 -0.08031623 -0.1434052 -0.09126915 0.28983408 -0.083499186 -0.09049137 -0.07804706
0.10069306 0.0018411082 -0.16393515 0.028934095 0.17590234 -0.14275809 -0.2346838 -0.05319802
0.03703477 -0.102638036 -0.038628235 -0.074395955 -0.06536805 0.12460581 0.04741418 0.12399184
-0.056548648 -0.029339857 0.011406142 0.11027969 -0.11793206 0.0316204 0.236019 0.06441016
-0.007586685 -0.04449349 -0.00018508446 -0.19435526 0.20344509 -0.1698226 -0.08954871 0.14834136
0.12132048 0.009248631 -0.20277569 -0.01085359 -0.14047146 -0.081097804 -0.07359554 -0.16564171
-0.025397869 -0.050598312 0.106995486 -0.10422298 -0.24375616 -0.15287395 -0.035428062 -0.015731376
-0.011490834 0.055166524 -0.16887598 -0.021136178 0.24404189 0.1146843 -0.1325621 0.16291487
-0.17084944 -0.023290912 0.18521325 0.063044205 -0.08510216 0.11579083 -0.15324457 -0.14748485
0.08974836 0.07709611 -0.04146947 0.06487924 0.07915653 0.043631256 -0.069198675 -0.0461393
0.034323227 -0.045232326 -0.15654911 -0.041206643 0.0040723463 -0.097688094 -0.104798384 -0.0006985333
0.09812452 0.11162458 0.14762199 -0.07261682 0.063571304 -0.050328724 -0.03518239 -0.22758017
0.016376015 0.027570195 -0.0915074 0.035047058 0.23724309 0.08442052 0.0071878815 0.059751652
-0.098992884 0.0051368847 0.0037501962 -0.033746768 0.089224 -0.18538488 -0.12664375 -0.034944784
-0.033592038 0.11756703 -0.054330193 -0.18132441 -0.11607658 0.08618647 0.15705203 0.122256525
0.035072822 -0.026830418 0.0899674 0.07774111 0.24829987 -0.08669445 -0.17739624 -0.2600056
-0.14099035 0.07839305 0.0039273007 0.094091415 0.07095782 0.1746949 -0.023983687 -0.15836646
0.069135 0.015744794 0.005986918 0.030012311 0.08046963 0.086619206 -0.28060582 -0.21561532
0.024482021 -0.14274403 0.105291374 0.04941016 0.15509245 0.12882213 -0.11082859 0.111112915
0.13156341 0.10099581 -0.104263835 0.0350023 0.06753682 -0.0796256 -0.30277756 -0.06899325
-0.091298044 -0.006478985 0.13534693 0.083313674 0.033772152 -0.09279021 0.34889406 -0.07428429
0.063306294 -0.0050599 -0.044959582 -0.1919116 0.11743794 0.17176421 -0.19458166 0.21272638
0.02640034 -0.13490762 0.14842239 0.10793013 -0.06642154 0.08305949 -0.02458246 -0.24067034
-0.030676238 -0.031567324 -0.14322357 -0.078227565 0.16734853 -0.28356853 -0.26441824 0.1619617
-0.106986545 0.06622793 0.07007689 0.06402482 -0.005351313 -0.0818835 -0.12302942 -0.048376516

lstm.weight_hh_l0 f4 [256, 64]
00000000: 47ab 403d 656b 22be 70c6 a03c 7862 063d
00000010: 57ad c1bd 3e32 93bd 5cf3 74bd 1c17 03be
00000020: 10c3 3cbe 8285 583d 1299 07bd 136f acbd
00000030: c6de e53c 24b2 47bc 675b 08bd f6a7 8e3d
00000040: 6e9e ae3d 4837 c33c b473 493b 291f 143e
00000050: 69b8 e7bd d51c 9c3d a610 e73d 1cf8 1bbe
00000060: ee51 94bd b673 94bd f96d 2b3e e8a9 d3bd
00000070: 1070 b7bd 2a60 233e 5f15 f8bd 2b5c 0f3e
00000080: 803a d43d 72b7 843e cad6 dbbd 698a e23c
00000090: 8599 803d a126 573c 0caf 323e c23c 26be
000000a0: fda8 453d 3643 343d e9ce bbbd 16aa 8ebc
000000b0: 73c3 a73d 65be b13d 52dc 6fbc 07ee 2bbc
000000c0: 17fd 6cbd f67a 813d 470b 2cbd 811e 063c
000000d0: 8278 0bbd 0a7d 7d3d f054 063e d037 333d
000000e0: 781a 883d dcf9 1b3e 729a cebd 9af5 93bd
000000f0: ea59 2d3e 1beb 2b3e 87c4 8cbe 7419 be3c
00000100: 2fde 5ebe d6a2 58bb 6b93 20be ad84 9bbd
00000110: 378c 483c 9df8 79bd c993 bd3d 2d80 33bd
00000120: e75f e1bd 782a 27be 0eaf b0bc 481d 793d
00000130: cbe8 893d cbf8 35be 4317 06be 4b6c 0dbd
00000140: 974c 59bb c4b4 14be 06dd c23d 655c 8e3d
00000150: 6087 913d 073f e53d 5cad 82bd 053a 463c
00000160: 3c05 b7bd 93f3 cf3c a0c9 fa3d 38fe dcbc
00000170: 09e9 02be 5759 73bd cefa 173d d71b e73d
00000180: cfef 293e 8df1 533d 3ab9 93bd 158d 33bd
00000190: b4e6 2bbe 78fb fc3c 3720 9cbd 697a f93d
000001a0: c919 f6bd c9da 96bd 00ea c8bd ce69 593d
000001b0: a045 7a3e 3473 ed3d 2e41 323d 83df 18be
000001c0: 6e63 eaba 75f9 63bd c520 813d 46da b0bd
000001d0: ded9 003e 6e77 fabd 7fa0 073e 0316 4d3c
000001e0: 0ae2 d33d 677b 31bd 00f5 a7bd f5d2 ff3d
000001f0: 0193 113e 546b af3d b451 9b3d 813f b2bd
00000200: b9f7 21bc 1e18 3dbe f549 143e 4a3f cbbc
00000210: d230 c0bd c499 4a3d 02e3 07be 550f fd3d
00000220: c174 033d 20d2 fa3b c765 873d d312 2c3e
00000230: 5ba3 d5bd da22 c0bc 7f7c 95bc 8ad2 db3d
00000240: d7fb 1bbd 365e 1ebe c00d 6d3e 8214 88bd
00000250: bfb9 10be 90ad dbbd 834b 9c3d 381a 6abb
00000260: 40e9 14bd d3ce a0bd 0ac4 bdbc 58da 8b38
00000270: 7e12 3fbe b1be 86bd 355b a8bd 34dc 173e
00000280: a457 f73d f232 abbd 9475 e6bb 3cae 08be
00000290: a1b1 d1bd 098c 9ebc 0310 4dbe 74cb 853d
000002a0: 40d1 18be d635 7abe 3938 d33b de3e 7ebd
000002b0: e5b4 d13d 591c f9bc 8423 153e 5aeb 623e
000002c0: 162f 223e 6b12 573e 95bd ae3d 0542 d0bd
000002d0: 0344 aa3d 951d 18be 13d5 e13d e6fe 42be
000002e0: c5e4 4cbd fdcb 60be 0a23 40bd 1195 16bc
000002f0: 1fcc 54be fa68 c23c 3c09 823d 6798 623e
00000300: f6e1 69be c740 34be 4a04 b5bd d1a2 aebc
00000310: 6c67 0d3e 1b2e 21bc 84d6 903d 6160 68bd
00000320: ecee cebd 791e febc 5a16 acbc 1946 833c
00000330: bd6f b4bc 6ef2 4dbd 54f5 123d 5c64 0dbd
00000340: 9564 30be f50f 28bb 2319 863e fc2b 99bd
00000350: 32a6 8bbe ca2a 86bd 3289 8f3d 1e23 253e
00000360: 1c26 903d ed53 f4bd 7bed e8bc 267d b93d
00000370: 990f c9bd 1274 fdbc 5ce1 f3bd 3f41 0e3d
00000380: 97a6 e2bd 79a3 313c c083 f63d 64f4 003e
00000390: 4af2 cd3c b795 2f3e 749a 09be afd6 07be
000003a0: 828d 25bd 92a9 37bd 8b31 853e 3556 133e
000003b0: 6bd9 cfbd 9ba1 14be 6ac8 3abe e92e 53bd
000003c0: 655b 2b3e 6309 883d 34a3 04be e607 4a3e
000003d0: 12bb 063e ba84 01be 200f c8bd 6f35 81bd
000003e0: 95cd 60bc 1efa aebd 03e6 c83c 568b bd3c
000003f0: 0abb 303c 2c5d 03be bf90 a63c 5e48 f9bd
0.047038343 -0.1586128 0.019625872 0.03280875 -0.0945689 -0.07187317 -0.059802398 -0.12801784
-0.18433785 0.052861698 -0.033104964 -0.08419623 0.028060328 -0.012188468 -0.033290293 0.0696563
0.08526312 0.023830071 0.003073913 0.14465012 -0.1131447 0.07622687 0.11282472 -0.15231365
-0.07242189 -0.072486326 0.1674117 -0.103351414 -0.08956921 0.15954652 -0.12113451 0.14000003
0.103627205 0.25921208 -0.10734327 0.02765389 0.062792815 0.013131768 0.17449588 -0.16234115
0.048256863 0.04400941 -0.09170324 -0.017415088 0.08191576 0.08678893 -0.014639931 -0.010493762
-0.057858553 0.06322281 -0.042002942 0.008185984 -0.034050472 0.061886825 0.13118339 0.0437544
0.066456735 0.15232033 -0.10088052 -0.07224579 0.1692883 0.16788904 -0.27493688 0.023205496
-0.21764444 -0.0033056042 -0.15681235 -0.07593665 0.012240461 -0.06102811 0.092567034 -0.04382341
-0.1100462 -0.16324794 -0.021567848 0.06081894 0.06733855 -0.17770688 -0.13094811 -0.034527104
-0.0033157223 -0.14522082 0.09514813 0.069512166 0.07105899 0.11193662 -0.06380722 0.012098794
-0.08936545 0.0253847 0.12245488 -0.02697669 -0.12784208 -0.059411373 0.03710442 0.11284607
0.16595386 0.051744033 -0.072130635 -0.04383572 -0.16787225 0.030881628 -0.07623332 0.12181551
-0.12016637 -0.07365949 -0.09810257 0.05307942 0.24440622 0.11594239 0.04351919 -0.14929013
-0.0017882416 -0.055657823 0.063050784 -0.08635382 0.1258311 -0.12229811 0.13244818 0.012517455
0.10345848 -0.043330576 -0.08201027 0.12491409 0.14216234 0.08565393 0.07583943 -0.08703519
-0.009885722 -0.18466231 0.14481337 -0.024810452 -0.09384312 0.04946305 -0.1327019 0.1235644
0.032093767 0.0076544434 0.06611209 0.16804056 -0.10431548 -0.023454119 -0.01824784 0.107335165
-0.03808197 -0.15465626 0.23149776 -0.066445366 -0.14133357 -0.10726464 0.0763159 -0.0035721194
-0.036355257 -0.078519486 -0.023164768 6.668706e-05 -0.18659398 -0.0657934 -0.08220521 0.14830095
0.12077263 -0.083593264 -0.0070330594 -0.13347715 -0.10238958 -0.019353883 -0.20025639 0.06532946
-0.14923573 -0.244346 0.0064459112 -0.062071674 0.10239581 -0.030409025 0.1456433 0.22160092
0.15838274 0.2100312 0.08532254 -0.10168842 0.083137535 -0.14855035 0.11026969 -0.19042549
-0.05002286 -0.21952815 -0.046908416 -0.009190814 -0.20780991 0.023731697 0.063494176 0.2212845
-0.22840104 -0.17602836 -0.08838709 -0.021317871 0.13808984 -0.009837653 0.070721656 -0.05673254
-0.101041645 -0.03102039 -0.021006752 0.016024636 -0.022025937 -0.050280027 0.035878494 -0.03451954
-0.17225869 -0.0025644277 0.26191053 -0.074790925 -0.27275234 -0.0655113 0.0700859 0.16126677
0.07038519 -0.1193007 -0.028433552 0.09057073 -0.09817428 -0.030939136 -0.11908218 0.034730192
-0.11066931 0.010842198 0.12036848 0.12593228 0.025139946 0.17146955 -0.13437825 -0.13265489
-0.040418155 -0.04483945 0.2601436 0.14388354 -0.10148891 -0.14514773 -0.18240514 -0.05155841
0.16734083 0.066424154 -0.12952882 0.19729576 0.13157299 -0.12648287 -0.0976851 -0.0630902
-0.01372089 -0.085438 0.02452374 0.02313773 0.010786781 -0.12828511 0.020332692 -0.12172006

lstm.bias_ih_l0 f4 [256]
00000000: 29b8 caba 2e89 583e 1b4c 313d bedf 97bd
00000010: 0214 303d f958 90bd 18c9 b7bd 4be3 90bd
00000020: 0123 a5bb 90ee 883d 8cf4 0f3e fcf6 d53c
00000030: 613c b73d d692 1dbd de19 05bd d094 d1bd
00000040: 6a86 5e3d 23d9 09bd bda9 b1bd aa5f 203e
00000050: 093c 3e3d cca3 2dbe 415b 3f3e 9b44 12be
00000060: 596e fa3d 05af 8b3c 782f 53bd 9298 bfbc
00000070: 9089 ba3c f126 2f3e f86a b13d 95c7 8cbb
00000080: ad95 debc 7e43 aebd 7d1a 673e 40b8 003e
00000090: 1895 afb9 8305 1c3d 087c aa3c 6ecf 213d
000000a0: bdbf e13d 896c 473d 9ac0 913d 52f4 9fbc
000000b0: b422 edbd 413c ef3d 1964 b33d b0b0 43ba
000000c0: 9ea9 c63c e8de af3d 5943 0b3e fa53 a23c
000000d0: c5d1 893d e9b9 95bd 3ee6 6d3d 7385 e83d
000000e0: 5994 59bb 3739 283b 7208 f13d f818 0a3a
000000f0: 5bd2 2d3d 0d1f a73d ee2e e3bd 8aac 523e
00000100: 95fb 1ebd 38dd 87bc 95f9 05be 903e 59bd
00000110: bce1 c03b 83e1 f43c d406 803c 9d18 a2bd
00000120: cb80 1dbc a33e d23d 3ef5 9b3d 171a 433e
00000130: 98a6 58bd ec5f c4bd f028 f2bc c958 2f3d
00000140: 9e96 d4bd 016d 38be 1440 96bd fae8 603d
00000150: 342a 32be 22d5 82bd a30d 83bd 57b9 a1bd
00000160: bb18 c43d aed1 013e 79b0 67bd 0611 623e
00000170: 013e 68bc 8322 1c3d 3a9e 583d b67a 453e
00000180: 60fe 603e 8c1b 17bb 67ad 423e f00d d53d
00000190: 50f4 0b3e 4473 2a3e d4c5 73bd 4360 4ebd
000001a0: 66e3 053b 55f1 e1bd 8d0b febc 605f ee3d
000001b0: 198e 0bbd ef6a aebd deb9 25be 2d61 d53d
000001c0: 65ce 093e 1abe 8fbd 1421 c0bd b580 e33c
000001d0: a5b5 863c 5677 ec3d 80bd 173e 61c0 283e
000001e0: f7ea 11bd 73b1 2b3e 8104 973d 344b 9bbd
000001f0: ee92 073c b871 dbbb 9014 303e 5197 383d
00000200: fa6b 083e 8190 153e bdd7 9ebd 2352 eebd
00000210: 6b27 19be a2a8 513d 2bcf 81bd 1454 f13d
00000220: 44a7 07bc 82f9 f4bd 00b5 afbc 5e54 953d
00000230: 9f99 c4bd 3fb4 3f3d cc2e 5a3c 64da abbd
00000240: 36d8 883d b7ae a1bd 92ad 77bc 45a1 b03d
00000250: 3c90 f1bd 4d0a 033c c869 e23d e1b4 bc3d
00000260: 1d49 e4bd d066 1ebe cc19 9fbd 93a2 fcbc
00000270: e2b1 d837 721c b93c 9d92 9fbd afb0 d53c
00000280: ab48 3ebd 9349 6abd a9c1 1ebd 5eab 05bd
00000290: 7dc6 d73d 6760 d03d d45d 91bc b4a0 0d3e
000002a0: 0b66 053e 8c25 20be 5398 583d c8b1 af3c
000002b0: 1b32 91bb 9632 d73c 5a8d ab3d 750f b9bc
000002c0: 316c 263d 33b2 623d d408 aaba a471 f03d
000002d0: 1adf 13bd d916 0ebe 5e29 d73d 7011 cd3d
000002e0: f40f 02be 54a3 0abe 1fd1 e03d 6f9e 07bc
000002f0: d2a8 dfbd e603 e93d 4511 0b3e 67fa febc
00000300: 5d15 8fbb 271d 643c bd6d b0bb 7dcd 84bc
00000310: b6d8 f7bc 65ed 753d 8d5b f6ba b9d4 d53c
00000320: e7e1 10be 7550 003d db84 8c3d 9cf0 7b3d
00000330: 4eb0 9fbd 590a 943d 0c7a 943d bb45 9ebd
00000340: 2441 c83c b915 1cbc ff30 debd 50c9 a4bc
00000350: 9b12 85bd 0a61 443d bd59 a33d adfe dd3d
00000360: 2aed 67bc 1b5d 0a3e 23e7 5e3e 85c2 66bc
00000370: 4bcc c4bd fa0e 183e d8f8 cfba 4c7f 1b3d
00000380: 4d64 10bd 4b1e eb3b 5275 99bd e80d e1bc
00000390: cbb2 ad3c d3cf f9bd 4ec8 8f3b 45e1 28be
000003a0: e3b7 0b3e f3ad 573d aaf4 9f3d 2f2f 40be
000003b0: 6a9a 413e 80d2 10be 9854 f8bd 3113 f43d
000003c0: 18ad d43d 865a dc3c 9893 8ebd 84a7 95bd
000003d0: f399 7f3d 64ee e93d cef6 0a3e 95d6 12bd
000003e0: d61b bf3c eee1 72bd 5d4a 0cbd 534b ad3d
000003f0: 4c62 e33d 8dcb 55be 13dd 263e c1c9 013e
-0.0015466261 0.2114608 0.04328547 -0.07415722 0.04298783 -0.0704822 -0.089739025 -0.07074603
-0.005039573 0.06686127 0.14058131 0.026118748 0.08947063 -0.03847011 -0.032495372 -0.10233462
0.054327406 -0.033654343 -0.08674953 0.15661493 0.046443973 -0.16957015 0.18687154 -0.14283983
0.122280784 0.01705123 -0.05155894 -0.02338818 0.022770673 0.17104699 0.08662981 -0.004296253
-0.02717098 -0.08508967 0.22568698 0.12570286 -0.00033489685 0.038091194 0.020811096 0.03950446
0.11022899 0.04868749 0.07116814 -0.01952568 -0.11578885 0.116814144 0.087593265 -0.0007464988
0.024250802 0.08587438 0.1359991 0.019815434 0.067294635 -0.0731085 0.058080904 0.113535784
-0.0033199994 0.0025668868 0.11769189 0.0005268003 0.04243694 0.08160219 -0.110929355 0.20573631
-0.038814146 -0.016584978 -0.13083489 -0.05303818 0.0058862846 0.029892689 0.015628256 -0.07914851
-0.009613226 0.10265853 0.076151356 0.19052921 -0.05289325 -0.09588608 -0.029560536 0.04280928
-0.103802904 -0.18010332 -0.07336441 0.054909684 -0.17398912 -0.06388308 -0.063990854 -0.07896679
0.095750295 0.12677643 -0.05656478 0.22076806 -0.014174939 0.03811885 0.05288527 0.19285092
0.21972036 -0.002305719 0.1901146 0.10403049 0.13667417 0.16645533 -0.059514835 -0.05038477
0.002042973 -0.110323586 -0.031011367 0.11639285 -0.03407106 -0.0851649 -0.16184184 0.104189254
0.1345764 -0.07018681 -0.09381309 0.027771333 0.016444037 0.11546199 0.14818382 0.16479637
-0.03562447 0.1676691 0.07373906 -0.07582703 0.008274777 -0.006696906 0.17195344 0.04506618
0.1332244 0.14605905 -0.077559926 -0.1163676 -0.14956443 0.05118621 -0.06338342 0.11783615
-0.008279625 -0.11961652 -0.021448612 0.072914824 -0.095996134 0.046802755 0.013316821 -0.08391264
0.06681864 -0.07894652 -0.015117066 0.0862451 -0.11795089 0.007998061 0.110553324 0.092141874
-0.11146758 -0.15468907 -0.07768592 -0.03083924 2.583204e-05 0.022596572 -0.07791636 0.026085226
-0.04645602 -0.057199072 -0.038758907 -0.03263413 0.105359055 0.10174637 -0.017744936 0.13830835
0.13027208 -0.15639323 0.052879643 0.021447077 -0.004431022 0.026269238 0.0837657 -0.022590378
0.040630523 0.055345725 -0.0012972602 0.11740425 -0.036101438 -0.13875903 0.10505937 0.100130916
-0.12701398 -0.13538867 0.10977387 -0.00827752 -0.10920872 0.11377697 0.13580807 -0.03112526
-0.0043665604 0.013922966 -0.0053841756 -0.016211266 -0.030254703 0.06004085 -0.0018795595 0.02610241
-0.14148675 0.03132673 0.06861278 0.06150876 -0.07797299 0.07228536 0.07249841 -0.07728144
0.024445124 -0.009526663 -0.10849189 -0.020115525 -0.06497689 0.047944106 0.079761006 0.10839591
-0.014155665 0.1351208 0.21767859 -0.014084463 -0.09609278 0.14849463 -0.0015867008 0.037963197
-0.035251904 0.007175242 -0.0749308 -0.027472451 0.02120342 -0.121978424 0.004387892 -0.16492184
0.13644366 0.052656125 0.07810338 -0.18767999 0.1890656 -0.141428 -0.1212551 0.11917723
0.103845775 0.026898634 -0.06961745 -0.07307342 0.062402677 0.114224225 0.13570711 -0.035849173
0.023328703 -0.059297495 -0.034250606 0.084616326 0.11102733 -0.2087843 0.1629527 0.1267462

lstm.bias_hh_l0 f4 [256]
00000000: ea4b 9c3d 45f1 4f3e 7dd2 183d 1a8d f53b
00000010: 66f9 1c3e 6217 b43d bc6d febc 2d31 a7bd
00000020: cd86 823c 9ed0 ce3d 93ae 323e d97f 273e
00000030: b3b8 14bd 7441 9bbd 9380 96bd 6960 d23d
00000040: b176 a33d 871b 223d 3b78 5dbd ba7b b03d
00000050: 0125 07bc 212a 523d 2c45 433e 6010 30bc
00000060: 9d8e 493d 8ac4 a03d ddee 3d3d ef88 92bd
00000070: 7df9 dcbd 8264 d93d b657 533d 46f7 b53c
00000080: 2604 9c3d a8d3 3abe 8c53 8b3d 6239 b23d
00000090: 6b53 663e a44b 2e3d 081b 983d 3391 07be
000000a0: 42c9 333e fc9b 803d c626 903d 236d e43b
000000b0: 5cf3 c73d 0256 9abd ebf1 1cbd a418 c93d
000000c0: 4149 b9bd 802e 173e 0998 313d 8c2a 02be
000000d0: ba7a 123c 24a8 79bd 3663 6d3e 0333 a5ba
000000e0: 44e7 febd 3d3c dabd edb9 ea3d 271b ca3d
000000f0: 454d 013e 5948 723d 0279 18be b150 7c3d
00000100: 6703 49bd 6321 9f3c 1db3 b6bd de15 583d
00000110: b9f7 b4bd d7c8 933c aa04 403e f2ec d13c
00000120: dcdb 70bd 6d8a 923d 3731 033c 1647 323e
00000130: 28eb dd3d ca4b 603d a2f1 4f3d 012f c7bd
00000140: 2a80 123e 9354 b1bd 730c d23d 8664 fa3d
00000150: 3dab ddbc 823f 76bd b31d c5bd 1ce5 163e
00000160: ea79 85bc 18f2 c63d 653b 043d d602 3e3e
00000170: 1aab fbb9 ebdf 023b f0ed a23d 10d5 253e
00000180: afe0 273e a304 94bd d620 133d 2534 ab3d
00000190: de69 1d3e 383e dc3d fa65 6b3d 893b 26be
000001a0: 5a56 b7bd 4ff1 3c3c 8568 85bd 95d6 463e
000001b0: e10b 3e3c d7ab bcbd e9ca 15be d0fa d03d
000001c0: fb73 38bc 74fd be3d f349 b9bc 50cb a93d
000001d0: 8615 003e 34c2 9dbc 8c39 143e 32d9 173e
000001e0: 45f4 683d be4a 8c3d 17c3 a2bd 5976 6e3d
000001f0: aea4 483e 3f60 133d e5e6 373d 01fc 16bb
00000200: bc35 b43d 8968 6c3d 5b20 c6bc 67c3 dabd
00000210: 09dd abbd 2797 e53b 7f64 3b3d 60a2 5c3d
00000220: 6dca d13b 0b28 57bd 02b7 d5bd 8e38 443d
00000230: 4e0c 093e c27c 64bd b00e dc3d 015c 76bd
00000240: 6dfe c1bd 6d13 80bc 8195 6ebd 95cf 2cbd
00000250: 1267 8a3d 3ddf 2c3e 3776 453d 74a6 85bd
00000260: 3e03 54bd 9ed4 06be ab0a b53d 5bfe c437
00000270: c9d8 b7bd d998 c63c a2f3 1abe d6f1 113e
00000280: 1dd7 1bbd a065 a53d 0328 2b3d d7a6 dfbd
00000290: 2264 4ebd 7e8e 00bd daa5 0fbe 1c41 b33d
000002a0: 8eb7 f13d 008a 1fbe 4bee f03d 8be5 103e
000002b0: c01c ee3c e1a4 6dbc 656e c5bd c249 c4bd
000002c0: df4a fdbc ca44 e0bd e058 08bd 72e6 9bbb
000002d0: f2f8 d73d 1387 bc3d 4c0d 8abd d2d2 1cbd
000002e0: 1de3 c73d 7eeb c53a 9f40 833d 65a5 383d
000002f0: f60e 35bd 5573 583a dbaa bd3b ea03 de3d
00000300: 22fa 003e efdb dd3d 5f8f fcbd fa6a 623d
00000310: 6cad 053e fcb3 09bd 3818 083c aee7 8e3d
00000320: 7c07 09bd 0910 b93d 389b 3c3d fe10 8d3d
00000330: 579d 653c 4ff7 d33d 8496 d0bd 572f 053d
00000340: 6968 00bd 7b56 23be 6824 98bd 3339 213e
00000350: 9dd2 87bd 7402 c23d bf6a 14bd d2b4 57bc
00000360: 67d8 10be 6b2b 6c3e cf90 533e 083d 10bc
00000370: f51e 06bd c0de 88bd a76e 263b caef 823e
00000380: b025 103e a24f a53d a5e2 6f3c 13a9 89bd
00000390: ffcd a73d 13a0 06be f99a 453d d2fe f5bd
000003a0: dfc4 6f3d 31e9 a43d 6ba5 963e 118c cbbd
000003b0: a2b3 0dbc 1943 c0bd 45ef f0bd 3a51 17bd
000003c0: 216e d5bd 41e1 7e3d 1d12 f1bb 5a53 803d
000003d0: 8af1 233d 0607 b6bd 9f8c 0b3d 591c ccbc
000003e0: a2a7 923d 5f71 dc3d ff06 e8bb 1dc1 ce3c
000003f0: aa31 39bc fdf7 83bd 23e1 063e 9a8b 8b3c
0.07631667 0.20306881 0.037310112 0.0074936273 0.15329513 0.087935224 -0.031058185 -0.081636764
0.015933419 0.10098384 0.17449407 0.16357364 -0.036308955 -0.075808436 -0.07348742 0.10272295
0.07981623 0.039577033 -0.05406974 0.08617349 -0.0082485685 0.05130971 0.19069356 -0.010746092
0.049208272 0.07849987 0.046370376 -0.07155024 -0.107897736 0.106148735 0.05159732 0.022212636
0.07617979 -0.18244803 0.06803045 0.08702351 0.22492759 0.042552605 0.07427031 -0.13238983
0.17557243 0.06279752 0.070386454 0.006971018 0.09763214 -0.07535936 -0.03831665 0.09819153
-0.09047175 0.14763832 0.043357883 -0.12711543 0.008940393 -0.060951367 0.23182377 -0.0012603704
-0.12446454 -0.10656021 0.11461244 0.0986846 0.12627132 0.059151027 -0.14889911 0.06160039
-0.04907551 0.0194251 -0.08920882 0.05275523 -0.08836312 0.018040104 0.18751779 0.02562568
-0.058803424 0.07155309 0.008007339 0.1740993 0.10835868 0.054759778 0.05076755 -0.09725762
0.14306703 -0.086587094 0.10256281 0.122262046 -0.027059192 -0.06011916 -0.09624805 0.14735836
-0.016293485 0.097141445 0.032283206 0.1855577 -0.0004800193 0.0019969891 0.07955539 0.16194558
0.16394304 -0.07227447 0.035919987 0.08359555 0.15372416 0.10754055 0.0574703 -0.16233648
-0.08952017 0.011532142 -0.06514076 0.19417794 0.011599512 -0.09212463 -0.14628185 0.10204089
-0.011258121 0.09325686 -0.02261827 0.08290732 0.1250821 -0.019257642 0.14475077 0.14828947
0.05687358 0.068501934 -0.07947367 0.058218334 0.1959407 0.03598046 0.044897933 -0.002303839
0.087993115 0.05771688 -0.02418535 -0.10681801 -0.083917685 0.007006544 0.045750137 0.05386579
0.006402305 -0.052528422 -0.104352966 0.047905497 0.133836 -0.05578304 0.10744989 -0.060146336
-0.09472356 -0.015634263 -0.058248047 -0.042190153 0.0675794 0.16882034 0.04820844 -0.06525889
-0.051760904 -0.13167045 0.088399254 2.3483464e-05 -0.08976895 0.024242805 -0.15132001 0.1425241
-0.038046945 0.08076024 0.041786205 -0.10920494 -0.050388463 -0.03138589 -0.14028111 0.08752653
0.118025884 -0.15579987 0.11764201 0.14150064 0.029066443 -0.014504642 -0.09640197 -0.09584381
-0.03091949 -0.109506205 -0.033287883 -0.004757696 0.105455294 0.09205451 -0.067408174 -0.03828699
0.09760115 0.0015100089 0.0640881 0.045079608 -0.04420372 0.0008256932 0.00578819 0.1084059
0.12595418 0.10832965 -0.12332033 0.055277802 0.13054436 -0.033618912 0.008306555 0.06977783
-0.033454403 0.090362616 0.046046466 0.06888007 0.0140145635 0.10349905 -0.101849586 0.03251585
-0.031349573 -0.15950958 -0.07428819 0.15744476 -0.06631968 0.09473124 -0.036234614 -0.0131656695
-0.14145051 0.23063438 0.20660709 -0.0088036135 -0.032744367 -0.06683111 0.0025395544 0.2557357
0.14076877 0.080718294 0.014641439 -0.067217015 0.081935875 -0.13147001 0.048243497 -0.12011494
0.05853736 0.0805229 0.2942308 -0.09938825 -0.008648785 -0.09387798 -0.11764387 -0.036942698
-0.10421396 0.062226538 -0.0073568956 0.06265898 0.04002527 -0.08888058 0.034069654 -0.024915861
0.0716088 0.10763811 -0.007080912 0.025238568 -0.011303345 -0.064437844 0.1317182 0.01703434

lstm.weight_ih_l1 f4 [256, 64]
00000000: a027 efba 9ffb 2ebe a2ce ad3d d07f 8dbe
00000010: 5ea2 70be 17fd 943d 1974 ab3d 4a84 84bd
00000020: a629 383e c5e6 8bbc a8df 95bd 0c05 8bbd
00000030: 1d32 453e df95 d93c f3df b83d 78a9 063e
00000040: 0721 8b3c 6254 a1bd cf03 253d 251b a33d
00000050: c77a a8bd 4d67 173c 11f5 1abc 1f91 113e
00000060: e862 21bd 8e99 9ebd 7530 86bd 51e7 063e
00000070: 5c12 a6bd 2803 45bd 3545 98bd 5f2e 3bbd
00000080: faae 8a3c 2fcc e93d e9d6 123e 3009 2c3d
00000090: 45b0 4fbc cb41 f8bb 2a4a 19be beb9 b8bc
000000a0: bbba 393e 6533 70bc 3248 983e 0bab 3e3d
000000b0: e457 493d f774 c3bd c0e1 e43d 6bed f1bd
000000c0: 7345 90bd a3f3 cb3c ba27 073c a1b3 b5bc
000000d0: 71e4 8d3d dde2 08be b78a a93d d02c e43d
000000e0: 7ee0 2cbd e4ec 6f3b 424c 823d f2c7 223b
000000f0: 0b6e 5cbe 4b04 743d 8df0 c03e 5cc0 133e
00000100: 413d 94be d7c7 28be 7ad1 29be 8b8f cbbd
00000110: d8d5 ba3d 985f 653d 8b21 933d c414 57bc
00000120: 24f7 2d3d 96e8 eebc 1175 053e 5ba2 193e
00000130: 4610 863c 8069 78bb 0240 cebb 0729 753d
00000140: ba7f eebd 8bb4 053e f29a 7c3d a607 b7bc
00000150: 27cf a8bd 85ba a0bc 9ba4 8f3d 88b3 bcbc
00000160: 7033 ab3d 32c6 0abd 8653 6b3d 7107 13be
00000170: 1444 c5bd 2add 883e 8886 15bd 4140 d8bd
00000180: ce8c 0a3d d077 8fbd 0024 a63d c999 913d
00000190: 384f e33b 68d9 ad3c 5e56 173d ff10 bbbd
000001a0: 427b 93bd 879f c93d 6407 1bbd 2cfe 753d
000001b0: f3e4 9a3d 56ea 0dbe 10be 8fbd f9f1 00bd
000001c0: 1473 db3d f2c4 bf3d d049 513d 39bb 423e
000001d0: 3472 97bd 6702 62bc c51c 383e 9633 d4bd
000001e0: c9be de3d d8c6 133e 9650 fbbd 2264 4a39
000001f0: 32f6 30be eda6 13bd 9650 b63d 472b a7bd
00000200: 7dd6 9cbd 76d4 f03d 63cd 07be e33c 5abe
00000210: 71ef 773b 4223 d2bd e7de 88bd cfb2 603e
00000220: efa1 1f3d b038 3c3d 2a8d 87bd 9014 223e
00000230: 4ce7 373d 08b9 d4bc ed75 95be 811e 713c
00000240: 21b2 8b3d 2032 19bc 2181 dd3d 9957 e9bd
00000250: 395a 43be 4a4c b1bd e694 7a3d 28e0 3b3d
00000260: 0aeb 11be 2c7c 553e 43c9 c43c 1087 85bd
00000270: ee14 1dbe 56f4 ecbd 1e87 63be 7727 45be
00000280: cd6f d43d 9c42 44bd d3c2 15bd 0b48 c4bc
00000290: b9d0 103e 79df 66bd a02e 09bd 09d3 c4bd
000002a0: b14b 25be 097a 043e 4d91 313e 0f12 3fbd
000002b0: ee58 06bd 9320 2a3c 9fab b23d e3e4 263d
000002c0: 7e3b 1fbd d817 23bd 609c a83d af05 353c
000002d0: 1f81 843c 2f8d b13d a88a 01be 2a90 86bd
000002e0: 52a3 29be 9954 8abd eca8 073e 9a8b 80bd
000002f0: 30e2 d83d 65e2 b73d 7f51 efbd d24f 673d
00000300: 2d90 483d 6ace c8bd 7a4d 543c 0524 0b3d
00000310: 495a ec3d adc6 ad3d 0a3d 2abe 93f2 8abd
00000320: 1362 35be 2cc2 a1bd f161 15bd bcc9 c43d
00000330: 1465 23bd 4e84 b8bc d84c 313d 797c 72bd
00000340: 7b3c 223c 05b3 703d 4933 11bd 61c8 713d
00000350: 2e8c 81bc a556 123e 6fc8 71be e598 053e
00000360: 0520 0e3d 8c5e 9abd fd84 95bd 8423 d5bd
00000370: 68e7 3a3e bdf9 87be b648 143e 78d8 9e3e
00000380: ea76 c2ba 6a5d cbbc e7ca 95be 1893 3dbd
00000390: da08 a73b bd6c 3dbe 8639 82bc da51 673d
000003a0: 9402 ac3e f7dd 39bd 1497 603e a18a 3bbe
000003b0: dc38 b83e 6f6c 0dbe 1e11 c4bc 0fda 14ba
000003c0: bd99 fabd 8bcf 573e 547b e53d 84d1 f6bd
000003d0: 4f0e 2e3d 9d2c 8d3d 049d 4f3e abc4 11be
000003e0: 2a37 0d3d 0991 40be 98b1 35be 3208 033d
000003f0: 0857 abbd 644d f6bd 750c c53d c549 7b3e
-0.0018246062 -0.17088173 0.08486678 -0.27636576 -0.23499438 0.072748356 0.08371753 -0.06470545
0.17984638 -0.017077813 -0.0731805 -0.06788072 0.19257398 0.026560722 0.0902709 0.13150585
0.016983522 -0.07877423 0.040286835 0.07964162 -0.08226543 0.009240937 -0.009457842 0.14215516
-0.039400965 -0.07744132 -0.06552211 0.13174178 -0.081089705 -0.048098713 -0.07435075 -0.04569852
0.016929138 0.11415898 0.14339794 0.04200095 -0.012676303 -0.0075762025 -0.14969698 -0.022549506
0.18137638 -0.014660691 0.2974258 0.046549838 0.049156085 -0.09543794 0.11175871 -0.11812862
-0.070444964 0.024896448 0.008249218 -0.02218038 0.06928337 -0.13367791 0.08278411 0.1114136
-0.04220628 0.0036609704 0.06362201 0.0024838415 -0.21526353 0.059574407 0.37683526 0.14428848
-0.28952983 -0.16482483 -0.16583815 -0.09939488 0.09122819 0.05599937 0.07184132 -0.0131275095
0.04247202 -0.02916364 0.13032939 0.1500334 0.016365182 -0.003790468 -0.0062942514 0.05985358
-0.11645456 0.13057153 0.061671205 -0.022342514 -0.08242636 -0.01962019 0.07013818 -0.023034826
0.0835942 -0.03388042 0.0574527 -0.14358307 -0.096321255 0.26731235 -0.036505252 -0.105591305
0.033825688 -0.07005274 0.08112335 0.0710941 0.006936934 0.021221831 0.0369476 -0.09134101
-0.07201244 0.098448806 -0.037848845 0.06005685 0.075632 -0.13858923 -0.070186734 -0.031480763
0.10715309 0.09363736 0.051095784 0.19016732 -0.073948294 -0.013794518 0.17979725 -0.10361402
0.10876233 0.14431322 -0.1227123 0.00019301524 -0.17281416 -0.036047865 0.08902089 -0.081625514
-0.07658098 0.11759274 -0.13261943 -0.21312289 0.0037831927 -0.10260631 -0.0668314 0.2194321
0.03897279 0.0459525 -0.06618722 0.15828156 0.044898316 -0.025967136 -0.29191533 0.014716745
0.06821085 -0.00935033 0.10815645 -0.11393661 -0.19077386 -0.08657129 0.061177157 0.04586807
-0.14249817 0.20848149 0.02402175 -0.06519902 -0.15340015 -0.11570041 -0.22219512 -0.19253336
0.10372887 -0.047915086 -0.036562752 -0.023960134 0.14142121 -0.056365464 -0.03349173 -0.09610564
-0.16142155 0.12937178 0.17340584 -0.04664808 -0.032799654 0.010383743 0.087241404 0.040745627
-0.038875096 -0.03981766 0.08232951 0.011048718 0.016174851 0.08669507 -0.1265055 -0.06570466
-0.16566208 -0.06754417 0.13248032 -0.06276627 0.10590017 0.08978728 -0.11685466 0.056472607
0.04896562 -0.09804995 0.012957925 0.033969898 0.11540658 0.0848516 -0.16624847 -0.067845486
-0.17713194 -0.078983635 -0.036470357 0.0960879 -0.039891317 -0.022524025 0.043286175 -0.059200738
0.009902115 0.058764476 -0.0354493 0.059028987 -0.015813913 0.14290865 -0.23611616 0.13046606
0.034698505 -0.07537565 -0.07300756 -0.10407165 0.18252337 -0.26557723 0.14480862 0.31024528
-0.0014836465 -0.024824817 -0.29256365 -0.046282858 0.0050974907 -0.18498512 -0.01589657 0.056474544
0.33595717 -0.045377698 0.21932632 -0.18314601 0.3598088 -0.13810895 -0.023933943 -0.0005678245
-0.122363545 0.21075265 0.112051636 -0.12051681 0.042494114 0.06893275 0.2027474 -0.14235179
0.034476437 -0.18805327 -0.17743528 0.031990238 -0.08366209 -0.1202648 0.096215166 0.2453986

lstm.weight_hh_l1 f4 [256, 64]
00000000: e9d1 843c 7a4b 7b3c c3b9 c63c 6360 bf3c
00000010: 7d4b 23bd a11e 223e 452a b9bd 51ed 1cbe
00000020: f50e 963c 7617 ef3c a205 aabd 3ec1 c9bd
00000030: ddb4 123d 71b8 aebc dbb1 f6bb c32b cb3d
00000040: 0022 013d a7a0 303d dac9 a73b 2ea0 14be
00000050: 6953 a3bd 27ad 073e 6c19 a93d b8c4 833e
00000060: 56c0 7e3c bc8e 5ebd c650 f93d 73f8 2dbe
00000070: 8a94 8abb 6a28 db3d f7b2 f7bc 2f07 38be
00000080: dfd3 2ebd 8683 28be fbf2 7e3d 6ad0 11be
00000090: 9a23 11be c683 afbc 8297 1e3d c380 8fbd
000000a0: a595 e43d 8b4f 07be f56a b4bd d9fc 6bbd
000000b0: 0fdf 913d 4c0a 263d 9c84 253d ddbc d1bd
000000c0: 69af 453d ff38 d1bc c10e f1bd 4e25 ae3d
000000d0: 67b9 843d 6f78 c23d 6b49 d03c c8fd 943d
000000e0: 39bc b23c 1762 e93c 9f2b 90bd 9cac c83d
000000f0: efe3 453d 566d a5bc 6745 323d 0109 2dbd
00000100: f6f5 43be e15b 833d 3ee7 dc3d 50f4 91bd
00000110: 202d c9bd 7d93 c33d 4e1d edbd bd5f 52bd
00000120: 6a26 293d ff4d df3c ea35 f03c bf3a 38be
00000130: 2614 a13d 7cb4 24be 25d5 eabc 957e 0abd
00000140: d18c 373e 50a2 15be 9727 f03c 8237 53bc
00000150: 6933 163e b3fb a83c bfac 87bb bc51 87bc
00000160: 8af7 013c ebbd d2bd 0c6d d8ba 3e1b db3c
00000170: 0bf0 c5bd 6112 03be 1549 50bd 90f6 bd3d
00000180: 663e fcbc 981b 573d b221 bb3d 8210 57bd
00000190: 30ff e0bd e4b0 f33d 9106 253e 3683 91bd
000001a0: 8199 ec3d 99a8 063e 0152 0f3e c394 20be
000001b0: a2e3 cfbd 65f5 12be e270 133e 96ed 313d
000001c0: 5ece 2abd 6c1f 5abd e93b 933d 1e0f 953d
000001d0: 41c4 ab3d 369b 203d 1223 563c baca 2cbd
000001e0: fafa 9a3d 1cd5 27bb dfc5 af3c 890a 3dbd
000001f0: 15b9 b83d 405e 813d 1b3b 3ebd 114d 00bd
00000200: 4bbc acbd 9b8c cb3d aec5 b7bd 5b47 8c3c
00000210: 6e87 0a3d 2de7 19bd 46f3 0a3d 8772 6d3d
00000220: 3506 2dbd eeae ef3d 64f3 06be ed7b 2b3d
00000230: 0107 763d 29c5 db3b 8e4b 08be 2cba 453d
00000240: 319e 1b3e 6ec3 8abd 2769 9b3d a7b3 babc
00000250: e80b 9cbd f46b 1abe cd21 d9bc 697c afbd
00000260: 8ac1 f2bb a3f9 103b 011f 743e ad21 41be
00000270: 3f78 0e3d 47a5 c0bd 3af7 aabc c3fc f33d
00000280: 95b8 8b3c a4a8 82be 8f02 0abe 6a21 a63c
00000290: fab8 c63d 8bab ef3d 3ddd 73bd 0e4e fbbd
000002a0: c941 d43d c837 a1bc 5fbb 1e3d 74a4 f3bc
000002b0: cc34 cc3c eab1 ac3d b561 8dbd 910a c43d
000002c0: c682 213e 1c22 b73d fa62 bb3c 0a67 d2bc
000002d0: ad15 7b3d 8043 9fbd 0429 bd3d ff84 a63d
000002e0: e8c3 3b3e ea63 f13c dfac b73d 5835 903d
000002f0: 3fe9 8bbd 4476 2abe aa9c cc3c b3cb c2bd
00000300: 972c 043e 3fa9 09be 5cc0 3a3d d881 773d
00000310: 392d 00be d974 a7bd b2ad 0d3d e2b7 d2bc
00000320: 03e0 083d b0e7 2bbd 9f25 9bbc 69a3 14be
00000330: bccf adbc 54c4 063d 7d6e 1abe ff40 163d
00000340: a5d3 27be 86c1 f53b 5a4c 183d 4b01 553e
00000350: 89aa 50be af41 ab3d 346a f63c d6ab b1bc
00000360: 1e3b 0b3e 2754 c0bd dca4 863c b7e1 00be
00000370: 810a ea3d d413 213d b32d 05bd 466e c0bd
00000380: 8e8c 3b3d 4689 a23d 125d 813d a4f4 b4bd
00000390: 44ef 303d 270b 803d 3f5c ffbc 730d 8c3c
000003a0: 0475 95bd d366 4fbe e663 853d bd69 a43d
000003b0: a4cb 543c f2b4 233e 5b3a 2b3e 2a26 263e
000003c0: feef 11be af0d 81be 2fbc 1d3e 1c16 20bc
000003d0: 3245 b4bc 4d5e 2d3d 09d7 cdbd 272b 9bbd
000003e0: 6413 1bbc 9095 01be 002e d9bd c19a cfbd
000003f0: 9738 d83d 5012 8f3c 0445 a1bd 1620 593d
0.016213374 0.015337819 0.0242585 0.02336139 -0.039866913 0.15831997 -0.090412654 -0.15324904
0.018317679 0.029185992 -0.083018556 -0.09851311 0.035817016 -0.021328183 -0.0075285262 0.09920456
0.031526566 0.04312196 0.005120498 -0.14514229 -0.079748936 0.13249646 0.08256802 0.25736022
0.015548786 -0.05433534 0.121736094 -0.16989307 -0.004229133 0.10701068 -0.030236704 -0.1797149
-0.042682525 -0.16456422 0.062243443 -0.1423966 -0.14173737 -0.02142514 0.038718708 -0.07006981
0.11161355 -0.13213937 -0.08809463 -0.05761418 0.07122623 0.040537164 0.04040967 -0.10241101
0.048262987 -0.025539873 -0.11770392 0.08503209 0.06480675 0.09495627 0.025425633 0.072749674
0.021818267 0.028489156 -0.0703957 0.097985476 0.048313078 -0.020193737 0.04352322 -0.042244915
-0.19136795 0.06414009 0.107862934 -0.07126677 -0.0982306 0.095496155 -0.11577855 -0.051360834
0.0412964 0.027258871 0.029322583 -0.1799116 0.07865171 -0.16084474 -0.028666088 -0.033812124
0.17924811 -0.14612699 0.029315753 -0.012891652 0.14668049 0.020627832 -0.004140466 -0.016518466
0.007932553 -0.1029013 -0.0016511991 0.026746389 -0.09664925 -0.1279998 -0.050850946 0.09275544
-0.030791473 0.05251655 0.09137286 -0.052505977 -0.10986173 0.118989736 0.16115786 -0.071051046
0.11552716 0.13150252 0.13996126 -0.15681748 -0.101508394 -0.14351423 0.1439853 0.04343947
-0.041700713 -0.053252622 0.07189161 0.07278274 0.08387042 0.03921052 0.013069885 -0.042185523
0.07567401 -0.00256092 0.021456657 -0.046152625 0.090196766 0.06316805 -0.046443086 -0.031323496
-0.084343515 0.09938928 -0.08973251 0.017123869 0.033820562 -0.037573982 0.03392341 0.05797055
-0.042242248 0.11703287 -0.13178784 0.04186623 0.060065273 0.006706853 -0.13310072 0.04827325
0.15197064 -0.067755565 0.075884156 -0.022790743 -0.076194584 -0.15080243 -0.026505375 -0.08568651
-0.0074083256 0.0022121451 0.23839952 -0.18860503 0.034782644 -0.09406524 -0.02086984 0.11913445
0.017055789 -0.25519288 -0.13477539 0.020279605 0.0970325 0.11702641 -0.05953716 -0.12270747
0.1036411 -0.019679919 0.03875291 -0.029741503 0.02492752 0.08432372 -0.06903402 0.09572328
0.15772542 0.08942053 0.022874344 -0.025683898 0.06129997 -0.077765465 0.09236339 0.08130836
0.18336451 0.029466588 0.089685194 0.070414245 -0.068315975 -0.16646677 0.024977047 -0.09511509
0.12907635 -0.13443469 0.045593604 0.060426563 -0.12517251 -0.08176584 0.034589477 -0.025722448
0.03341676 -0.041969 -0.018938838 -0.14515461 -0.02121722 0.032902077 -0.1508121 0.03668308
-0.1638933 0.0074998764 0.03718219 0.20801274 -0.20377554 0.083621375 0.030079938 -0.021688383
0.1359677 -0.09391051 0.016436033 -0.12586103 0.11427785 0.03932555 -0.032514285 -0.09396033
0.04578834 0.07936339 0.0631658 -0.08835724 0.04319693 0.06252127 -0.031171916 0.017096257
-0.072977096 -0.20254068 0.06513195 0.080279805 0.012988005 0.15986994 0.1672148 0.16225496
-0.14251706 -0.25205752 0.15403818 -0.009770896 -0.022005651 0.04232626 -0.1005078 -0.0757659
-0.009465072 -0.1265471 -0.10604477 -0.10136939 0.10557669 0.017464787 -0.07874492 0.053009115

lstm.bias_ih_l1 f4 [256]
00000000: c3c9 e4bd 9923 54bd 108a 283c 8257 63bd
00000010: 76b9 133d 93bb 1a3d c10d 15bd 1426 f4bb
00000020: 0c50 f23d 7e45 0abe 523d cf3d c99c 18bd
00000030: f847 c3bd 1090 84bd 8501 8f3d 781e 2dbc
00000040: 8ef8 b03c 9677 bdbd 04b7 083d 5688 fc3d
00000050: e4ea 083d 3004 833d 8aa6 6abd 0acf aebd
00000060: d845 6e3c a304 11be 879a 24bd 197f 77bd
00000070: 1320 103e b84f 00be 1539 293d c6e9 7abc
00000080: 62eb 7ebd 95e7 0abe a205 a83d c037 0d3d
00000090: 5eaf d33d 64c4 d03d c768 ffbd 3cda 25bd
000000a0: b89f 2dbd 5fa2 94bd 6c1d f3bb 4f31 29bd
000000b0: 096f 013e 1555 c0bc cab8 5e3e a70c 373e
000000c0: 5069 683c 6550 923d 292c a6bc 074b c8bd
000000d0: f232 833d 9ed7 fbbd 1cb4 233e f8b8 8f3c
000000e0: ab69 24bd 3e84 a1bb 641c b43d 5af9 b53d
000000f0: 2aff f9bb 025a d0bd e9cc 063e e2a8 0a3d
00000100: 5b79 a83d ff40 dcbd 125c 033e a672 05bd
00000110: 8b96 2cbd fd25 01be b626 9939 bc7f a7bc
00000120: fcad 66bd 7b4f 08be 3fd6 5cbd bfe0 31bc
00000130: e960 213d c142 043e f3de 35bd b9ba e13d
00000140: e6a1 f93d b08b 19bd 5f6e 263d 3b9b 86bc
00000150: 6f98 e4bc bb96 273e ea37 1dbc 0442 d33c
00000160: 6f07 133e e7a3 c1bd 074d 113e 071f 873d
00000170: 9c22 ad3d 9cc5 6f3d 7668 8b3d 0c11 64bb
00000180: 9c8b 083e ff9f a73d 53a3 fc3c 3378 a3bd
00000190: 4a42 533c 56cb b3bd 396e 913c e427 5dbc
000001a0: 4fb1 503d 6c3d 0e3e 65b8 ecbc b87c 77bd
000001b0: e4e9 33bc cec3 803c 98bf d43d 5ce2 5b3d
000001c0: 9c07 bd3d a2e7 b83d 6bed bc3d 1c1d 41be
000001d0: 8830 6e3d 3e00 b53d bfe6 633e 95b0 0abe
000001e0: 3863 f0bc 29df 9dbd 26e8 b7bd 440e a6bd
000001f0: 0e60 033c bcee bfbd 3cf8 a93d 3182 a43d
00000200: 0208 dc3d d5fd b9bd 765b f8bc 70f1 ccbd
00000210: df29 573d f17a 953d e7e3 c2bc 8992 4cbd
00000220: fd4d e73d 767a 7abd 639c 923d 1a64 d4bd
00000230: b122 13bd 07e2 60bb 937c 10bd 4c44 9dbd
00000240: 8dc4 1a3d 3bdf aabc 447d 113d 7802 31bd
00000250: 3069 38bd 187f 67bd b7d8 573d f4f9 893b
00000260: 223e c6bd 3111 d43c 14ac 363d 435a 6d3c
00000270: 88ef 8fbb 8b06 70bd 7b55 1cbd 99c5 ec3d
00000280: 2433 d0bd 1a65 22bd 9dea 98bd 4e79 033c
00000290: 9c66 d63d 343a 983b 844c 8bbd c347 7a3d
000002a0: ccb7 543d b487 0c3e 355d f03d 4255 043c
000002b0: 9667 3dbb cf9b 773d 0fe1 debd a291 c53c
000002c0: 590a 133e 071c 5d3d 5309 21bd 595b a9bd
000002d0: bc15 ccbd 2249 b0b9 3ea7 f9bd 96a1 a8bc
000002e0: 3fc3 9f3d 4c05 c33c 8ae6 b2bd a56e 7a3c
000002f0: ad05 93bd 4f27 86bd b6ac 78bd 24f2 d5bd
00000300: 1759 6d3d 9278 41be 6c8b e73d 527b 413d
00000310: 9dc8 463c 3f85 2e3d e106 073e 6077 c83c
00000320: ec7b 463d 7cc5 b83c 3993 893d 5c18 a73d
00000330: 5405 ba3d c2ac 583d c357 07bd 8921 85bd
00000340: 8a6d 1cbd fce5 e93b d9b3 03bd 819c 3fbc
00000350: a5f2 1f3e f34d 953d d634 18be c1c5 873d
00000360: c7be f63c afeb f6bd 039e 9fbd eb4a a13d
00000370: 1ead a83d 987b 123e d532 733d 39ae 70bd
00000380: da6d c0bc f071 07be c877 20bd 19be c3bc
00000390: 08ec 9e3d 11d6 21bd f52a 0b3e ac55 323c
000003a0: be7e eabd 5d25 383e ff27 c0bd b549 483e
000003b0: 0417 c73d 7609 03be aa91 443e 7174 5f3e
000003c0: 68e0 52bc c1f4 ce3c 996e ab3d 8f3b 41bd
000003d0: fd7b 623d f420 133e c869 413e 2b1a 2b3d
000003e0: 651e 00bc 0af3 a73d 87cd 6abd d9c4 3c3d
000003f0: 8c5d 2bbd b01a 283d 498f 013e 6a2d 3a3d
-0.111712955 -0.05179176 0.010286823 -0.055503376 0.03606554 0.03777654 -0.03639007 -0.0074508283
0.11831674 -0.13503072 0.10119118 -0.037258897 -0.09535211 -0.0647279 0.06982712 -0.010566346
0.021602895 -0.09251325 0.033377662 0.123306915 0.033427134 0.06397283 -0.05728773 -0.08535583
0.014543019 -0.14161925 -0.04018643 -0.060423944 0.14074735 -0.1253041 0.041314203 -0.015314525
-0.062236197 -0.13564904 0.082041994 0.034476995 0.10336183 0.101937085 -0.124711566 -0.040491328
-0.042388648 -0.07257532 -0.007419279 -0.04130679 0.12640013 -0.02347807 0.21750179 0.1787592
0.014185265 0.0714424 -0.02028473 -0.09779935 0.064062014 -0.12296985 0.15986675 0.017544255
-0.040139835 -0.0049290946 0.087944776 0.08885451 -0.007629295 -0.10173418 0.13164105 0.033852465
0.08226272 -0.107545845 0.12828091 -0.03258004 -0.042135756 -0.12612148 0.00029211276 -0.02044665
-0.05631827 -0.1331157 -0.05391526 -0.010856806 0.03939906 0.1291609 -0.044402074 0.11021943
0.12189083 -0.037486732 0.0406326 -0.016431442 -0.027904717 0.16366093 -0.0095958505 0.025788315
0.14358304 -0.0945509 0.1418954 0.06597715 0.08453867 0.058538064 0.06807034 -0.00348002
0.13334507 0.08184814 0.030839598 -0.079819106 0.0128942225 -0.087790176 0.017752754 -0.01349828
0.050950345 0.13890618 -0.02889652 -0.060421675 -0.010981057 0.015718367 0.10388106 0.05368267
0.09229967 0.090285555 0.092249714 -0.1885876 0.05815175 0.08837937 0.22255991 -0.13543923
-0.029344186 -0.0770858 -0.08979826 -0.0810819 0.008018507 -0.09371707 0.082993 0.080326445
0.10743715 -0.09081618 -0.03031705 -0.10006988 0.052530166 0.0729884 -0.023790313 -0.049944434
0.11294172 -0.061151944 0.07158735 -0.10370655 -0.035921756 -0.003431441 -0.035275053 -0.07679042
0.0377851 -0.020858398 0.035519853 -0.043215245 -0.04502219 -0.05651769 0.05269691 0.004210705
-0.0967982 0.025887104 0.0445977 0.014486852 -0.004392568 -0.05859999 -0.038167458 0.11561126
-0.10166004 -0.0396472 -0.07466624 0.008024527 0.1046879 0.00464561 -0.068017036 0.061103594
0.051933095 0.13723642 0.11736528 0.008076968 -0.0028900853 0.060451325 -0.1088277 0.024117295
0.14359416 0.053981807 -0.039315533 -0.08269376 -0.09965083 -0.00033623824 -0.12190102 -0.020584863
0.07800912 0.023806237 -0.08735378 0.015285169 -0.07178817 -0.06550466 -0.060711585 -0.10446575
0.05794629 -0.1889365 0.113058895 0.047236748 0.012132791 0.042607542 0.13186218 0.024470985
0.048458025 0.022555105 0.067175336 0.08158943 0.090830475 0.05289913 -0.03304268 -0.06500537
-0.038190402 0.007138012 -0.032153938 -0.011695028 0.15619905 0.07290258 -0.14863905 0.066295154
0.030120267 -0.12056672 -0.0779381 0.078756176 0.082361445 0.1430496 0.05937465 -0.0587599
-0.023489881 -0.13227057 -0.039176732 -0.023894357 0.07759863 -0.03951079 0.13590606 0.010884684
-0.114499554 0.17983003 -0.09382629 0.19559367 0.09721187 -0.12796578 0.19196191 0.21821763
-0.012870885 0.025263192 0.08370704 -0.04717594 0.055294026 0.1436804 0.18888009 0.041773003
-0.007819747 0.08200653 -0.057324912 0.046086166 -0.04183726 0.041041076 0.12652315 0.045453466

lstm.bias_hh_l1 f4 [256]
00000000: 8f3c d5bd ab57 543c c300 b9bd 0521 503d
00000010: 7828 82bd d7f5 babd e4a9 cf3c b9cb e83d
00000020: 2c52 debc de67 31bd 54bc 03bd 76e5 7dbd
00000030: 5719 b23a 9076 a3bc 44cd 2d3c dcf5 343e
00000040: 1ab4 84bb 115b 953d 8a22 4fbd 27db 07bd
00000050: 85b0 183e 7642 fc3d f508 0cbe da09 0bbe
00000060: e547 f63d c7f3 00be 2bf9 7d3d d978 e439
00000070: bb4c 693d f679 133d b745 f03d 3fa1 b6bc
00000080: 1c0c 17bd b27a ca3c 5f8b e13c 0873 02be
00000090: ebcc 173e 2b29 50bd 74a9 293c 5ecd 1d3e
000000a0: 5e35 b9bd 85e5 373c 16c1 c4bd b463 933d
000000b0: 68e7 c0bd 4429 50bd 6018 f23d ed1f cf3d
000000c0: cbcf 193e 4524 983c ac6b 10bd 0e37 23be
000000d0: 3686 173d 0b42 c73d f46e 833d 2f95 723b
000000e0: 6f8a 9c3d fa41 33be 3761 973d 48d3 19be
000000f0: 469a 6dbd 0592 483d 11ec 143c 947a 82bd
00000100: 1da3 9fbd 494f cf3c 0594 423e 50e0 e13d
00000110: 7de1 75bd 7742 9abd d955 4a3c ac48 abbd
00000120: daba 553d ea0c f6bc cff0 a83d 1aaa ed3c
00000130: 2f37 8ebb 966d a3bd c49e 273e 2431 e23c
00000140: 5a89 dd3d 3f04 7bbd f5bd 6a3d e26f 613d
00000150: 7982 a53d da99 293e 5213 3e3b 69df c93d
00000160: b80a 203c 75ae 30bd 8dbc 183e 1e31 1e3c
00000170: 7b2e 043e 3358 b93d 484b 353a a965 02bc
00000180: bee9 d43b d2d9 e83d 9fd8 8f39 067b f4bd
00000190: de6e b8bd c67b c0bd e36b 003d 6f1d 3e3e
000001a0: 5e90 823d 075a 553d 3c03 22bd 1432 d3bb
000001b0: 8594 2b3e b194 cfbd 4827 4e3e 219a aa3d
000001c0: 18f9 d23d 6c8e a33d 7615 d13b ae09 483d
000001d0: 8cfc e7bc ad62 0e3e 2782 753e 720e 9abd
000001e0: 101c 74bd 64b3 c1bc f64d 8e3d 02b7 353d
000001f0: 2b15 d73c 73db 92bc 507f 0b3d c981 013e
00000200: 5fd8 f0bd 1b12 d73d 9a89 903d e8e4 bbbd
00000210: 30b0 923d 39ae 43bd 9640 83bd 82dd 44bd
00000220: 8bb0 a33d 9532 10bc 4bbc 4f3b 6113 203d
00000230: d7ee 21be 75a9 13bd 5474 1b3d 8913 b5bd
00000240: 79b6 dc3c 6160 253d ac4d b33d 943c 26bd
00000250: 4d6d 0b3e 7418 38bd 21c3 c7bd 75be 573d
00000260: cd68 cc3c 8bff 803c 66e0 ebbd 01f4 c83c
00000270: 79bf 273d 6214 b1bc f9fd efbc 7b8a c5bd
00000280: c893 ba3d 0cf2 9fbd 0fb3 e2bd 43ff b53d
00000290: 73af 10bd fda1 fbbc 02ac 103e 0a85 90bc
000002a0: bc4e 4a3d a7c5 9d3d d25b 2e3d 0f13 8cbd
000002b0: f7ce 9bbd 25c2 c73d 3b25 0dbe 0609 183c
000002c0: 8b12 593d ba22 f4bd bb61 15be fdea 8b3d
000002d0: 699d b8bd 64f1 00be d07a d7bd 34ef a33d
000002e0: 1e4b 133a d16a 46bd 73a9 803d 5821 363e
000002f0: 42bd 183d c1e2 10bd 0e9b a0bd 4862 21bd
00000300: cc64 dcbd c2a7 b73b 6861 b7bc 803c a3bb
00000310: 9922 f93c 26e5 1dbe b148 073e 152a 29bd
00000320: 2211 853c 1e80 f03c a330 193c 792a 4c3e
00000330: 7f4d aa3d 52b5 213e 8fa9 eebd 749e d4bd
00000340: 507e 22bd 4804 a5bc c211 8e3d a3f2 a23d
00000350: cbde f63d 37a0 73bd a207 61bd e28c 123e
00000360: 16c6 f93d c72d 98bb df2b 3b3d e631 503c
00000370: a8ef 1a3e fd2f ec3b 659d df3d af41 2dbd
00000380: 76fd 133d ec1a 31bd 7ebf 9abd 8ae4 06be
00000390: 8bb3 b53d ce6e ecbd 3982 b23d 1e7c 0ebd
000003a0: 55b4 ebbc 86d5 333e 24a6 dcbc 9e91 ad3d
000003b0: a72a 963c a007 c9bd c873 eb3d d186 503d
000003c0: 0106 2c3e 8b5e be3d ed0b b33c 99bf 38bd
000003d0: 8ef7 5e3e cba6 d23d 4742 843e 310e 14bc
000003e0: 92af 1f3e e1de f73d 7c5f d3bd 6ede 0abd
000003f0: 95e1 3fbd 456c d9bd e2ed be3d 4ccd 30ba
-0.10411941 0.012960355 -0.090333484 0.05081274 -0.06355375 -0.091289215 0.025349565 0.11366982
-0.027138792 -0.043311946 -0.032162026 -0.06198641 0.0013587874 -0.019953996 0.010608021 0.17671913
-0.00404979 0.0729276 -0.05057005 -0.033167984 0.14911087 0.12317364 -0.13675292 -0.13577977
0.120254315 -0.12592994 0.062005203 0.00043577587 0.05695794 0.036004983 0.11732047 -0.022293685
-0.036876783 0.024716709 0.027532278 -0.12739193 0.14824264 -0.05082051 0.010355342 0.15410373
-0.09043382 0.011224155 -0.09607141 0.07196751 -0.09419137 -0.050820604 0.118210554 0.10113511
0.15020673 0.018571982 -0.035258934 -0.1593897 0.036993228 0.097293936 0.06417647 0.003701519
0.076435916 -0.17505637 0.07391589 -0.15022004 -0.058008455 0.04896738 0.009089486 -0.06371036
-0.07794783 0.02530636 0.19001777 0.11029112 -0.060029496 -0.075322084 0.012349569 -0.083634704
0.05218015 -0.030035455 0.082490556 0.029011775 -0.0043400745 -0.07979886 0.16369158 0.027611323
0.10817213 -0.061283346 0.057310063 0.05503834 0.08081526 0.16562596 0.0029003215 0.09857065
0.009768181 -0.043135125 0.14915676 0.009655265 0.12908356 0.09050026 0.000691582 -0.007958808
0.006497591 0.11369671 0.0002743648 -0.11937527 -0.09005521 -0.09398608 0.03135289 0.18565916
0.06375192 0.05208781 -0.039553866 -0.0064451788 0.16755874 -0.101357825 0.20132172 0.08330179
0.10301417 0.07986149 0.006380732 0.048837356 -0.028318666 0.1390483 0.2397543 -0.075222865
-0.059597075 -0.02364511 0.069484636 0.044363983 0.02625521 -0.017926907 0.03405696 0.12647165
-0.117600195 0.105015 0.070574954 -0.0917452 0.07162511 -0.047773574 -0.06408803 -0.04806281
0.07992657 -0.008801122 0.0031697925 0.03908098 -0.15813766 -0.03605028 0.037952736 -0.08841617
0.026942478 0.040375117 0.08755049 -0.040585116 0.13615914 -0.044945195 -0.09754015 0.05267187
0.024952317 0.015746852 -0.1151741 0.024530413 0.040954087 -0.021616165 -0.029295908 -0.09645554
0.09110218 -0.07809839 -0.11069309 0.08886578 -0.03532357 -0.03071689 0.14128116 -0.017641563
0.049391493 0.07703715 0.042568035 -0.06839573 -0.07607835 0.09753827 -0.13783734 0.009279495
0.0529962 -0.11920686 -0.14588062 0.0683193 -0.090143986 -0.12592083 -0.105214715 0.08004609
0.00056187983 -0.04844171 0.0628232 0.17786157 0.037289865 -0.0353725 -0.07842074 -0.03940037
-0.10761413 0.005604715 -0.022385314 -0.0049815774 0.030412005 -0.15419444 0.13211323 -0.0412999
0.016243521 0.029357966 0.009349975 0.19938077 0.083155625 0.15791824 -0.116534345 -0.10381785
-0.039671242 -0.020143643 0.06936981 0.079564355 0.12054213 -0.059478965 -0.05493892 0.14311555
0.12195985 -0.004644129 0.045696136 0.012707209 0.15130484 0.007207869 0.109186925 -0.04229897
0.03613039 -0.043238565 -0.075560555 -0.13173118 0.08872136 -0.11544572 0.08716244 -0.034786336
-0.028772512 0.17561921 -0.02693469 0.0847504 0.018330885 -0.098159075 0.11496693 0.05090982
0.16799165 0.092953764 0.021856273 -0.045104597 0.21774122 0.102857195 0.25831816 -0.009036587
0.15594319 0.12103058 -0.103209466 -0.03390353 -0.04684599 -0.10616354 0.09322716 -0.0006744459
